模型代码/LSTM/weights/123.pth (torch_old, 15619 bytes, 13 tensors)

rnn.weight_ih_l0 f4 [48, 5]
000000 63 a8 86 be a6 2c aa be e0 94 1d bc 3c 60 1d bb
       -0.26300344 -0.3323719 -0.009618014 -0.002401366
000010 a5 96 2c 3e c2 ce 91 3e 9c 22 c4 3d 93 2e c1 3e
       0.16854341 0.28478056 0.09576914 0.37730846
000020 10 e4 b7 3e 47 d3 35 be a1 e2 f3 3e 96 59 89 3e
       0.35916185 -0.17756377 0.47633842 0.2682616
000030 84 b2 f4 3e c1 0f 07 3f 8f 51 6e 3f 02 88 29 3f
       0.47792447 0.52758414 0.930932 0.66223156
000040 ea 49 08 3f 18 97 d0 3e 2a 30 e9 3e f7 3c 05 3f
       0.53237784 0.40740275 0.4554456 0.5204615
000050 96 7a f8 3d 0b 88 85 3e a0 c0 9a bd de 3e 8b 3e
       0.121327564 0.26080355 -0.075562716 0.271964
000060 ec 81 c5 be af 69 f0 bd 40 4d 20 3e f6 67 b7 bd
       -0.38575685 -0.117389075 0.15654469 -0.08955376
000070 66 86 38 3e 0b 69 27 be 26 de 90 3e 5d 8d a8 3e
       0.18020019 -0.16348664 0.28294486 0.32920352
000080 e0 97 23 3f 14 a3 26 3e 91 f6 91 3e 8d cf a4 3e
       0.6390362 0.16273147 0.28508428 0.321896
000090 b9 47 98 3e f3 5d 28 3e 4a 31 16 3f 05 fd 4d 3f
       0.2974222 0.16442089 0.5866896 0.804642
0000a0 bf ca 99 bc a9 86 ba 3d b2 72 67 3e ee 3c 7a 3e
       -0.018773435 0.09107716 0.22602347 0.24437305
0000b0 7f 0a ee 3e 98 b8 a1 3d 9d 98 25 3f 0a 9b 27 3f
       0.46492383 0.078965366 0.64685994 0.65470946
0000c0 48 1d bc 3e 21 31 43 3f 3b 59 c3 bd c2 38 77 be
       0.3674109 0.7624684 -0.09538504 -0.24142745
0000d0 3b 87 83 be b9 0f 74 be 24 40 a2 bd 95 99 f6 3e
       -0.2568911 -0.23834123 -0.0792239 0.4816405
0000e0 0f 27 0d 3e f2 84 fd 3c 70 51 d3 3e 2c 99 93 3c
       0.13784431 0.030947182 0.4127307 0.018017374
0000f0 10 e8 10 be 8b 2b b6 be d5 aa 06 be eb 90 5f bd
       -0.14151025 -0.35580096 -0.13151105 -0.054581564
000100 c0 16 ef bc a9 4b c7 bd fe c5 e0 3e e9 e5 35 3e
       -0.029185653 -0.09731228 0.43901056 0.17763485
000110 89 a7 27 3e 6b 0b 7e be 85 5e 04 3d ad 74 b1 be
       0.16372503 -0.24809043 0.032316703 -0.3465933
000120 0f d7 37 3e a7 37 05 bd 52 c5 37 3f df 9f e1 be
       0.17953132 -0.032523777 0.7178546 -0.44067284
000130 e7 15 83 3c 8c e6 56 be d4 95 04 be 99 bc a3 be
       0.016001655 -0.20986384 -0.1294778 -0.31979826
000140 8b e4 14 3e 73 38 a4 bc 55 01 c3 3e 2c d1 e3 bd
       0.14540307 -0.020046448 0.38086954 -0.11123881
000150 38 a3 d3 3d 15 02 98 3d d8 94 2c be 02 97 a4 3e
       0.10333866 0.07422272 -0.16853654 0.3214646
000160 c1 71 b9 3c 1f 0b 78 3e d5 df aa 3d 20 47 be bc
       0.02263725 0.24222992 0.08343474 -0.023227274
000170 d5 bf 0e 3f f8 e9 5b 3e d1 ad df bd 6f ae 47 3d
       0.5576146 0.21475971 -0.10921825 0.048750337
000180 a8 b9 c7 3e 69 c5 e0 3e 2f 98 95 3e bf 17 e6 3e
       0.39008832 0.43900612 0.2921767 0.44939992
000190 f5 14 01 be a2 37 3c bd ce 65 21 be 68 e1 96 3c
       -0.1260565 -0.045951493 -0.15761492 0.018418029
0001a0 86 c7 11 3f 95 8c 1c be e9 5b 35 be 06 e0 7f 3d
       0.56945074 -0.15288003 -0.17710842 0.062469505
0001b0 ca 1b ba bd 9a 7b aa 3c 15 f2 67 be d2 2d 7e bd
       -0.090873316 0.020810891 -0.2265094 -0.062055416
0001c0 b0 5e e3 be f9 77 2c be 4e 92 07 bf a4 0d 7e be
       -0.44408178 -0.16842641 -0.5295762 -0.24809891
0001d0 e0 b2 d9 bc df b6 22 bd 34 43 99 3d a5 21 0f bf
       -0.026574552 -0.03972518 0.07483521 -0.5591071
0001e0 58 0c eb be 23 44 95 be ae 7d b5 be 3e 69 f0 be
       -0.45907855 -0.29153547 -0.35447448 -0.46955293
0001f0 09 40 27 bf 1b 48 b4 be 5f 37 09 be 4c 86 4b 3d
       -0.65332085 -0.35211262 -0.13400029 0.049688622
000200 85 c2 fd 3d b5 c4 17 3e af 1b 7c 3e 29 14 fd bd
       0.12390617 0.14821132 0.24619935 -0.12357361
000210 02 8a 39 be de 3d 8b be 8d d7 60 bf 96 ca 4b be
       -0.18119052 -0.27195638 -0.87828904 -0.19901499
000220 10 71 d8 bd 1e a3 43 be 43 3a e6 be 43 c5 7b bf
       -0.1056844 -0.19105193 -0.44966325 -0.9834787
000230 63 8a a3 be 8b 4c a5 be 24 ff 84 be 53 75 02 3d
       -0.31941518 -0.3228496 -0.25975907 0.03185017
000240 bb f8 9a 3e 4d 1e bd bd 93 a4 91 3d 9b 92 fb 3e
       0.3026789 -0.09234295 0.07111468 0.4913529
000250 22 85 2a 3e 03 8c 1e be 97 b4 6a bd 60 82 b0 3e
       0.16652349 -0.15483098 -0.05730113 0.34474468
000260 ad 03 f7 3e cc d9 99 bd 00 83 36 bd 49 11 06 3b
       0.48244992 -0.075122446 -0.044558525 0.002045708
000270 4a 9c 47 3e 09 16 38 bd 69 bd 09 3e 0f 7b 5c 3f
       0.19493213 -0.04494289 0.1345116 0.8612527
000280 bc 4d 79 bd 57 da 30 3e 9f 22 82 3e 81 56 d2 3a
       -0.06086515 0.1727079 0.2541704 0.0016047509
000290 14 d5 bb 3e b5 ef 5c bd fa 61 5a bc 8f ab cc be
       0.36686003 -0.05393954 -0.0133290235 -0.3997464
0002a0 b1 14 28 bf 68 d7 35 bf 6f 91 cd 3d c0 56 00 3d
       -0.6565657 -0.7103181 0.10037505 0.03133273
0002b0 06 3e 97 bb 70 26 21 be b1 75 58 3d 64 3b 58 be
       -0.004615548 -0.15737319 0.052846614 -0.21116406
0002c0 1c ea 1d be b8 36 8e 3d 6d 61 b5 be 7d 41 14 3f
       -0.15421337 0.069440305 -0.35425892 0.5791243
0002d0 2f 25 92 bd 4c dc ca be f1 cb 74 be f8 c4 15 be
       -0.071359985 -0.39621198 -0.23905922 -0.14625919
0002e0 04 0b 84 3e 09 77 e0 3e 6c f8 03 3f d2 30 94 3d
       0.25789654 0.43840817 0.51550937 0.07235874
0002f0 12 c0 08 3d 71 b1 d2 be 1d f9 fd 3e c1 2a df 3e
       0.033386298 -0.41151002 0.4960412 0.43587306
000300 48 fd 13 3f fb 94 d0 3e 53 17 4d 3f eb a0 0b 3f
       0.5780835 0.40738663 0.80113715 0.54542416
000310 bd 95 41 3f ca 48 5f 3f 42 5a 5a 3f 22 8d 5d 3f
       0.7561911 0.8722044 0.8529397 0.86543477
000320 0f 0f a8 3e 26 c8 1f bd de a1 d2 3e 52 3a 39 be
       0.3282399 -0.039009236 0.4113912 -0.18088654
000330 a4 28 b5 be 75 62 a1 bc 21 63 bd bc 26 5d 99 3e
       -0.3538257 -0.019700268 -0.023118557 0.2995388
000340 ad e3 bc bb f3 4a 21 3d 08 36 90 be df b8 98 bd
       -0.0057644458 0.039378118 -0.28166223 -0.07457136
000350 0b b7 e7 3c 8d f9 47 be ad 61 5e bf a0 3f 04 3e
       0.028285524 -0.1952879 -0.8686779 0.12914896
000360 2d 4c 03 3e 08 88 b4 3e 0d 15 1c 3f 8b 75 26 3f
       0.12822028 0.35260034 0.6096962 0.65023106
000370 71 1c 30 be 08 d5 ac bd 8a 5b 8e bd 16 ec ed bd
       -0.1719835 -0.0843907 -0.069510534 -0.116172954
000380 19 9f ae 3e d1 ba 25 be 78 3c 3a 3e 23 16 e1 3e
       0.34105757 -0.16184546 0.1818713 0.439622
000390 cc 5d 94 3e 20 41 5d 3f dd 13 6c bd 5f ea 1f 3d
       0.2897781 0.864275 -0.05763613 0.039041873
0003a0 2d f8 b6 bd b8 c2 78 bb 55 6d 56 be d7 0b 2a 3f
       -0.089340545 -0.0037957858 -0.20940144 0.66424316
0003b0 72 4d e5 3d df bf 02 3f 9e 1a 05 bd 42 d2 56 3e
       0.11196412 0.5107402 -0.032496087 0.20978644

rnn.weight_hh_l0 f4 [48, 12]
000000 0a 67 a9 bd 30 59 bb 3e 71 3f 82 bd 8e 10 05 3f
       -0.08271606 0.36591482 -0.06359757 0.51978385
000010 0a 5e 6a bd de 23 e5 bd e0 d4 bf 3d 1c 9d f2 be
       -0.05721859 -0.11188482 0.093667746 -0.4738549
000020 a2 63 6c 3e 4f 75 b2 3e 1b ab 9d 3d 45 9b c3 3e
       0.23084882 0.34855124 0.076986514 0.382044
000030 25 70 bb 3d 06 03 4c be 64 27 e7 3d 94 b7 ab 3c
       0.09152249 -0.19923028 0.1128681 0.02096156
000040 00 b7 76 3c c5 42 70 be e5 f2 e9 bd 04 59 80 be
       0.015058279 -0.2346297 -0.114232816 -0.25067914
000050 26 c5 81 bb bb d4 ba bd 5b 49 52 3d 2d d8 c6 3d
       -0.0039602695 -0.09122606 0.05133949 0.09709201
000060 c6 0b 54 be 5f d0 05 be f6 87 38 be cb 2d c6 3e
       -0.20707616 -0.13067769 -0.18020615 0.38706812
000070 b4 22 27 3e fa ab dc bc ef 33 b0 3e 8d a0 09 be
       0.16321832 -0.026937474 0.34414622 -0.13440152
000080 32 ef ed bd f0 ab 22 3e a7 2a 2f be 2c 6d a7 be
       -0.116178885 0.15885901 -0.17106114 -0.3270048
000090 f1 c4 f8 bd b8 fb 8e be ff 05 fc be 31 64 bf 3c
       -0.121469386 -0.2792642 -0.49223325 0.023363205
0000a0 89 cf 16 bf 4c 79 e8 3e 84 84 51 3f d9 e3 62 3f
       -0.58910424 0.45405042 0.8184283 0.8862892
0000b0 49 e7 52 3f 6b 3e 8e be 65 2c 64 3e d1 4a 8d be
       0.82384163 -0.27781996 0.2228256 -0.27596143
0000c0 a1 01 b4 3d 05 87 2e 3d 2d df c2 be ae ef 87 be
       0.08789373 0.042609233 -0.38060895 -0.2655005
0000d0 90 23 db 3c 03 76 46 3d 29 19 5f 3e c8 e6 9b be
       0.026750356 0.04845239 0.21786942 -0.3044951
0000e0 b8 da 33 3e 4a 6b f5 bd ca 8a 95 be e8 a9 77 3e
       0.17563903 -0.119833544 -0.2920745 0.24185908
0000f0 38 b0 75 3d 09 4d f2 3d 54 f2 44 be 7b e4 1e be
       0.05998251 0.118310995 -0.19233066 -0.15516846
000100 04 10 95 bc 8b e3 c7 bd 03 9c 2a 3e ca 80 38 bd
       -0.018196113 -0.09760197 0.16661076 -0.045044698
000110 14 c8 72 be 3c c3 91 3d 85 e8 78 be 21 47 b3 3c
       -0.23709136 0.07117316 -0.24307449 0.021884503
000120 97 df 82 be 36 32 8e be cd 21 1e be 80 f7 e0 be
       -0.2556121 -0.27772683 -0.15442581 -0.43938828
000130 26 38 39 be 67 4a ad 3d 97 16 b3 bd a2 a4 dc 3e
       -0.18087825 0.08461457 -0.08744543 0.43094355
000140 24 81 68 3e 45 b3 cd be 54 b2 16 be fa 20 e8 bd
       0.22705513 -0.40175834 -0.14716464 -0.11334415
000150 6a e7 c8 bd 28 8b db 3d fb b5 b8 be 34 40 c4 be
       -0.09809764 0.10719901 -0.3607634 -0.38330233
000160 a5 57 5e be 79 4b 6b 3e 9a a5 92 3e d0 66 6f 3e
       -0.21713121 0.2297801 0.2864197 0.23379064
000170 2d 21 02 3f 5c 41 d7 be f9 ba 6d 3d 71 70 99 3e
       0.5083187 -0.42042053 0.05803964 0.29968598
000180 ff 16 7b be b8 83 08 be e2 8c b6 be fe 40 a1 be
       -0.24520491 -0.13331497 -0.3565436 -0.31494898
000190 a1 2a a9 be 27 52 01 3f 7f 8e 83 3e 70 db 20 3e
       -0.33040336 0.5051598 0.25694653 0.15708709
0001a0 66 87 3f 3e d3 38 a5 bc ec 75 89 be c8 31 a6 bb
       0.18703994 -0.020168697 -0.2684778 -0.0050718524
0001b0 b7 75 a4 bd f7 ff 55 be a6 3a f1 bd 67 85 46 be
       -0.08030265 -0.20898424 -0.117787644 -0.19386826
0001c0 fd e6 96 bd 2f 63 f1 3e 0e a2 16 3f ae 2b 34 bc
       -0.07368276 0.47145984 0.58841026 -0.010996742
0001d0 04 01 62 3f d7 fc 2c be 7c d0 43 3d 9e 83 13 be
       0.882828 -0.16893326 0.047806248 -0.14405677
0001e0 45 25 bb be 39 a2 0c 3f 46 3a 09 3f e0 ee 6e 3e
       -0.36551872 0.5493503 0.53604543 0.23333311
0001f0 7f a1 a2 3e df f3 b2 bd 63 cf 08 be 26 43 19 bd
       0.31763837 -0.08737921 -0.13360362 -0.037417553
000200 ff 8c af be 5f 17 ba 3d 1d ca 76 bd 88 31 66 3e
       -0.3428726 0.09086489 -0.060251344 0.22479832
000210 6e 8c 78 be 1a b7 63 be 4d c5 68 be ee 86 10 3e
       -0.2427232 -0.22237816 -0.22731514 0.14113972
000220 95 b3 11 bf 1a a5 ba 3e 9d 91 f5 3e b9 e6 ae 3e
       -0.56914645 0.36454087 0.47962657 0.34160402
000230 6a 69 3a 3f 5a f3 d3 be 7e 82 c1 3d 76 1b e5 3c
       0.728171 -0.413966 0.094487175 0.027967196
000240 0d 91 5d 3d 94 88 77 3e 51 8a 02 bc 7e fd 5f 3e
       0.05409341 0.24173194 -0.0079675475 0.21874043
000250 70 6f 7a 3e f7 18 d4 3c a4 5a af bd 73 c6 f1 3d
       0.24456573 0.02589081 -0.0856221 0.11805429
000260 d8 de 04 be 54 cb ab 3e 2c f4 54 3e 24 0f a3 3e
       -0.12975633 0.33553565 0.20796269 0.3184749
000270 7a 59 37 3d e7 e9 cd 3b a8 6d f5 bc 18 7d f9 be
       0.044763066 0.006283987 -0.029959515 -0.4872825
000280 49 ad 3d be e1 02 a2 bd 50 71 69 bd af e2 1f 3e
       -0.18523134 -0.07910705 -0.05699283 0.15613817
000290 43 d7 d1 be a8 be 41 3d 5f b4 7e 3e b0 ec dd 3e
       -0.40984544 0.047300965 0.24873494 0.4334464
0002a0 af 48 62 3e 73 aa 92 3e 2c 2f 92 3e 3a 0a a0 3c
       0.22098039 0.28645667 0.28551614 0.019536126
0002b0 9a 3c b5 3e 0c 8d b5 be 0f 43 cb be a3 ce 59 be
       0.35397798 -0.35459173 -0.396996 -0.21270232
0002c0 31 38 15 bf 25 2d 5c 3e ae 03 a9 bd d7 64 5c be
       -0.58288866 0.21501596 -0.08252655 -0.21522842
0002d0 b5 ac f1 3e 10 69 dc 3e 75 50 9d 3e 86 07 88 3e
       0.47202078 0.43048906 0.30725446 0.2656824
0002e0 4b 45 ec 3b 11 bb 6a be 33 4d d4 be 8a 4a 0d be
       0.007210409 -0.22922923 -0.41465148 -0.13797966
0002f0 c8 4f db be 07 25 a6 bd ec e2 ef 3d 59 a2 e6 3e
       -0.42834306 -0.08112531 0.11713204 0.45045736
000300 0a 7f 5b 3d 87 ae 6d 3d cf a5 96 be 9b ac 33 bf
       0.05358795 0.05802777 -0.29423377 -0.7018525
000310 14 77 96 bb 82 f3 31 bd f0 6d 9c be bb b3 04 be
       -0.004591832 -0.043445118 -0.30552626 -0.12959187
000320 55 0f af be ff 2b 22 be 86 22 69 3e b3 51 09 3f
       -0.34191385 -0.15837096 0.22767076 0.5364029
000330 c5 3b 36 bc bf a0 a2 3e 31 00 fe 3d 1d 76 c9 be
       -0.011122649 0.31763265 0.1240238 -0.39347926
000340 87 ce d4 bd d6 6f 1a be c9 ee 59 3c 9d 1f c8 3d
       -0.103909545 -0.15081725 0.01330156 0.09771655
000350 d5 bb 46 be 28 c6 68 be bf 40 96 bd 24 26 af 3d
       -0.1940759 -0.2273184 -0.07336568 0.085521966
000360 42 84 85 bd 92 ae 49 3e 57 21 e0 be 46 16 b9 bd
       -0.06519367 0.196955 -0.43775436 -0.090374514
000370 29 f1 58 3e dd 6e b8 bd 2c 7a 22 be 6b ed d6 3e
       0.21185745 -0.090055205 -0.15866917 0.4197801
000380 7d c6 49 3e f5 a0 21 bd 9f a1 05 3e ca ff 21 3e
       0.19704624 -0.03946014 0.13049935 0.15820232
000390 ae af 90 bd b2 12 96 3e 88 23 27 be fa 0d 11 bf
       -0.07064758 0.29311138 -0.16322148 -0.5666195
0003a0 3d 31 52 be e7 9b 94 3d b7 1d 15 bd 31 12 7a be
       -0.20526595 0.072562985 -0.03640529 -0.24421002
0003b0 46 c0 f8 3c d1 e8 3e be 60 a7 66 3e e6 42 6c 3d
       0.03036512 -0.186435 0.22524786 0.057680987
0003c0 5c 99 f1 3d a6 8c 51 be 59 12 b3 bc 1e 70 ae be
       0.11796829 -0.2046381 -0.021859335 -0.34069914
0003d0 50 d1 c9 bd 16 46 93 3c 50 60 ba 3e 96 0f a9 3e
       -0.09854376 0.017977756 0.36401606 0.33019704
0003e0 a8 c6 a6 3e ef eb 12 be cb b0 0d be ba bd 61 be
       0.32573438 -0.14347814 -0.13836972 -0.22045031
0003f0 2f 87 be be 26 7b 68 3e ca 3a c3 bd 0c 4f 45 be
       -0.37212512 0.22703227 -0.095326975 -0.19268435

rnn.bias_ih_l0 f4 [48]
000000 0e eb 33 bc 69 fc 9c 3e 19 4a ac bd cf d0 1d 3f
       -0.010981334 0.30661324 -0.084125705 0.6164674
000010 94 dd 2d be e6 f1 85 3e 34 6a 33 3d a5 5d 58 3e
       -0.16979057 0.26161116 0.043802455 0.21129473
000020 85 c2 ef 3e ce a0 ef 3e 14 31 8d be 17 da d4 3e
       0.46828094 0.46802372 -0.27576506 0.4157264
000030 2d bf 68 3e ea af 6f 3e 58 d6 43 3d c6 eb 48 3c
       0.22729178 0.2340695 0.047811836 0.012263244
000040 d0 56 75 3e b4 4f 4c 3e 38 2e 25 be b6 4f b6 be
       0.23958898 0.1995228 -0.16130912 -0.3560769
000050 90 45 91 bb 55 f7 48 be f8 c9 ba 3a ae 2a d0 be
       -0.0044333413 -0.196256 0.0014250865 -0.40657562
000060 bb eb 0b be 3f e0 92 be 51 09 25 be 68 08 31 3e
       -0.13664143 -0.2868671 -0.16116835 0.17288363
000070 06 22 ab be 62 da a6 3e 84 e8 36 3e 93 51 75 be
       -0.33424395 0.32588488 0.17862135 -0.239569
000080 78 eb 97 bc 94 da 50 3e e5 42 56 be 8c bc 2a bd
       -0.018544897 0.20395881 -0.20923956 -0.04168372
000090 a0 7d 22 bd ac ad 36 3e 60 28 43 3e 29 fa 1c 3f
       -0.039670587 0.17839688 0.1905837 0.61319214
0000a0 e2 74 e6 3d e8 18 5b be b6 9c 99 3d 66 32 75 3e
       0.112527624 -0.2139622 0.07500593 0.23945007
0000b0 8a 04 bc 3e 78 37 08 3f ac 6a ea bd 90 47 27 3f
       0.36722213 0.5320964 -0.11446127 0.6534357

rnn.bias_hh_l0 f4 [48]
000000 d6 e4 8f 3e a1 74 f2 3d ee 80 e2 3d 19 e4 af 3e
       0.28104275 0.118386514 0.11059748 0.34353712
000010 27 fa da bd 8c 0c 72 be b2 88 94 3e fc 70 67 bd
       -0.10692244 -0.23637599 0.2901054 -0.056504235
000020 90 0f 57 3e e4 ca 39 3e bd af a2 bd da 6c 54 3e
       0.2100203 0.18143803 -0.07943676 0.20744649
000030 d7 fc 6f be 3d 99 02 bc 39 7a 60 be f9 3c bb be
       -0.23436294 -0.007971105 -0.21921624 -0.36569956
000040 4f f8 7c be 5a 41 d5 bd f7 cb 92 3e 86 dd 8e 3b
       -0.24704097 -0.104128554 0.28671238 0.0043599037
000050 2c ae 50 3e 5a d5 31 be 13 fb 48 be 60 80 5a be
       0.20378941 -0.17366543 -0.19627027 -0.21338034
000060 04 89 cf bd db 49 88 be bc 05 68 be f1 ca 90 3e
       -0.101335555 -0.26618847 -0.22658437 0.28279832
000070 1f 93 8f 3d 5f 05 a4 3e 7e ef c4 3e 80 f2 b7 3d
       0.07010483 0.32035348 0.38463968 0.089818
000080 af f1 4a 3e 07 b1 8d bd fa 9d 28 3e c5 76 47 be
       0.19818757 -0.06918531 0.16466513 -0.194789
000090 00 2b 4f 3d 34 15 48 be 0d 2c 9a 3e 2c 8d 62 3e
       0.050578117 -0.19539338 0.30111733 0.22124165
0000a0 72 5e 7f 3e dc a9 e5 3d d9 37 74 3e 5b 05 89 3e
       0.24938372 0.11214039 0.23849429 0.26761898
0000b0 23 c5 03 3e b7 95 a7 3e 9d 08 07 bf 78 b9 25 3e
       0.1286817 0.3273141 -0.5274752 0.16184032

rnn.weight_ih_l1 f4 [48, 12]
000000 95 0a 67 3d 7b e0 1f 3e d2 f6 82 be 33 df c3 be
       0.056406576 0.15612976 -0.25578934 -0.38256225
000010 43 33 ba bd 32 10 2a be 86 39 b5 be 06 2b 7f 3c
       -0.09091809 -0.1660774 -0.3539545 0.015574222
000020 e6 69 89 be b6 20 b4 3c 9e a9 b4 bd f4 bb 36 3e
       -0.26838607 0.021988254 -0.088214144 0.17845136
000030 5b e0 ed bd 60 4b 86 3e 7a a4 92 3e 04 a8 d0 3e
       -0.11615058 0.26229382 0.2864111 0.40753186
000040 be f8 01 3e 06 77 6e 3e dc 9d a7 3d 1b 9a 7d bd
       0.12692544 0.23287591 0.08184406 -0.061914545
000050 09 91 aa 3d 0a bf c4 3e 36 4b c1 3d d0 65 80 3e
       0.083284445 0.38427 0.094381735 0.25077677
000060 db 28 90 be cd b3 e8 bd ac a7 af be 70 4b 24 bf
       -0.2815617 -0.11362419 -0.3430761 -0.6417761
000070 86 89 8d 3e 34 57 7f 3d 84 cc 47 3e 5d ae 98 3e
       0.27643985 0.062339023 0.1951161 0.2982053
000080 23 64 d6 3e 8e b5 30 be db 35 8b 3e 69 54 ca 3e
       0.41873273 -0.17256758 0.27189526 0.39517525
000090 5d 5c 61 3d 06 cd 24 3e 27 ce c3 be da 11 83 be
       0.055019725 0.16093835 -0.3824322 -0.25599557
0000a0 6d ee fc bd f5 d1 dd bd e8 cd 14 3e 29 68 c8 3c
       -0.123501636 -0.10831062 0.14531672 0.02446373
0000b0 40 11 52 3e d8 1b 06 bf d2 2d dc bd 33 01 0d 3f
       0.20514393 -0.52386236 -0.10750927 0.55079955
0000c0 bf d5 94 3a c8 ac 65 3e 9a f4 1e be 7c b1 a0 bc
       0.0011355205 0.22429192 -0.15522996 -0.019615881
0000d0 fd d4 75 3e 15 6c c5 be 89 5b 93 be 94 e2 51 3e
       0.2400703 -0.38559023 -0.28780773 0.20496589
0000e0 72 e7 25 be c3 80 d4 bd 17 ce fc 3d 25 a4 b2 3e
       -0.1620157 -0.10376122 0.12343996 0.34890857
0000f0 76 2d ec be 7e 10 39 be c5 f0 2d bf da bf 5f bf
       -0.46128434 -0.18072698 -0.6794551 -0.8740212
000100 5e bc d5 be 35 bf 1d 3f 03 a0 e6 3d f6 c6 f3 3e
       -0.41745275 0.61619884 0.112609886 0.47612733
000110 42 8b 60 3f 3a 6c 2c bf d3 1d 07 be 64 2c ea 3c
       0.8771249 -0.6735264 -0.13194971 0.02858562
000120 db 8e 0b be 50 79 0d bf fc c5 8b ba 58 c4 15 3e
       -0.13628714 -0.55263233 -0.0010663862 0.1462568
000130 4e ca 06 bf 91 5c 4b 3e ee 3b 70 3e c5 c2 cb 3e
       -0.5265244 0.1985953 0.23460361 0.39797035
000140 1c 49 88 3e 86 f7 4a be 99 1b d4 3c d3 66 d3 be
       0.26618278 -0.19820985 0.025892066 -0.41289386
000150 04 29 11 be 83 9e 71 bd 7a af 9f be d1 63 d1 be
       -0.14175802 -0.05898906 -0.31188565 -0.40896466
000160 76 2e d7 3d 72 3f 66 bb dd b6 70 3e 99 a5 aa 3d
       0.105069086 -0.0035133031 0.23507257 0.083323665
000170 ac 3b 84 3f a8 8e f4 bd 95 70 a4 3c 66 a8 9e 3b
       1.033071 -0.11941272 0.020073215 0.004841852
000180 be 0f 24 be 9c 02 f6 3d 5e f9 80 3e dc 2f 2f be
       -0.1602163 0.120122164 0.25190252 -0.171081
000190 ec 39 d8 3c 5c a6 a4 be b8 63 6b be 4e 69 10 be
       0.026394807 -0.32158172 -0.22987258 -0.1410267
0001a0 3d 22 02 3c 90 45 3a be 0b 3f af be 7b 58 3c 3e
       0.007942733 -0.18190598 -0.34227785 0.18393128
0001b0 ff d8 ef be 17 94 66 bd b1 bc 43 be bd 4f 1e bf
       -0.46845242 -0.056293573 -0.19114949 -0.6184042
0001c0 a8 90 10 3e 0d 5f aa bd 73 c7 57 3e 76 f1 a8 3e
       0.14117682 -0.08318911 0.21072178 0.3299672
0001d0 4a 73 dd 3d e1 f9 61 be 37 03 ba be 96 f4 af 3d
       0.10813005 -0.22067977 -0.36330578 0.08591573
0001e0 d9 78 87 be d4 ee 05 bf 1d aa eb be c4 98 07 bf
       -0.26459387 -0.5231755 -0.46028224 -0.52967477
0001f0 16 98 3e bf f4 a6 80 3e c0 b4 e8 3e a3 0c b6 3e
       -0.74450815 0.25127375 0.454504 0.35556516
000200 2b 53 57 3f ad 40 ae be 49 33 0e 3e 10 14 01 bf
       0.8411128 -0.3403372 0.13886751 -0.5042124
000210 07 90 63 be 7c f9 11 3e 26 3b fb be f1 3e 0f bf
       -0.22222911 0.14255327 -0.49068564 -0.55955416
000220 fd eb 43 3e e1 70 32 be 94 90 ae 3d f6 59 c4 3e
       0.19132991 -0.17425872 0.0852367 0.38349885
000230 fd ee a7 bd 32 26 02 bf 2e 33 3d 3e 99 7f 4a 3d
       -0.0819988 -0.5083953 0.18476555 0.049438093
000240 73 5e 90 3b 3a 2d a3 3d c9 03 73 3e 68 8b 94 bd
       0.0044057905 0.07967611 0.23731913 -0.07253152
000250 c1 0f 8e 3e 7a 0b 85 3d 42 38 43 be bc f7 5d 3e
       0.27746394 0.064963296 -0.1906443 0.21676534
000260 d0 dc 76 bc d9 37 d4 bd b0 e7 3e be 99 bf 66 3c
       -0.015067294 -0.103622146 -0.1864307 0.014083766
000270 95 99 ad be 4b 6a 18 ba ec de c8 3e cf 84 8f 3c
       -0.33906236 -0.0005814179 0.39232576 0.017519383
000280 20 b0 23 3d eb 76 a4 bd c3 e2 94 be aa 7e b4 be
       0.039962888 -0.08030494 -0.29079255 -0.35252887
000290 bf 9d 1c bc 0d bb 8e 3e 24 d9 06 3d f5 27 89 3e
       -0.009559094 0.27877083 0.032921925 0.26788297
0002a0 7d 73 4c 3e 44 9f f7 bd 03 53 e5 be 76 f9 ec be
       0.1996593 -0.120909244 -0.44789895 -0.46284074
0002b0 11 e7 fe bd d4 24 1a be 54 c5 35 bd 55 ef 20 3e
       -0.12446416 -0.15053111 -0.04437764 0.15716298
0002c0 89 ea 4d 3e 1f 86 75 bd fa 9e 39 3e b5 c1 c9 3e
       0.20109 -0.05994236 0.18127051 0.394056
0002d0 60 bb 9e be 79 e5 83 3e 3d f1 56 be e1 a5 11 bf
       -0.3100233 0.2576101 -0.20990463 -0.56893736
0002e0 82 3b 94 3c 00 c3 dd be 5d f4 9c bd 67 de e0 3c
       0.018094782 -0.43312836 -0.07663796 0.0274498
0002f0 1c 12 8e be ca 0b 4c be ea ef 88 3e 7b c7 7b 3e
       -0.2774819 -0.19926372 0.2674554 0.24587815
000300 a7 34 bd be 2c 97 22 be 28 92 73 3e 6f 97 81 bd
       -0.36954233 -0.1587798 0.23786223 -0.06327712
000310 5e 47 62 3e 23 d5 20 bc ad 57 8a 3d ff df c3 be
       0.22097537 -0.009816441 0.06755004 -0.38256833
000320 fc 2d 54 3e b3 98 a5 bd 7b 9c 07 3e 85 e0 4a 3d
       0.20720667 -0.08085766 0.13243286 0.049530525
000330 6f ff 58 be e5 47 94 3e 99 c4 43 bc d2 de e6 be
       -0.2119119 0.289611 -0.011948728 -0.45091873
000340 8d ea 26 3f 38 9c ec bd a0 1f 40 be 5a e7 c8 3d
       0.65201646 -0.11553234 -0.18762064 0.09809752
000350 64 a1 d1 be 0d be 1d bf 11 8d 8d 3d 29 1a a5 3e
       -0.40943444 -0.6161812 0.06911672 0.3224652
000360 7e cf 83 3e 47 4a 5c be ef af 03 3e 74 bc b4 bc
       0.2574424 -0.2151271 0.12860082 -0.022062518
000370 1b b4 7f bd 97 c7 52 be 23 e0 19 3e e9 53 07 be
       -0.06242762 -0.2058395 0.15026908 -0.13215603
000380 08 94 43 bd 9a f3 32 3e 51 bb 2e 3e 4a f5 3b bf
       -0.047748595 0.17475739 0.17063643 -0.73421156
000390 47 bf a7 3c c7 30 17 3e 76 c9 df 3d 22 f0 0a bf
       0.02047695 0.14764701 0.109270975 -0.54272664
0003a0 cc 02 6c 3e f9 63 9b be d6 8c 1b be 92 61 f9 bc
       0.23047942 -0.3034971 -0.15190443 -0.030442033
0003b0 5c e3 98 be 30 5f 49 be c0 58 d3 bb 7e a3 44 3e
       -0.2986096 -0.19665217 -0.006449789 0.19202992
0003c0 2f 16 34 3e 20 8c 9a bd 12 5e 06 bd a4 d1 20 3c
       0.17586587 -0.07546258 -0.032804556 0.009815607
0003d0 7d 0f 8c 3e 72 94 66 be db 2d 16 bc 7e 17 ac 3b
       0.27355567 -0.22517565 -0.009166206 0.005251824
0003e0 b5 9f 41 be 34 e6 94 3e 10 c4 49 be 88 f0 02 3e
       -0.1890858 0.2908188 -0.19703698 0.12787068
0003f0 42 19 79 be f0 ed 7e 3b cf 45 46 bd f8 04 e2 be
       -0.24326041 0.0038899146 -0.04840642 -0.44144416

rnn.weight_hh_l1 f4 [48, 12]
000000 41 fb 4a be 43 99 c9 3e d5 13 18 3e 34 da 8c 3d
       -0.19822408 0.39374742 0.14851315 0.068775564
000010 f4 0e 3b be 78 19 4b be fc 53 10 be 07 00 80 3e
       -0.18267423 -0.19833934 -0.14094537 0.2500002
000020 9d 1b 2e be 70 ee b8 be 92 2c b7 bd 65 77 03 3e
       -0.17002721 -0.36119413 -0.08944048 0.12838514
000030 79 8e a3 be db ac b6 3e e5 56 76 be 73 0b 6b 3d
       -0.31944636 0.35678753 -0.24056585 0.057383966
000040 dc 17 50 3e 69 a6 1a bf f1 d8 05 3f 4e ae 66 3e
       0.20321602 -0.6041017 0.5228415 0.2252743
000050 c6 79 b5 bd a3 80 8a 3d e9 fd 89 3d 7f eb 8c 3c
       -0.08861117 0.06762817 0.06737883 0.017202137
000060 42 d7 a5 bd 0b 4b 59 3e a8 bf 78 be 26 be fe bd
       -0.08097698 0.21220033 -0.24291861 -0.12438612
000070 8a 7d 58 be 64 72 40 be 89 c9 a2 3d 38 02 bc 3b
       -0.2114164 -0.18793637 0.07948596 0.005737569
000080 3a b8 44 be 0d f9 7e be 8c 11 fd bd 9c 7f 30 3e
       -0.19210902 -0.24899693 -0.123568624 0.17236179
000090 fd fb 8d be 54 69 7f 3e 70 0d ff bd 8b 3a 75 3e
       -0.27731314 0.24942523 -0.12453735 0.23948114
0000a0 98 81 a0 be df 90 ab be 07 73 a0 3e 7d 8c ed bd
       -0.31348872 -0.33508965 0.3133776 -0.11599062
0000b0 a9 bc e5 3d 10 e4 59 be 6a 86 1a be c0 a1 82 3d
       0.11217625 -0.21278405 -0.15090337 0.063785076
0000c0 e6 f8 87 bd 76 9b 86 be a4 01 1d be a9 8f d8 3d
       -0.066392705 -0.26290482 -0.15332657 0.10574276
0000d0 44 1d bb 3e 11 a3 3b 3d 93 2b b1 3e 09 e2 f8 bc
       0.36545765 0.04580981 0.34603557 -0.03038122
0000e0 d1 df cc 3d c4 62 9d ba 89 79 f6 bd 1f 05 b1 be
       0.10003627 -0.0012007584 -0.120349 -0.3457422
0000f0 8a b2 a8 3d a1 27 85 bf 08 01 1e be aa 5e b1 3e
       0.082371786 -1.0402719 -0.15430081 0.34642535
000100 dd 47 3b bd 9c d1 00 3f c5 4b 32 be 64 15 d1 3c
       -0.04572283 0.5031984 -0.17411716 0.025522895
000110 cb e1 34 3e 2a 6c 75 3f 3a f5 58 3f 00 93 6a 3e
       0.17664258 0.9586817 0.84749186 0.22907639
000120 12 96 91 bc c3 c8 96 be 0f e8 f6 3d 6a 9d 35 3c
       -0.017771754 -0.29450044 0.120559804 0.011084894
000130 33 74 2c bc 3a 32 ff 3e a8 20 ef 3d be e7 07 bd
       -0.010525751 0.49843007 0.116761506 -0.03317999
000140 b7 fc a4 3e 87 78 2b 3f 81 88 66 bf 8b ee 94 3e
       0.32224056 0.66980785 -0.9005204 0.29088244
000150 ec 54 41 3e 0b bb 58 be 87 6b 63 be c6 4f 73 bd
       0.18880051 -0.21165101 -0.22208987 -0.05940225
000160 d3 91 f3 bd df 75 11 3f 63 c4 95 3e cf 81 75 be
       -0.11893048 0.5682048 0.29251394 -0.239753
000170 70 d5 45 be b1 1d 08 3f cb 36 ff bd 06 8a 85 bd
       -0.19319701 0.53170305 -0.12461623 -0.065204665
000180 40 52 f5 3d df 78 9f 3c 21 27 59 3e 8f 4f b8 be
       0.119785786 0.019466816 0.21206333 -0.35998198
000190 6f b1 a5 3e 13 92 24 bd 2c 11 c0 3e d1 ab 75 3e
       0.32361934 -0.04017837 0.375131 0.23991324
0001a0 18 1f cf bc ca ef ce 3c 82 49 3b be 9c 8b 77 be
       -0.025283381 0.025260825 -0.1828976 -0.2417435
0001b0 b9 02 df bd c4 33 82 be 51 bf bb bd 51 fd 20 bd
       -0.10889191 -0.2543012 -0.0916735 -0.03930408
0001c0 fe 85 04 be 55 ec 03 3e 12 ff df 3e 30 75 5c 3e
       -0.12941739 0.12883122 0.4374929 0.21529078
0001d0 de e0 e3 3c 6f c5 04 3e 95 01 3a bf 32 dd a8 3d
       0.027817186 0.1296594 -0.72658664 0.08245315
0001e0 be e4 25 3f aa 28 e2 be 98 5a d1 be 7d c7 a5 3e
       0.6480216 -0.4417165 -0.4088943 0.3237876
0001f0 33 2e aa bd ab 1b 85 3e b0 80 1a 3e bd 37 d3 bd
       -0.08309593 0.2599767 0.15088153 -0.103133656
000200 60 93 45 bd 37 5e 3b 3f 3a 76 f8 bd e3 93 f0 3e
       -0.04823625 0.73190635 -0.12131925 0.4698783
000210 b6 4f 0a 3e 31 3d a9 3d 9e 38 fa 3d b6 86 30 3e
       0.1350697 0.082636245 0.1221783 0.17238888
000220 13 b1 5a 3e 15 2d 6f 3e 57 91 82 be 88 03 87 be
       0.21356611 0.23357041 -0.2550151 -0.26369882
000230 2f c0 43 bc 54 9b 49 3e f1 32 69 3d 00 16 2f 3e
       -0.011947676 0.19688159 0.056933347 0.17098236
000240 03 e2 00 3d e6 23 08 be df 5d 7f 3e 28 21 a8 3d
       0.03146554 -0.13294944 0.24938153 0.08209449
000250 30 62 de 3d 61 28 0d 3e 13 6d 13 3e 2c d5 ae 3d
       0.108585715 0.13784935 0.14397077 0.08536753
000260 f9 a3 cb bd 13 d7 43 3e 08 2c 89 3d c4 0c 76 3e
       -0.09943385 0.19125013 0.066978514 0.24028307
000270 44 77 39 be 00 8a 20 bc 07 f7 73 be e4 fd c2 bd
       -0.18111902 -0.009798527 -0.23824702 -0.09521082
000280 7c c2 2a 3e 84 2c 6c be 2c 13 e2 bd ab 71 8e 3e
       0.16675752 -0.23063856 -0.11038813 0.27821097
000290 a2 44 37 3e be c4 b3 bd af 9f 1f 3e ba 5b 11 3e
       0.17897275 -0.0877776 0.15588258 0.14195147
0002a0 ca 19 96 be 7d e6 59 3b 7f 69 27 3d 19 48 6e be
       -0.2931655 0.0033248954 0.040872093 -0.2326969
0002b0 e1 11 98 be b8 e6 a8 3d ba c4 74 3e c4 95 87 3d
       -0.2970114 0.08247131 0.2390317 0.066203624
0002c0 62 24 54 3d 35 35 95 3d 7b 6c 65 3e 0b de 4a be
       0.05179251 0.07285539 0.22404663 -0.19811265
0002d0 45 8d 2e bd f9 f6 50 bd e9 5a d4 3d 25 a3 48 be
       -0.042615194 -0.05101678 0.10368902 -0.19593485
0002e0 72 4f 95 be 62 e0 ab be a7 b6 4d be 2d 9b 75 bd
       -0.29162174 -0.33569628 -0.20089208 -0.05996244
0002f0 5e 51 8b 3d f3 47 8f be 8b 05 c3 3e 98 7a bb be
       0.06802629 -0.2798458 0.38090166 -0.3661697
000300 77 99 1b be 75 ca b6 bd 9e ed 20 3e 16 8f 35 3e
       -0.15195261 -0.08925334 0.15715644 0.17730364
000310 24 7a d6 bd d2 2f 58 be ee cb c7 3e 6d 74 07 3e
       -0.10472515 -0.21111992 0.39022774 0.13228007
000320 01 e3 dd bd 9e 81 1b be 05 38 34 be e1 b9 e8 3d
       -0.10834313 -0.15186164 -0.17599495 0.113635786
000330 7d 2c f4 be 6a bf c5 3d d8 a7 60 3e 43 db 81 bc
       -0.47690192 0.0965565 0.21939027 -0.015851622
000340 2c 89 fc bd 75 7f e2 3d 40 49 22 bf f3 94 1c be
       -0.12330851 0.11059467 -0.6339302 -0.15291195
000350 51 77 56 be 09 78 5d be a5 49 09 3f 25 d6 df bd
       -0.20943953 -0.21627821 0.53628 -0.10929517
000360 81 21 3a 3e 21 0a 20 be 86 47 cc 3e 5c 25 90 bd
       0.18176843 -0.15628864 0.39898318 -0.07038376
000370 5b ff 48 3e 7c 57 8c 3e 5b 84 08 be 6a a5 8f be
       0.1962866 0.27410495 -0.1333174 -0.28055888
000380 a3 eb d3 bd e5 9c 0c bc 51 e1 c7 be d8 f0 6a bd
       -0.103476785 -0.008582328 -0.3903909 -0.057358593
000390 8f 4e 1e be 32 7c 35 bd 49 8c 34 be 6d e3 8d 3d
       -0.15459655 -0.044307895 -0.1763164 0.06928144
0003a0 31 66 05 be 6c 4d 2c bd 59 b7 3b be b0 b1 12 be
       -0.13027264 -0.042066023 -0.1833166 -0.14325595
0003b0 99 0c 70 3d d4 be b2 3d 27 5b ab 3e bd 53 1b be
       0.058605764 0.08727804 0.3346798 -0.15168662
0003c0 38 0d ca be ed 91 74 3c 3e be 87 3e 98 42 f4 bd
       -0.3946321 0.01492737 0.2651233 -0.11926764
0003d0 6c eb 27 3e fd e2 b4 bc 3e ce 97 3e 89 6d 1e be
       0.163984 -0.022080893 0.29649538 -0.15471472
0003e0 0d 80 0e 3d a8 a8 8e 3e 48 55 2d be a2 c1 92 be
       0.034790087 0.2786305 -0.16927063 -0.28663355
0003f0 06 63 6f be 40 82 04 be 4f 91 40 3e 52 b5 33 be
       -0.23377618 -0.12940311 0.18805431 -0.17549637

rnn.bias_ih_l1 f4 [48]
000000 4f 1b 81 be 13 c3 89 be 4f a4 4a bd f3 1d ae 3e
       -0.25216147 -0.26906642 -0.049473103 0.34007224
000010 93 d9 a5 bd b5 9a f8 3e cf 8f 7d 3d 68 e5 71 3e
       -0.080981396 0.48555532 0.061904725 0.23622668
000020 75 32 c7 3d 88 9e e6 bd 5a ac 09 3f d0 a3 4b 3d
       0.09726421 -0.11260706 0.5377861 0.04971677
000030 f0 a2 45 be 6f 60 99 be d3 b3 3f bd cc 16 d2 3d
       -0.19300437 -0.29956385 -0.046802353 0.102582544
000040 40 66 e7 3d 7a 1f ac be 1f 4b 80 3d aa 40 5a bd
       0.112987995 -0.33617765 0.06264328 -0.053284325
000050 31 c2 2e 3b 2f 61 7b bd df a8 e2 bd c1 5b 12 3e
       0.002666604 -0.06137198 -0.11067366 0.14292814
000060 37 41 78 bd b6 27 e1 bd be b3 a9 be f7 dd 85 3e
       -0.06060907 -0.109939024 -0.33144945 0.26145908
000070 1d 94 56 be 14 2a 89 3e d6 d9 02 bd 70 fd 92 bc
       -0.20954938 0.26789916 -0.031946026 -0.017943114
000080 4a 2a a1 bd 1f 6d 0e 3d bf d2 04 3e 18 28 94 bd
       -0.07869394 0.034772035 0.12971018 -0.0723421
000090 64 ef 99 be 21 51 37 bc 9e 5c 10 be 3c 53 9b bc
       -0.30065453 -0.011188776 -0.1409783 -0.018960588
0000a0 a4 4d a7 3d f5 09 ae 3e 02 18 f9 3e f9 04 be bc
       0.08169106 0.33991972 0.4865113 -0.02319573
0000b0 56 9d a4 be 71 bc 84 3e a5 71 ea 3e 9a 8c 4f be
       -0.32151288 0.2592502 0.4578983 -0.20268479

rnn.bias_hh_l1 f4 [48]
000000 79 df 00 3e 9a 13 2d bd 76 bd 87 3a bd 28 67 bd
       0.12585248 -0.04225502 0.0010356146 -0.056435335
000010 a4 0c 56 be 31 22 9d 3e 5e 9f 67 3d 0c 1f 3b 3e
       -0.2090326 0.30690148 0.05654847 0.18273562
000020 af 15 b3 3c 52 10 97 3e ca af c2 3e 49 ee ce bd
       0.021860925 0.2950464 0.3802474 -0.10104043
000030 09 61 6d 3e 81 97 2a 3d 69 c4 59 3d 7c 6d 87 3c
       0.23181547 0.04164839 0.053165827 0.016531698
000040 9c 42 80 be 5e 1f b9 be c5 0c 7f 3c 31 06 55 3e
       -0.2505082 -0.36156744 0.015567009 0.20803143
000050 ab 23 cd bd 4f ca cb be 57 43 81 be 73 22 06 3e
       -0.10016569 -0.39802787 -0.2524669 0.13099079
000060 98 41 9b 3e be 4b 13 3e c1 4c 5c be 87 bf 38 3d
       0.30323482 0.14384362 -0.21513654 0.04510453
000070 29 70 3b bd 01 78 ca bd 98 09 0d 3e 87 f6 65 3d
       -0.04576126 -0.0988617 0.13773191 0.05614331
000080 e1 07 f4 3d bf 80 21 3d cf d7 09 be 28 5f 01 3e
       0.11915565 0.039429422 -0.1346123 0.12633955
000090 43 e1 56 3c c3 6f 74 3e d8 3c 17 3e b3 db 12 bd
       0.01311523 0.23870759 0.14769304 -0.035854053
0000a0 0e 04 4f be 26 8a f4 3e cd eb a8 3e 42 3d ed bc
       -0.2021639 0.4776165 0.32992402 -0.028959874
0000b0 c9 9f 55 be 27 df 19 3d a3 2b 00 3f 1c 1f 96 3e
       -0.20861734 0.03756633 0.50066584 0.2932061

rnn.weight_ih_l2 f4 [48, 12]
000000 7b c6 53 be c5 cc f9 bd 9d be 72 be 54 64 71 3e
       -0.20681183 -0.1219726 -0.23705526 0.23573428
000010 5e 63 ea 3d b6 83 c1 3e 39 26 f4 3b 7d e2 a4 be
       0.11444734 0.377958 0.0074508456 -0.32204047
000020 14 4c 7b 3e 33 fb 5c 3e 76 cb 0a 3e b6 74 41 bb
       0.2454074 0.215802 0.13554177 -0.0029519028
000030 61 b1 77 be 63 78 a2 3c b0 98 87 3d aa 36 ad 3e
       -0.24188758 0.019832795 0.0662092 0.33830768
000040 92 af 4f be e9 6c fa 3e e1 82 97 3e b1 69 89 bd
       -0.20281819 0.48911217 0.2959204 -0.06709612
000050 6f dc a2 3e a3 22 32 3e 5c 7d 30 3f 31 d0 ac 3e
       0.31808802 0.17396025 0.68941283 0.33752587
000060 12 cd 0b be d4 f3 9f 3e 58 e6 88 bd 29 85 b4 3e
       -0.13652447 0.31240714 -0.066845596 0.35257843
000070 d6 51 0a be fa 01 1e 3e 5e fe 3c 3d 35 24 61 bc
       -0.1350778 0.15430441 0.04614102 -0.013741543
000080 42 b1 3d 3d 99 f2 e9 3e e5 fd 37 3e d1 23 d6 3e
       0.046311624 0.456929 0.17967947 0.418242
000090 f7 16 5b 3e 30 46 b7 bd a3 3e bc bd 09 b8 d2 3e
       0.21395479 -0.08948934 -0.091916345 0.41156033
0000a0 16 03 cd 3d 40 ac d9 3e 16 5a e2 be a0 cb b1 be
       0.10010354 0.4251423 -0.44209355 -0.34725666
0000b0 3c c9 a0 3e 1f 64 5e 3f bc b4 58 3f 9d 7b 9d 3e
       0.3140353 0.8687152 0.8465078 0.30758372
0000c0 49 ad 83 3e eb 79 96 be 6d 39 05 bb 39 22 19 be
       0.25718144 -0.2938989 -0.0020328418 -0.14954461
0000d0 05 d4 93 3e 04 9d fa 3e 75 43 d3 3e 17 ea 5e 3e
       0.28872696 0.48947918 0.41262403 0.21768986
0000e0 46 94 9d be 89 70 d8 3e 13 d8 9d 3e 8d 4d 58 be
       -0.30777186 0.42273358 0.30828914 -0.21123333
0000f0 e4 06 55 3e 3a 43 97 3d 20 88 d6 bd 69 63 1a be
       0.2080341 0.07385869 -0.104751825 -0.15076984
000100 aa 06 b7 bd 69 cb e3 3e a4 16 93 3d 96 d1 35 bc
       -0.08936818 0.44491127 0.07182053 -0.011097332
000110 2e b0 13 3e 58 01 3d 3e fc 1f 1a 3f 93 8d 84 3e
       0.14422676 0.18457544 0.60205054 0.25889263
000120 5d 50 43 3e 9c 4d ed 3c 98 69 96 3e ff 05 2b 3e
       0.19073625 0.028967671 0.29377437 0.16701506
000130 45 20 03 be 7f 80 be bc c4 c2 e4 3d ee 79 8b 3e
       -0.12805279 -0.023254631 0.11169961 0.27241462
000140 57 d5 70 be f4 d4 b5 3e 7e 09 fd 3e f6 a5 eb bd
       -0.23518883 0.35514033 0.49421304 -0.11506264
000150 42 c1 26 3e aa bb 0a 3e 98 9d 52 3e 25 d2 47 3c
       0.1628466 0.1354815 0.2056793 0.012196098
000160 dc 4e 61 3e ca 70 05 3f 05 0a 20 be dc 50 84 3e
       0.22002739 0.5212523 -0.15628822 0.2584294
000170 cd 1e 85 be ba d3 ce 3e 92 3b f2 3e 79 4a 52 3c
       -0.26000062 0.4039591 0.47311074 0.0128351385
000180 aa 56 c5 bd 19 0c 35 3e 16 1c dd be 0f 91 6f 3e
       -0.096356705 0.17680396 -0.4318549 0.23395179
000190 6a c4 77 be 8c b4 20 3f 64 62 55 be 2f ce 0e be
       -0.2419602 0.6277549 -0.20838314 -0.1394584
0001a0 33 b9 a7 3e 43 b0 d3 3e 46 ef 27 3f 83 a2 0a 3d
       0.32758483 0.41345415 0.6559948 0.03384639
0001b0 d4 36 38 3e b0 54 2b 3e 22 dd 96 be 6e c3 46 be
       0.17989665 0.16731524 -0.29465586 -0.19410488
0001c0 ad 5f 21 3e 23 ef 0b 3f 2a 3d 31 bd 43 01 92 be
       0.15759154 0.5466177 -0.04327122 -0.28516588
0001d0 10 b4 90 3e 16 6a c4 3e 0b e7 b1 3e 06 02 be 3e
       0.28262377 0.38362187 0.34746584 0.3711092
0001e0 ac ac cf 3d 99 32 2f be a3 36 d9 3d a0 40 c1 3e
       0.101403564 -0.17109145 0.10606124 0.37744617
0001f0 bf 33 1c 3d 24 9d 1d 3f d6 0f 21 be a6 55 99 be
       0.038135286 0.615679 -0.15728697 -0.29948157
000200 83 8f 41 bd 8a 02 30 3f af 99 4a 3f 7c 41 4e 3e
       -0.047256004 0.68753874 0.7914075 0.20142168
000210 9c 79 12 bc 93 4b 5d be 47 f1 3e 3d 80 8d 8e 3d
       -0.008940127 -0.2161086 0.04661682 0.06960583
000220 35 5b 92 be 5b 06 88 3e 08 54 74 3e 6f fb 01 3d
       -0.2858521 0.2656735 0.2386018 0.031733926
000230 32 05 6e bc fa 50 0b 3f ed b8 73 3e f7 db 20 3e
       -0.014527606 0.54420435 0.23801012 0.1570891
000240 69 7d e5 3d ee ad 13 3e 58 eb 47 3e 14 2e 8d 3e
       0.11205561 0.14421818 0.1952337 0.27574217
000250 3a d2 29 bd 76 08 45 bc 85 fd 97 be 49 90 1b bd
       -0.041460253 -0.012025943 -0.29685608 -0.037979398
000260 bc bb ce bd 89 d4 9c 3d 65 61 03 3f 35 29 51 3d
       -0.10094401 0.07657725 0.5132049 0.05106469
000270 2e 73 67 3e 1b be 69 3e 9a f9 c0 3d 6d ce 13 3e
       0.22602531 0.22826426 0.09422608 0.14434214
000280 b2 a8 86 3e 0c 01 a4 bd 98 0b 40 be 91 17 69 3c
       0.2630058 -0.08008012 -0.18754423 0.01422681
000290 47 e7 8b 3d a6 4c 92 be 3b a1 61 3f 72 66 10 3e
       0.06831222 -0.28574103 0.88136643 0.1410158
0002a0 c5 e5 02 be ba a3 a7 3e 43 3d 42 be dc 1a 24 be
       -0.12782963 0.327421 -0.18968682 -0.16025871
0002b0 cc f8 1c 3e 28 6a 39 bc df 15 82 be 9e 56 ba be
       0.15329283 -0.0113168135 -0.2540731 -0.3639421
0002c0 0e e5 11 3e f5 74 52 3e 4a 82 1d 3f c0 00 6a 3e
       0.14247534 0.20552428 0.6152693 0.22851849
0002d0 01 a4 b6 3d 8c 99 af be 3a f2 70 3d 4f 83 62 be
       0.08918 -0.34296834 0.058824755 -0.22120403
0002e0 a4 1f 81 3e 13 ca d4 3e 36 7e 55 be c6 4a a0 be
       0.25219452 0.4156042 -0.20848927 -0.31307048
0002f0 a0 59 46 3e a4 3c ab 3e 86 42 08 3f 6e e7 51 bd
       0.19370127 0.33444703 0.53226507 -0.0512461
000300 e0 30 7c bc 7b ea 5a be 76 73 2e be 70 34 a9 3e
       -0.015392512 -0.2137851 -0.17036232 0.3304782
000310 68 92 4a be a9 1c e8 3e 80 54 f2 3d dd cf 15 be
       -0.19782412 0.45334366 0.11832523 -0.14630075
000320 91 68 4a be 9d 98 2e 3f f8 40 25 3f 40 f7 ad 38
       -0.19766451 0.6820162 0.6455226 8.295337e-05
000330 39 4c f1 bd 39 5f 83 bd 8f f0 85 3e ef 98 ba bc
       -0.117821164 -0.06414647 0.26160094 -0.022778003
000340 14 75 82 3d f3 0f ae 3d 36 af 8f be 6b f9 76 be
       0.06369987 0.08499136 -0.28063363 -0.24118583
000350 fe 94 8a bd 7f b8 bf 3e 29 42 0e 3f 80 2f 2e 3d
       -0.06766699 0.37445447 0.555697 0.04252577
000360 6a fc 33 be 66 6c 4a 3e 5c f1 1f be fd ce a8 bd
       -0.17576757 0.19767913 -0.15619415 -0.08242605
000370 90 82 90 3e 2a c9 3a 3e 1c b3 0b bc de d3 5f bd
       0.2822461 0.182408 -0.00852659 -0.05464541
000380 c0 9e 2a 3e ea 3f c5 3e 0f 0c 85 3e 85 43 01 bd
       0.16662121 0.38525325 0.25985762 -0.031558532
000390 ea 7d 6a 3d a7 ee a8 3d d2 27 96 3d 01 9d 7c 3e
       0.057248987 0.08248644 0.07331814 0.24669267
0003a0 af bb 77 3d ec 8a 92 bb c4 5e 1f be 8f e9 a6 bb
       0.060481723 -0.004472127 -0.15563494 -0.0050937603
0003b0 83 8d 0d 3e 33 c2 02 3b a5 2c 66 3e 6b 52 28 3e
       0.13823514 0.0019952178 0.22477968 0.1643769
0003c0 3f a3 c7 3d bd 53 7d bc f3 e5 19 be d4 5d bf 3b
       0.097479336 -0.015461859 -0.15029125 0.0058400426
0003d0 0f ba 8a 3e e0 a2 cd 3e ab 4a a0 3b 17 5e 8b be
       0.27095076 0.40163326 0.0048917136 -0.27220222
0003e0 87 cd 79 bd 88 45 e8 bd d0 b7 e7 3e 27 1a de 3d
       -0.06098702 -0.11341387 0.45257425 0.10844832
0003f0 8f cf 25 3e 75 a9 e2 bd aa bc 05 be 20 00 a8 bd
       0.16192459 -0.110674776 -0.13060251 -0.08203149

rnn.weight_hh_l2 f4 [48, 12]
000000 ef f8 dc bd 3c 5c c0 3c db 73 05 3b 75 d6 11 3d
       -0.10789668 0.02348148 0.0020363245 0.035604913
000010 36 13 39 be e4 95 11 3e 1c 25 80 3c 0b 90 88 3d
       -0.18073735 0.14217335 0.015642695 0.06668099
000020 e0 84 ea bc 37 24 09 be 30 fc ef 3d e8 fe 60 bd
       -0.028627813 -0.13392721 0.11718023 -0.054930598
000030 76 2f 11 3e 96 f5 34 be 4d 9e 83 3e 70 ff 1b be
       0.14178261 -0.17671809 0.2570671 -0.1523416
000040 51 7b aa be dc 58 20 3e 41 76 3b be 28 78 4c bd
       -0.33297208 0.15658897 -0.18306829 -0.049919277
000050 53 82 92 be 8a 33 84 bd aa 80 f7 3d c6 74 8e be
       -0.28615054 -0.06455143 0.120850876 -0.27823466
000060 86 2a 4d 3e fe ae 97 3e 93 f4 c5 bd 4c 41 2c 3e
       0.20035753 0.29625696 -0.096657895 0.16821784
000070 13 dc 92 be 40 e7 df 3d 15 33 c0 bd 0d 5a 15 3e
       -0.28683528 0.10932779 -0.09384743 0.14585133
000080 33 e3 84 3d 73 bd 95 3e bf 6f 09 3e 33 1e 94 bd
       0.06488647 0.292461 0.13421534 -0.072323225
000090 ed 22 f9 bd 95 c7 03 bc 5e 3c c7 3d ab c4 ca bc
       -0.12164865 -0.0080431895 0.09728311 -0.024751982
0000a0 91 1c 18 bd de a8 05 3e 2c 9c 10 3e a9 44 4e be
       -0.037136618 0.13052699 0.14122075 -0.2014338
0000b0 6e 77 11 3e 1c 82 8e 3e b4 7d 13 3e 9f 60 23 bc
       0.14205715 0.2783364 0.1440342 -0.009971767
0000c0 1d ae ba 3e 71 f4 f2 bd be 6a ae bc 67 c2 fb 3d
       0.36460963 -0.1186303 -0.021291133 0.12292939
0000d0 62 74 84 3e cb 43 af 3e 8b 92 ae 3e 32 0e 6b 3e
       0.25870043 0.3423141 0.34096178 0.22954634
0000e0 6b fd 1f 3c 9a 83 2a 3e 9f 9d 79 be 41 65 48 bd
       0.009765009 0.16651765 -0.24376534 -0.04892469
0000f0 7c a6 b6 3d 09 82 f6 3d 0e e6 89 3b 7b b8 f0 bc
       0.08918473 0.12036521 0.004208333 -0.029384842
000100 a7 49 31 3e da 4a 0e 3c 49 0b 5e 3e ad ed f2 bd
       0.17313252 0.008684838 0.21683992 -0.11861739
000110 df 33 4e 3d 34 0a 0c be 07 9e e2 3d 45 8b ae bd
       0.050342437 -0.13675767 0.110652976 -0.08522657
000120 87 af 3b 3d 5d 2c 0b bc ca af c3 bc 9f ad bf 3c
       0.045821693 -0.008494464 -0.023887534 0.023398219
000130 af 76 33 3e e7 e1 9e 3c 18 2e ab 3e 84 1c 1e 3e
       0.17525743 0.019394828 0.33433604 0.15440565
000140 b1 6e 33 3e 41 7d e1 bd 44 82 8e be 63 66 1f be
       0.17522694 -0.110102184 -0.2783376 -0.15566401
000150 11 04 67 3e 33 e2 28 3e d7 42 09 ba 57 94 5b bd
       0.22560145 0.16492538 -0.0005236095 -0.053608265
000160 31 8b 67 3e 24 41 00 be 99 aa bb bd 9d fd d8 bd
       0.22611691 -0.12524849 -0.09163398 -0.10595248
000170 4a 34 21 be 1b d6 48 3d 15 88 46 3e 68 87 6b 3c
       -0.15742603 0.049032312 0.19387849 0.014375545
000180 6a eb eb bd db eb 32 3d 37 c7 a7 bd b3 ad 7c be
       -0.11519511 0.04368196 -0.08192294 -0.24675636
000190 74 f9 d9 3d 72 fd 19 be 9e 04 93 be da 63 36 be
       0.106432825 -0.15038088 -0.2871446 -0.17811528
0001a0 c6 e3 2b 3e 8c 69 10 3e a5 48 5d 3d f3 87 40 3e
       0.16786107 0.14102763 0.054024357 0.1880186
0001b0 2b a7 98 bd f5 b0 22 3d be f8 47 be 58 19 f4 3d
       -0.0745376 0.03971954 -0.19528481 0.119188964
0001c0 98 d0 88 be 92 77 c5 bc 3c 7d 61 3d e6 c5 1a be
       -0.26721644 -0.024104867 0.055051073 -0.15114555
0001d0 1f 32 59 be 72 d3 79 3d bc 32 62 be b9 3b ef 3d
       -0.21210526 0.060992666 -0.22089666 0.11681313
0001e0 a4 06 05 be 96 b6 8c be dc c2 a3 be b5 60 c2 bd
       -0.12990814 -0.27483052 -0.31984603 -0.09491102
0001f0 84 ae 31 3e 31 4c bc bd f4 b7 0f bd 4b 90 40 3e
       0.17351729 -0.0919422 -0.03508754 0.18805043
000200 b4 2a 06 3e 11 3b f1 bd 3d 92 8a 3e 4b 53 2c 3e
       0.13102227 -0.11778844 0.27064696 0.16828649
000210 de cb 32 be de 12 af bc d6 b3 96 be 4b 81 83 3e
       -0.17460582 -0.021371301 -0.2943408 0.2568458
000220 2f 15 e4 3b 15 35 1d bd 1a 7f 14 be 21 99 ed 3d
       0.006960533 -0.0383807 -0.1450161 0.11601473
000230 03 9a f3 3d d8 e0 18 bd 39 7d 51 3a 57 65 3d bd
       0.1189461 -0.037323803 0.0007991377 -0.046239223
000240 34 58 da bd 63 d3 67 bd 65 6c 3f be 54 99 a8 3d
       -0.10661355 -0.05659808 -0.18693693 0.0823237
000250 ce f3 08 bc 21 33 35 3e 6a 08 87 3d 57 f0 90 be
       -0.008358909 0.17695285 0.06593402 -0.28308365
000260 7b c2 e6 3c 45 14 36 bd cd 1a 84 be 88 c6 03 3d
       0.028168907 -0.044452924 -0.25801697 0.032171756
000270 d4 1d 7b 3e 0d 25 a9 be f2 98 c1 bd 1f 6e 88 be
       0.24523097 -0.3303608 -0.09453 -0.26646516
000280 ab 3d 29 be b4 f4 86 3e ac 2d c4 bd a3 6f 9f be
       -0.1652743 0.2635857 -0.09579024 -0.3113986
000290 b7 e4 36 bd 73 f3 bf bd 7a e5 94 be a1 72 c0 3c
       -0.044651713 -0.09372606 -0.29081327 0.02349216
0002a0 2a 44 82 be 5c cf 81 be 12 37 81 3e ff ee a2 3d
       -0.2544263 -0.25353515 0.25237328 0.07955741
0002b0 0d 78 b0 bd d1 2d e0 3d c2 81 fa bd 48 97 c3 be
       -0.08616648 0.10946239 -0.122317806 -0.38201356
0002c0 70 af ac 3b 40 d3 28 be 58 0d ae bd ff 3f 40 be
       0.005269937 -0.16486835 -0.08498639 -0.18774413
0002d0 4d 08 6f 3e 3c 3c 21 3e 91 8e 94 3e 6f b2 14 be
       0.2334301 0.15745634 0.2901502 -0.14521192
0002e0 af 01 78 3d 1f 59 e9 3d a4 40 c7 3d ff da 68 be
       0.06054848 0.113939516 0.09729126 -0.2273979
0002f0 61 82 7a bc 1d 2b 4b 3e 46 ac fd 3c 92 bf bc bd
       -0.015289874 0.19840665 0.030965935 -0.09216227
000300 10 16 6b 3e ff 9f 07 3e 28 27 b2 3c 6d c8 32 3d
       0.22957635 0.13244627 0.021747187 0.043648172
000310 f3 bc 0b 3e c6 c0 42 3e 2a ad c4 3e 27 4c 0a 3e
       0.13646297 0.1901885 0.38413364 0.13505612
000320 14 c9 1e be 6a 50 a5 3c 9c f9 9d bd 02 da 8d 3e
       -0.15506393 0.020179946 -0.07713625 0.2770539
000330 82 80 8d 3e 4c fb ec b9 14 ae 4a be 72 0f b4 3a
       0.27637106 -0.00045200658 -0.19792968 0.0013737513
000340 c5 ea 9b 3d c8 13 55 3d bf 7d 3c be f7 27 3d 3d
       0.07613138 0.052020818 -0.18407343 0.04618069
000350 04 fe 4e 3e bf 87 0c be fb 27 57 be f4 3b 70 bb
       0.20214087 -0.13723658 -0.21011345 -0.0036656829
000360 98 98 e5 bc 76 c6 dc 3d 1f 59 cf bc 8d 43 44 3e
       -0.028026864 0.10780041 -0.025311051 0.19166394
000370 b7 2f 2c 3e 1a 01 1d 3b 99 09 94 3e 3b dd ff bd
       0.16815077 0.0023956955 0.28913572 -0.12493368
000380 42 f8 26 bd ae af ca 3c 5d bf 48 3e 3d bb 65 bd
       -0.0407641 0.024741974 0.1960425 -0.056086767
000390 18 49 a1 3e b2 a1 f0 bd 22 5f 63 bb 04 fc d8 3d
       0.3150108 -0.11749591 -0.0034694155 0.10594943
0003a0 5c e5 c1 3a ac 5a 60 3e 3c e8 93 bd a6 0e 88 3d
       0.0014793086 0.21909589 -0.072220296 0.06643419
0003b0 e8 75 cd bd 61 e5 b8 bd db 2a 55 be 92 c2 b5 be
       -0.100322545 -0.090281256 -0.2081713 -0.35500008
0003c0 40 c7 91 3d dd 3e 32 3d 83 be a5 3d e9 bd 86 be
       0.07118082 0.043516982 0.08092978 -0.26316765
0003d0 af 9c b6 be a3 49 8f 3e 44 80 61 3e 31 90 5c be
       -0.35666415 0.27985868 0.22021586 -0.2153938
0003e0 62 43 59 3e 7a b6 76 be 04 b0 65 be 52 34 b9 be
       0.21217111 -0.24093047 -0.22430426 -0.3617273
0003f0 05 1f 8e 3e d4 3e 87 be e2 b6 21 be 06 0c 18 3a
       0.2775804 -0.26415122 -0.1579242 0.00058001315

rnn.bias_ih_l2 f4 [48]
000000 61 1c 35 be 45 ff e8 bd 9b 87 03 3e 0b 26 86 3e
       -0.17686607 -0.11376814 0.12844698 0.262009
000010 12 e9 86 be 9b b7 c7 3d 1d 19 02 3e c3 06 a9 be
       -0.26349694 0.09751817 0.12704892 -0.3301297
000020 73 2f 15 bd 53 4f 18 3d a8 47 76 bd 0d 4f 93 3e
       -0.036422204 0.037185024 -0.06012693 0.28771248
000030 30 52 94 3b b7 32 9a be ff 4a 83 bd 0f 2b a2 be
       0.004526399 -0.30116817 -0.06410789 -0.31673476
000040 a1 a5 8d 3d a3 ac 18 3e f9 0f ef bd 54 7c 18 3e
       0.06916357 0.14909606 -0.116729684 0.14891177
000050 5c b0 aa 3d 9b 6e 7c 3e 37 2e 7c be 30 c2 31 be
       0.08334419 0.24651568 -0.24627005 -0.17359233
000060 d2 0e 39 3e 2e 2d a4 3d d4 32 42 be 28 17 80 3d
       0.1807206 0.0801643 -0.18964702 0.06254417
000070 bc b1 9d 3e b2 89 bf 3d e4 5f 34 be d2 be 14 3e
       0.30799663 0.09352435 -0.17614704 0.14525917
000080 1e d3 58 be 2e c2 75 3c e0 c0 af 3d 39 ae 9d 3e
       -0.21174285 0.014999909 0.0858171 0.30796984
000090 94 27 b7 bd df b1 c5 3d 00 7e f9 3b 2e 9f f2 ba
       -0.08943096 0.09653067 0.0076138973 -0.0018510574
0000a0 f4 22 cd 3d a7 a9 46 3c 9b 4f 7c bd 0e f4 90 bd
       0.100164324 0.012125409 -0.061599355 -0.070778
0000b0 bb e6 8c 3d 99 8f 56 be c7 57 a5 3d 7a a7 79 3e
       0.06879946 -0.20953216 0.08073383 0.24380293

rnn.bias_hh_l2 f4 [48]
000000 82 a7 9d bb 16 d3 36 be b3 8b 88 3e 7a 81 7d 3e
       -0.0048112283 -0.1785396 0.26669082 0.24756423
000010 fc dd 73 3c 9c 17 d2 3d 10 83 57 3e 2d c7 79 3c
       0.014884468 0.102584094 0.2104609 0.015245241
000020 08 3b 8d 3e f0 89 b1 bd 25 47 40 3e b2 3c 8a bd
       0.275841 -0.086688876 0.1877714 -0.06749858
000030 2a 65 50 be 66 62 38 be 27 46 98 bd 15 03 ad bd
       -0.20351091 -0.18006286 -0.074352555 -0.084478535
000040 58 7f 37 be 0d 6b fb 3d 68 d3 07 3e ee 09 37 be
       -0.17919672 0.12276278 0.13264239 -0.17874882
000050 08 58 89 bd 4f 63 5e bd 0e 02 b5 3d 08 9b 26 bc
       -0.06706244 -0.054293927 0.088382825 -0.010168798
000060 22 e8 a6 be 82 4f 59 3e 17 86 82 bd 70 02 83 3d
       -0.32598978 0.21221736 -0.06373232 0.06396949
000070 85 26 06 be 5c a1 70 be ce ca 8b 3e 4d e4 41 be
       -0.13100632 -0.23499054 0.27303165 -0.18934746
000080 38 ad 92 be 3c 38 88 3e 80 e3 06 3e 7c eb 5a bd
       -0.2864778 0.26605403 0.13172722 -0.05344723
000090 0a 85 a2 3e e2 c5 a6 bd 81 ec a7 3e 4c 6d 6f 3d
       0.31742126 -0.08143212 0.32797626 0.058453843
0000a0 dc b7 a3 3d fc 3a 7c bd b3 c2 2f bc 91 45 25 be
       0.07994053 -0.06157969 -0.010727572 -0.16139819
0000b0 1a 3b a4 bd ba bb 11 3d 06 23 0d be 1e e0 48 3e
       -0.08019085 0.03557942 -0.13782892 0.19616744

reg.weight f4 [1, 12]
000000 6c 01 04 be f3 d4 40 3e 85 9b 78 be 2f b9 b2 3e
       -0.12891167 0.18831234 -0.24278076 0.3490691
000010 4c b5 bd 3d 42 a5 e0 bd f6 13 ff bc 36 a9 de 3d
       0.09263095 -0.109690204 -0.031137448 0.10872118
000020 d1 46 31 be 26 c1 a8 3d 20 a3 a2 3e a7 7d 8b 3e
       -0.1731217 0.08239965 0.3176508 0.27244303
