模型代码/LSTM/weights/123.pth (torch_old, 15619 bytes, 13 tensors)

rnn.weight_ih_l0 f4 [48, 5]
0	0x3e33057a	0.17482558
1	0x3e9d9b0f	0.30782363
2	0x3e898466	0.26858824
3	0x3eeb0591	0.45902684
4	0x3e1b2e7c	0.15154451
5	0x3e05867e	0.13039586
6	0x3ea433c7	0.32070753
7	0x3e1ac50c	0.1511423
8	0x3f207baa	0.62688696
9	0x3f5a43d6	0.8525976
10	0x3ee31651	0.44352964
11	0x3ebf86ea	0.3740762
12	0x3e4cea4e	0.20011255
13	0x3eb326c8	0.34990525
14	0x3dd51066	0.104035184
15	0x3ed743fd	0.42044058
16	0x3ef277df	0.4735708
17	0x3e2505c8	0.16115487
18	0x3e8e3e38	0.27781844
19	0x3f18ba5b	0.59659356
20	0x3f23b6da	0.63950884
21	0x3ec53ae5	0.38521495
22	0x3f042e51	0.51633173
23	0x3e9fb10c	0.31189764
24	0x3f100533	0.56257933
25	0x3db93fbe	0.09045361
26	0x3ed048d6	0.4068057
27	0x3e6a704b	0.22894399
28	0x3eae48f1	0.34040025
29	0x3f2f2b4b	0.68425435
30	0x3e6490a5	0.22320803
31	0x3f33b940	0.70204544
32	0x3ebd65cc	0.36991727
33	0x3f49889c	0.78724074
34	0x3f8b059f	1.086109
35	0xbedf340d	-0.435944
36	0x3d336fec	0.04380791
37	0xbdf82f1e	-0.12118362
38	0xbe99660f	-0.29960677
39	0xbeb0e08f	-0.34546325
40	0x3e2e512e	0.17023155
41	0xbe9c805b	-0.30566677
42	0x3e2d5b27	0.16929303
43	0x3e0a5069	0.13507237
44	0xbed0080b	-0.40631136
45	0x3e74ceb0	0.2390697
46	0x3e18813a	0.14893046
47	0x3f16fca8	0.5897927
48	0x3ed705c3	0.41996583
49	0x3dd332d4	0.10312429
50	0x3e40dfd6	0.18835387
51	0x3eaff9f9	0.34370402
52	0x3e0bd44c	0.13655204
53	0xbe9b3d28	-0.30320096
54	0xbe991624	-0.29899704
55	0x3f1b81cf	0.6074495
56	0x3f2cc3f9	0.6748653
57	0x3f105b6d	0.56389505
58	0x3f27fda5	0.65621406
59	0x3f1ab61b	0.6043412
60	0x3ee37fd3	0.4443346
61	0x3de6b8ba	0.112657025
62	0x3ecf7a7a	0.4052313
63	0x3e5610c8	0.20904839
64	0x3e4bf2cc	0.19916838
65	0xbe61ed4f	-0.22063182
66	0x3ddf97d9	0.109176345
67	0x3eb5a891	0.35480168
68	0x3e9a307d	0.3011512
69	0x3e922338	0.28542495
70	0x3e7c1ed7	0.2462114
71	0x3dad66bc	0.08466861
72	0x3edb8352	0.42873627
73	0xbd4bf1f9	-0.04979131
74	0xbd6ddd88	-0.058072597
75	0x3de60098	0.11230582
76	0x3e5323ce	0.20619127
77	0xbbd243d7	-0.0064167785
78	0x3c4afb40	0.012389004
79	0x3e84d0aa	0.25940448
80	0xbc79046e	-0.01519881
81	0x3ee14159	0.4399517
82	0x3d391438	0.045185298
83	0xbda9d2e7	-0.082921796
84	0xbe2eeb98	-0.1708206
85	0x3ed1ca10	0.40974474
86	0x3f119e73	0.568824
87	0x3df44cf8	0.11928743
88	0x3e809d6d	0.25120106
89	0x3ec09003	0.37609872
90	0xbe608ace	-0.2192795
91	0xbdd95df2	-0.10613622
92	0x3e3279df	0.17429303
93	0x3cad6bb4	0.02116952
94	0xbe16ff34	-0.1474579
95	0xbe1d7116	-0.1537517
96	0xbe301dd2	-0.17198876
97	0xbd9bef2a	-0.07613976
98	0xbefeb3c2	-0.4974652
99	0xbe89529e	-0.26820844
100	0x3d5172b2	0.051134773
101	0xbf02493c	-0.50892997
102	0xbdd3405d	-0.10315011
103	0xbeb45017	-0.35217354
104	0xbf245f63	-0.6420805
105	0xbf01186c	-0.5042789
106	0xbd938ac9	-0.072042055
107	0xbee317a8	-0.44353986
108	0x3d1d5c4b	0.038418096
109	0xbf09a1c0	-0.53762436
110	0xbe7ffc99	-0.24998702
111	0xbebaae81	-0.3646126
112	0xbe03f463	-0.12886195
113	0xbe840cc0	-0.25790977
114	0xbed6c8e0	-0.4195013
115	0x3ddb9d80	0.107234
116	0xbd9ee74e	-0.077589616
117	0x3ea3df4e	0.32006305
118	0x3cc3c8c4	0.023899443
119	0x3f13a5ee	0.57675064
120	0xbeda8acc	-0.4268402
121	0xbe8ae9c0	-0.27131462
122	0xbee41ac3	-0.44551668
123	0xbed0e937	-0.4080293
124	0xbefc2c0b	-0.49252352
125	0xbdb82b39	-0.08992619
126	0x3ea545c2	0.32279783
127	0x3c623e0d	0.013808739
128	0xbd4a75cc	-0.049428746
129	0xbf849140	-1.0356827
130	0xbb8c134b	-0.004274761
131	0x3eb9f55f	0.36320016
132	0x3ea09597	0.31364128
133	0x3e23250f	0.15932105
134	0xbe879e54	-0.26487982
135	0x3e474caa	0.19462839
136	0x3d5c2623	0.053747308
137	0x3c93f071	0.018058987
138	0x3d90f1cb	0.07077368
139	0x3f478dfd	0.7795103
140	0xbe2d789e	-0.16940543
141	0xbef87158	-0.48523974
142	0x3cdf3b30	0.027249902
143	0x3ea8e873	0.32989845
144	0x3f1699a8	0.5882821
145	0xbd633867	-0.05547371
146	0x3ed24c31	0.41073754
147	0x3e8d328c	0.27577627
148	0x3d1bcd26	0.03803744
149	0x3e836601	0.2566376
150	0xbea8d002	-0.32971197
151	0x3e4a8c3f	0.19780062
152	0xbe07f8af	-0.13278459
153	0x3f2ebf22	0.68260396
154	0x3f6fb249	0.93631417
155	0x3da11456	0.07865207
156	0x3d869ff6	0.06573479
157	0x3e82ac0f	0.25521895
158	0x3e36d6b0	0.17855334
159	0x3eada6e9	0.33916405
160	0xbda8dabd	-0.08244846
161	0xbdd4d173	-0.10391512
162	0xbe6948d1	-0.22781684
163	0xbe219f32	-0.15783384
164	0xbf154026	-0.5830101
165	0x36cfeb00	6.1964383e-06
166	0x3e799b1b	0.24375574
167	0x3ea9df35	0.33178106
168	0x3ef1fd7a	0.472637
169	0x3f2312ea	0.63700736
170	0x3e0da052	0.13830689
171	0xbd8d0f77	-0.06887715
172	0x3e0ab10f	0.13544105
173	0x3eb2bed9	0.3491123
174	0xbeda7244	-0.42665303
175	0xbd91860f	-0.07105648
176	0x3dd02fee	0.10165392
177	0x3e9f3315	0.3109366
178	0x3ef87a26	0.48530692
179	0x3f90ffc9	1.132806
180	0x3e1a6870	0.15078902
181	0x3e865c7f	0.26242444
182	0x3ef1abb3	0.4720131
183	0x3e6a3b00	0.22874069
184	0x3ee607be	0.44927782
185	0x3eea31e9	0.45741203
186	0x3f01ca3b	0.50699204
187	0x3e9ca7f8	0.305969
188	0x3ec3c624	0.38237107
189	0x3f26ba2c	0.65127826
190	0x3df909d5	0.121600784
191	0x3f16114f	0.5862016
192	0x3e523637	0.20528494
193	0x3ec626e2	0.3870154
194	0xbd856e91	-0.065152295
195	0x3d89d1f0	0.067294955
196	0x3db75feb	0.08953842
197	0x3ec70bfe	0.38876337
198	0x3ec0d539	0.37662676
199	0x3f144cb3	0.57929534
200	0x3e332d21	0.17497684
201	0x3ed57d9e	0.416974
202	0x3eab48fc	0.3345412
203	0x3f306b3c	0.68913627
204	0x3ec88c6c	0.39169633
205	0x3f041de6	0.5160812
206	0x3eb21e0b	0.34788546
207	0x3f1cc35a	0.6123558
208	0x3ea48f5d	0.32140628
209	0x3f551c10	0.83245945
210	0x3f00db73	0.5033485
211	0x3f0715e3	0.5276777
212	0x3edfa1f6	0.43678254
213	0x3f2efeb2	0.68357384
214	0x3f866308	1.0498972
215	0xbea70402	-0.32620245
216	0xbe2126f4	-0.15737516
217	0xbda08aaf	-0.07838952
218	0xbdbcda77	-0.09221356
219	0xbeb00d6c	-0.3438524
220	0xbed89fc0	-0.4230938
221	0xbd62ab5f	-0.055339213
222	0xbe38f6bc	-0.18062872
223	0xbeb94b4d	-0.36190262
224	0xbf0373bb	-0.51348466
225	0x3aca84ba	0.0015450933
226	0x3ecbaa0a	0.39778167
227	0x3ec2dee7	0.38060686
228	0x3eea0b9e	0.45711988
229	0x3dc4b51e	0.09604858
230	0x3e09bcee	0.13450977
231	0x3dd6b1e2	0.10483147
232	0xbe0ed16d	-0.13947077
233	0xbec1c07f	-0.37842175
234	0xbf500627	-0.8125939
235	0x3ef90805	0.4863893
236	0x3f28169a	0.6565949
237	0x3f298c98	0.66230154
238	0x3f562e09	0.83663994
239	0x3f72eb09	0.94889885

rnn.weight_hh_l0 f4 [48, 12]
0	0xbc40b77f	-0.011762499
1	0xbe0258ee	-0.12729236
2	0xbe2a52fc	-0.16633219
3	0x3e87e1fb	0.26539597
4	0xbdb20fba	-0.08694406
5	0x3e7a5998	0.2444824
6	0xbdddffaf	-0.108397834
7	0xbe3cd587	-0.18440829
8	0x3e376e95	0.17913277
9	0xbde54eeb	-0.11196693
10	0x3e2ab534	0.16670686
11	0x3cb9f45c	0.022699527
12	0xbf213ffb	-0.6298825
13	0x3c9f8aed	0.019475425
14	0x3f3bf0e1	0.7341443
15	0x3f02a88f	0.5103845
16	0xbdbe63ff	-0.092964165
17	0x3eca613a	0.39527303
18	0xbc85324a	-0.016259331
19	0xbd1e84b3	-0.03870077
20	0xbd206fdf	-0.03916919
21	0x3e82803d	0.25488463
22	0x3eed4d31	0.46347955
23	0x3e9bdd35	0.30442205
24	0xbc5b5028	-0.01338581
25	0xbe6c5bef	-0.23081945
26	0x3e5dca19	0.21659125
27	0xba4564f0	-0.00075299945
28	0x3e3892fe	0.18024823
29	0x3d3f688a	0.046730556
30	0x3eee98d3	0.4660097
31	0x3e9cbabe	0.30611223
32	0x3dbac753	0.09120049
33	0x3e42e978	0.19034374
34	0x3e78517f	0.24249838
35	0x3ee3250e	0.44364208
36	0xbed4ba59	-0.41548422
37	0x3d16cd9a	0.03681717
38	0x3e117bd2	0.1420739
39	0x3e8ce3d2	0.27517563
40	0xbd7899ba	-0.06069348
41	0x3dee1eed	0.116269924
42	0x3b1a4d9d	0.0023544796
43	0x3da532f1	0.08066357
44	0x3e483efe	0.1955528
45	0xbd02689a	-0.031838037
46	0x3e9e567b	0.30925354
47	0x3ed0545d	0.40689364
48	0xbf02b6c8	-0.5106015
49	0xbe8222d2	-0.2541719
50	0xbe0a33aa	-0.13496271
51	0x3eb7836d	0.35842457
52	0xbe3104d2	-0.17286995
53	0x3dc53bf3	0.09630575
54	0x3e3ec490	0.1862967
55	0x3e9fa796	0.31182545
56	0x3e04a928	0.12955153
57	0x3dd315fe	0.10306929
58	0x3e90a844	0.28253376
59	0x3e88d78b	0.26726946
60	0xbcd9ca3f	-0.026585696
61	0xbec8d0ef	-0.39221904
62	0xbdea0bc2	-0.11428024
63	0x3e5a1d2e	0.21300194
64	0x3e16eb27	0.14738141
65	0x3e9f5ba9	0.3112462
66	0x3e8de0aa	0.27710468
67	0x3e118214	0.14209777
68	0x3d62651c	0.055272207
69	0x3e202c9b	0.15642016
70	0xbda6f515	-0.081522144
71	0x3f174226	0.5908531
72	0xbf4ddb89	-0.8041311
73	0xbef13c8e	-0.47116512
74	0x3f7ce6db	0.9878976
75	0x3f082023	0.53174037
76	0xbe1db07c	-0.15399355
77	0x3f28f31c	0.65995955
78	0x3f725daf	0.946742
79	0x3f11076d	0.56651956
80	0xbede57be	-0.43426317
81	0x3ecb60a1	0.3972216
82	0x3e9fd2b3	0.31215438
83	0x3f1cb3ed	0.61212045
84	0x3ef96fa2	0.48717982
85	0xbdd6c91a	-0.10487576
86	0x3e54bcb1	0.20775105
87	0xbe401de8	-0.18761408
88	0xbeca395e	-0.39496893
89	0x3a9f8df0	0.0012173038
90	0xbf0bf18a	-0.54665434
91	0xbe7739f5	-0.24143203
92	0x3e96f685	0.29484954
93	0xbe42045e	-0.18946978
94	0x3ea74251	0.32667783
95	0xbecbd505	-0.39810959
96	0xbc765a6f	-0.0150362095
97	0xbd33acda	-0.043866016
98	0x3e9517df	0.29119775
99	0xbd948ae9	-0.072530575
100	0xbd7b8ecb	-0.061415475
101	0x3cd879f5	0.026425341
102	0x3ef50369	0.47854164
103	0x3e72b760	0.23702765
104	0x3cedee60	0.02904433
105	0x3d131b8a	0.035914935
106	0xbc9688ee	-0.01837584
107	0x3ed98ca4	0.42490113
108	0xbe6310b5	-0.22174342
109	0xbf0824f9	-0.53181416
110	0x3e606544	0.2191363
111	0x3e6d9322	0.23200658
112	0x3e85d8a3	0.26141843
113	0x3eca72d3	0.3954073
114	0x3ef4a37e	0.47780985
115	0x3d428023	0.047485482
116	0xbdf19d56	-0.117975876
117	0xbe7fe736	-0.24990544
118	0x3d5bfd08	0.053708106
119	0x3f6bb86e	0.9207829
120	0x3df1ecc4	0.118127376
121	0xbeb167ce	-0.3464951
122	0x3e508fff	0.2036743
123	0x3ee38631	0.44438317
124	0x3ebdda3c	0.37080562
125	0x3ed86f32	0.42272335
126	0x3ea0b251	0.31386045
127	0x3e68f95f	0.22751378
128	0x3d20b421	0.039234284
129	0xbe509458	-0.20369089
130	0x3ec8da3a	0.39228994
131	0x3ec7e3a6	0.3904087
132	0xbf06a01e	-0.5258807
133	0xbe9bed71	-0.3045459
134	0x3f4e6acb	0.80631703
135	0x3e624292	0.22095707
136	0xbf066bbf	-0.5250816
137	0x3f1858fd	0.59510785
138	0x3ea1bf87	0.31591436
139	0x3f13348b	0.5750205
140	0x3f53e279	0.82767445
141	0xbe140333	-0.14454345
142	0x3f33e2e1	0.70268065
143	0x3e573b6b	0.2101876
144	0xbf047f3b	-0.5175664
145	0xbd8c3147	-0.068453364
146	0x3db3517a	0.08755775
147	0x3dcc0c90	0.099633336
148	0xbe064dcf	-0.13115619
149	0x3e57b350	0.21064496
150	0xbeb1a1dc	-0.346938
151	0x3e895545	0.26822868
152	0xbe22a6ee	-0.15883991
153	0xbe1884b5	-0.14894374
154	0x3e1ea6b1	0.15493275
155	0xbb5e987c	-0.00339654
156	0x3d28593b	0.04110072
157	0xbdd0bde6	-0.1019247
158	0x3e33213c	0.17493147
159	0xbdcf3280	-0.10117054
160	0x3ef66b18	0.4812858
161	0x3d8d9ef9	0.06915087
162	0x3eba87c0	0.36431694
163	0xbdce3a58	-0.10069722
164	0xbbb85498	-0.0056253187
165	0x3d3253ed	0.04353707
166	0x3e4d16d8	0.20028245
167	0x3e8702cf	0.2636933
168	0xbd8aa68a	-0.06770046
169	0xbe12eddc	-0.14348549
170	0xbdb74237	-0.08948176
171	0x3d5c4353	0.053775143
172	0x3e89cfc7	0.26916334
173	0x3d988728	0.07447654
174	0x3edac6aa	0.42729694
175	0x3ed303f8	0.41213965
176	0xbead817c	-0.3388785
177	0x3dbd2e8d	0.092373945
178	0xbd31c6ec	-0.043402597
179	0x3edd01c3	0.43165407
180	0x3e921a57	0.2853572
181	0x3f231b42	0.6371347
182	0x3e3853a1	0.18000652
183	0xbc297180	-0.010342002
184	0xbefb8cf7	-0.49130985
185	0xbea64022	-0.32470804
186	0xbe9d36f2	-0.30705982
187	0xbdc53097	-0.096284084
188	0x3d89c4f7	0.06727021
189	0xbe85e0d7	-0.26148102
190	0xbd9bb814	-0.076034695
191	0xbe944a12	-0.2896276
192	0x3db71171	0.089388736
193	0xbd34f8d6	-0.04418262
194	0x3e6906b1	0.22756459
195	0x3d12dfd7	0.035858
196	0xbdda538b	-0.10660466
197	0xbcab1fd1	-0.020889195
198	0xbec2b864	-0.38031304
199	0x3eae04a7	0.33987924
200	0xbe9f660e	-0.3113255
201	0x3ea57f0c	0.32323492
202	0x3de2f3a3	0.11081626
203	0x3d11d8aa	0.035607018
204	0x3e299283	0.16559796
205	0x3d447fed	0.047973562
206	0xbe0911ef	-0.13385747
207	0xbe1e4c1a	-0.15458718
208	0xbe89c4b1	-0.26907876
209	0x3d9e84ad	0.0774015
210	0x3e99e70d	0.3005909
211	0x3e5ea407	0.21742259
212	0xbee2cbcd	-0.44296113
213	0x3f01b795	0.5067075
214	0xbe27c9e8	-0.16385615
215	0x3f8a620f	1.0811175
216	0x3f11119e	0.56667507
217	0x3ebec03b	0.37256035
218	0xbe0db863	-0.13839869
219	0xbf1ee195	-0.6206296
220	0xbeb25236	-0.34828347
221	0xbf0381fe	-0.5137023
222	0x3e0492bc	0.129466
223	0x3eb8ae9a	0.3607071
224	0xbf266607	-0.6499943
225	0x3e82eb72	0.25570256
226	0xbeb68158	-0.35645556
227	0xbc8e3208	-0.017357841
228	0x3e612eeb	0.21990554
229	0xbd8598dd	-0.06523297
230	0x3dc2dfa6	0.09515314
231	0xbe361d79	-0.1778468
232	0xbc2783e5	-0.010224317
233	0x3e15f565	0.14644392
234	0xbeff307b	-0.49841675
235	0xbe9038b1	-0.28168252
236	0x3e514dcf	0.20439838
237	0xbdae3861	-0.08506847
238	0x3e8a40d9	0.270026
239	0xbf03793c	-0.51356864
240	0x3ea9140c	0.33023107
241	0xbde28a91	-0.11061586
242	0x3e02ed6e	0.12785885
243	0x3db6a848	0.08918816
244	0x3e9538a3	0.29144773
245	0x3d1ab22d	0.037767578
246	0x3d39dc76	0.045376264
247	0xbd1de9bd	-0.03855299
248	0xbde1ad3d	-0.11019371
249	0xbe7cf2e7	-0.24702035
250	0xbe23e200	-0.16004181
251	0x3e3df05f	0.18548726
252	0x3f18031e	0.59379756
253	0xbd2ecd03	-0.042675983
254	0xbd009e0d	-0.03140073
255	0xbc8d4f99	-0.01724987

rnn.bias_ih_l0 f4 [48]
0	0x3d70c5cf	0.058782395
1	0x3c381691	0.011235849
2	0x3cf23143	0.029564505
3	0x3e1bf43c	0.15229887
4	0x3e9deb01	0.30843356
5	0xbc6f77e5	-0.014615987
6	0x3e7d6533	0.24745636
7	0xbcff4fb8	-0.031165943
8	0x3e9eac3a	0.30990773
9	0x3e855850	0.2604394
10	0x3ede370e	0.43401378
11	0x3e55ca5d	0.20877977
12	0x3e26b24f	0.16278957
13	0xbe9af3d1	-0.30264142
14	0x3dd0f036	0.102020666
15	0xbe8fcd70	-0.28086424
16	0x3d64fd00	0.055905342
17	0x3dd6a462	0.10480572
18	0xbf112a66	-0.5670532
19	0x3ea31a70	0.31856108
20	0xbdfc28fd	-0.123125054
21	0xbcc2d843	-0.023784762
22	0x3e96e033	0.29467925
23	0xbe8ff301	-0.28115085
24	0xbe5392ef	-0.2066152
25	0x3d9ff07b	0.0780954
26	0xbe039eeb	-0.12853591
27	0x3e2e1b19	0.17002524
28	0xbd02fc54	-0.03197892
29	0xbd865d28	-0.06560737
30	0x3df104f5	0.117685236
31	0xbe0b0908	-0.13577664
32	0x3dc5cdb1	0.09658373
33	0xbddd5f13	-0.108091496
34	0x3edc8cfe	0.43076319
35	0x3cbac087	0.022796882
36	0x3da7758b	0.081767164
37	0x3d459bad	0.048244167
38	0xbe6918e1	-0.22763397
39	0x3e5b0b11	0.2139094
40	0x3e3d876c	0.1850869
41	0x3d745712	0.05965335
42	0x3eeb0aca	0.4590667
43	0x3eabfe27	0.3359234
44	0x3e8973b9	0.26846102
45	0xbd750d45	-0.059827108
46	0x3e168f3c	0.14703077
47	0x3eb49e14	0.35276854

rnn.bias_hh_l0 f4 [48]
0	0x3e3ecd84	0.18633085
1	0x3e6c611f	0.23083924
2	0xbd3fd78a	-0.046836413
3	0xbddc94fe	-0.107706055
4	0xbd404e99	-0.046949957
5	0xbe71b617	-0.23604618
6	0x3f1e4aa0	0.6183262
7	0xbc486450	-0.012230948
8	0x3ea34715	0.3189017
9	0x3f00b5be	0.50277317
10	0x3e5a2239	0.21302117
11	0x3e9b8ad0	0.30379343
12	0x3eb2c9cc	0.34919584
13	0x3dd21a2b	0.102588974
14	0x3e32fb67	0.17478715
15	0x3e50dd97	0.2039703
16	0xbe0ad781	-0.1355877
17	0x3e49d36f	0.19709562
18	0xbf15f84e	-0.5858201
19	0x3ca4c467	0.020113183
20	0xbe2c7099	-0.16839828
21	0xbdbedf80	-0.09319973
22	0xbe358dd4	-0.17729884
23	0xbe8c9405	-0.2745668
24	0x3e4ddf3c	0.20104688
25	0xbe120dc0	-0.14263058
26	0x3e301308	0.1719476
27	0xbd6e9a74	-0.058252767
28	0x3df3a1f6	0.11896126
29	0x3e0fd3c0	0.1404562
30	0x3dce8206	0.10083394
31	0xbe44ea4b	-0.1923
32	0x3ed50a07	0.41609213
33	0xbe65a832	-0.22427443
34	0x3de8bd69	0.11364252
35	0xbd8f5e93	-0.070004605
36	0x3ee3cdcd	0.4449295
37	0x3e79712e	0.24359581
38	0x3e6b8c1d	0.23002668
39	0x3ec62a92	0.38704354
40	0x3eb2f873	0.34955177
41	0x3dbe6551	0.09296668
42	0x3e9c2b17	0.30501625
43	0xbd14112c	-0.03614919
44	0x3e35d09c	0.1775536
45	0x3e3ce282	0.18445781
46	0xbd8b9e38	-0.06817287
47	0x3eb73cd9	0.3578861

rnn.weight_ih_l1 f4 [48, 12]
0	0xbe78bb7e	-0.24290273
1	0x3e8bfbc7	0.27340528
2	0x3e56d03f	0.20977877
3	0xbd5b153c	-0.053487048
4	0xbe9a2234	-0.3010422
5	0x3bd56c32	0.006513142
6	0xbec0626e	-0.37575096
7	0xbdb0ecca	-0.08638914
8	0x3ebea4c6	0.37235087
9	0xbecf194b	-0.40448985
10	0x3eb9aafa	0.36263257
11	0xbe1918a3	-0.14950804
12	0x3e9f10f5	0.31067625
13	0x3e2d9836	0.16952595
14	0x3e25d7c9	0.16195597
15	0x3e13b0a6	0.14422855
16	0xbc56ee84	-0.01311839
17	0xbd83cd31	-0.064356215
18	0x3e39aa01	0.18131258
19	0x3ddde256	0.10834186
20	0x3e0edd89	0.13951696
21	0xbcc3a4d2	-0.023882303
22	0x3e0fdefe	0.14049909
23	0x3dfbed00	0.123010635
24	0xbf0d8be1	-0.55291563
25	0xbe89e868	-0.26935124
26	0x3dfa7e78	0.12231153
27	0x3dd50631	0.104015715
28	0x3d0a162f	0.033712562
29	0xbd052827	-0.032508995
30	0x3e5b134b	0.21394078
31	0x3e0816ba	0.1328992
32	0x3daf1a1d	0.085499026
33	0x3f161f00	0.5864105
34	0x3eea2d98	0.4573791
35	0x3e99b16d	0.30018178
36	0x3ead9c5e	0.3390836
37	0xbd38e295	-0.04513796
38	0xbe56a1d2	-0.20960167
39	0x3de65fcb	0.1124874
40	0xbea8eafa	-0.32991773
41	0x3e552a82	0.20816997
42	0x3f09f0ff	0.53883356
43	0xbd81a11d	-0.06329558
44	0x3d69e081	0.05709887
45	0xbd61df56	-0.05514463
46	0x3dfcfdf5	0.12353126
47	0xbc3e74c7	-0.011624522
48	0xbeab3c60	-0.334445
49	0x3e228c8e	0.1587393
50	0x3e858392	0.26076943
51	0x3ce7c930	0.028294176
52	0xbe1931ed	-0.14960451
53	0x3eb7310d	0.3577961
54	0xbe2729a6	-0.16324481
55	0x3e1996df	0.14998959
56	0xbdab4f72	-0.08364762
57	0x3eea7183	0.45789728
58	0x3e6e92af	0.23298143
59	0x3ea2e350	0.3181405
60	0xbf0a48ef	-0.5401754
61	0xbf460715	-0.77354556
62	0x3df2a587	0.11847978
63	0x3f7002fe	0.93754566
64	0x3edfd789	0.43719128
65	0x3f85c839	1.0451728
66	0x3fb4d932	1.4128783
67	0xbe1d3793	-0.15353231
68	0xbe9ab7ba	-0.30218297
69	0x3f1e2de2	0.6178876
70	0x3e58f814	0.21188384
71	0x3f865151	1.0493566
72	0xbeb71068	-0.35754704
73	0xbe641447	-0.2227336
74	0x3d2025a5	0.0390984
75	0xbde438c5	-0.111436404
76	0x3d8f659e	0.07001804
77	0xbe2b851f	-0.1675
78	0xbde685d9	-0.11255998
79	0x3dbb4f19	0.09145946
80	0x3e8936b8	0.2679956
81	0x3e2b4e6a	0.16729131
82	0x3ecd8948	0.401438
83	0xbd3dab6f	-0.04630607
84	0xbf531f06	-0.82469213
85	0xbe9fbbc9	-0.31197956
86	0x3f25580a	0.6458746
87	0x3e40c0da	0.18823567
88	0x3d1ee0a4	0.038788453
89	0x3f16e650	0.5894518
90	0xbe6c99ed	-0.23105593
91	0x3ed84b9d	0.42245188
92	0x3ddf0331	0.108892806
93	0xbc94eb48	-0.018178597
94	0x3f12c54b	0.57332295
95	0x3e38cd63	0.18047099
96	0xbe659981	-0.22421838
97	0xbea70922	-0.32624155
98	0x3db279fd	0.08714674
99	0x3ec44d6f	0.38340327
100	0x3d88b53d	0.066751935
101	0x3e9a0985	0.30085388
102	0x3e44e690	0.19228578
103	0xbe0e6e19	-0.13909186
104	0x3d8d7e89	0.069089
105	0x3ebb4313	0.3657461
106	0x3d6023dc	0.0547217
107	0x3e3f7f21	0.1870084
108	0xbf1327ce	-0.5748261
109	0xbe9e68ee	-0.3093943
110	0xbe5f22b4	-0.21790582
111	0x3df67fbf	0.120360844
112	0x3da2d8c6	0.079515025
113	0xbce75207	-0.028237356
114	0x3d9755c6	0.07389407
115	0x3e551773	0.20809726
116	0xbeaeb0db	-0.34119305
117	0x3eaa88bc	0.33307445
118	0x3f05b92a	0.5223566
119	0x3efab02b	0.4896253
120	0xbef240fd	-0.47315207
121	0xbd0cea99	-0.034403417
122	0x3ea69c65	0.32541195
123	0x3f0e54c8	0.55598116
124	0x3ecea6db	0.40361676
125	0x3daa24db	0.08307811
126	0x3f408a9b	0.75211495
127	0xbe2b3355	-0.167188
128	0x3e338e29	0.17534699
129	0x3e85c4ab	0.26126608
130	0x3e3c5d61	0.18394996
131	0x3f393858	0.723516
132	0xbe35cb06	-0.17753229
133	0xbdd351ff	-0.10318374
134	0x3f131ed9	0.57468945
135	0x3e9eb59b	0.3099793
136	0x3ebe0f01	0.37120822
137	0x3f2a60f1	0.6655417
138	0x3f49a820	0.78772163
139	0xbe56bee0	-0.2097125
140	0x3cb567a8	0.022144154
141	0xbd1e3f9b	-0.038634878
142	0x3e3bfa20	0.18357134
143	0x3e795833	0.24350052
144	0xbd26b7d0	-0.04070264
145	0x3ea4d654	0.3219477
146	0x3f04a83d	0.5181921
147	0x3a0a905c	0.00052857934
148	0xbeaae6bc	-0.3337916
149	0xbe31a345	-0.17347439
150	0xbf8cf03b	-1.1010813
151	0x3e1d5c61	0.15367271
152	0x3eb1fbd1	0.34762433
153	0xbed9fd0e	-0.42575878
154	0x3f0553a4	0.5208075
155	0xbf27297b	-0.6529767
156	0x3e36fefb	0.17870705
157	0x3e98c175	0.29835096
158	0x3cc69b4b	0.024243971
159	0xbebc2ca5	-0.3675281
160	0xbe87ca1b	-0.26521382
161	0x3df9b12c	0.12191996
162	0x3e725e30	0.23668742
163	0x3e366681	0.1781254
164	0xbe602fb0	-0.21893191
165	0xbe921b30	-0.28536367
166	0x3e711206	0.23542032
167	0xbe64a508	-0.2232858
168	0xbcfcfd4e	-0.030882504
169	0xbcecce2b	-0.028906902
170	0x3ce69049	0.028144972
171	0x3e34332b	0.17597644
172	0x3e218765	0.15774305
173	0x3d9d58a7	0.07682925
174	0x3f159e35	0.5844453
175	0x3ec5712a	0.385629
176	0xbeaed7d0	-0.34149027
177	0x3f2f42f7	0.68461555
178	0x3f02fb3b	0.511646
179	0x3e7740c4	0.241458
180	0x3eb2fac6	0.3495695
181	0x3ee0fab0	0.4394126
182	0xbde41900	-0.11137581
183	0x3cf18f1f	0.02948719
184	0xbeb3af49	-0.3509467
185	0x3db80306	0.08984952
186	0x3dd7cb01	0.10536767
187	0x3cb45a88	0.022015825
188	0x3e83e947	0.25763914
189	0xbda07b2d	-0.07835994
190	0x3eeee4bd	0.46658888
191	0xbe043e33	-0.12914352
192	0xbea39f92	-0.3195768
193	0x3d41d1b5	0.047319133
194	0xbdfe5df3	-0.12420263
195	0xbe03b4ca	-0.12861934
196	0x3e2ff479	0.17183103
197	0x3ebcc5f7	0.36869785
198	0x3e533977	0.2062739
199	0x3ec5f307	0.38661978
200	0xbdda0cca	-0.106469706
201	0x3e8095b7	0.25114223
202	0x3e69fdd9	0.22850741
203	0xbc2cf5db	-0.010556663
204	0x3e803f22	0.25048167
205	0x3daa0fd2	0.08303799
206	0xbf859ff0	-1.0439434
207	0x3e5d797f	0.21628378
208	0x3da8f7a3	0.08250358
209	0xbf0d53cf	-0.55206007
210	0x3d4387fb	0.047737103
211	0x3cd6493b	0.026157966
212	0xbe96f195	-0.29481187
213	0xbca54554	-0.02017466
214	0xbeaab6ac	-0.33342493
215	0x3e7db838	0.24777305
216	0x3dcd0181	0.100100525
217	0x3e543953	0.20724992
218	0x3d886a5a	0.0666091
219	0xbcfd5604	-0.030924805
220	0x3d9a6451	0.07538665
221	0x3e24778b	0.16061227
222	0xbe633a67	-0.22190247
223	0x3e9a6380	0.30154037
224	0xbe7d79e0	-0.24753523
225	0x3e8a48c2	0.27008635
226	0x3b210fcc	0.0024576066
227	0xbdf2403e	-0.118286595
228	0xbe7ed57d	-0.24886127
229	0xbd34603a	-0.04403708
230	0x3da4783e	0.08030747
231	0x3ea39041	0.31945994
232	0xbd6cb570	-0.05779022
233	0x3e50c1a5	0.2038637
234	0x3ea24893	0.31695995
235	0xbd851384	-0.06497863
236	0xbe67ff9c	-0.22656101
237	0x3ef66caf	0.48129794
238	0xbdad5703	-0.08463862
239	0x3e920d41	0.28525737
240	0xbdd3b99c	-0.103381366
241	0xbe44b8f9	-0.19211186
242	0xbe12c7c5	-0.14334019
243	0x3e0dba1b	0.13840525
244	0x3e9be9f5	0.30451933
245	0x3e9a5661	0.30144027
246	0xbdc92460	-0.09821391
247	0x3d0d201c	0.03445445
248	0x3cd4559f	0.025919734
249	0x3df491fe	0.11941908
250	0xbec68409	-0.3877261
251	0x3d822fba	0.06356759
252	0x3e1227b5	0.1427296
253	0x3ca8e7d8	0.020618364
254	0xbea1b815	-0.31585756
255	0xbc98678f	-0.018604068

rnn.weight_hh_l1 f4 [48, 12]
0	0xbea84e41	-0.32872203
1	0xbe4bd9e4	-0.19907337
2	0xbd9d8c1c	-0.07692739
3	0xbe4f186a	-0.20224157
4	0x3d834e01	0.064113624
5	0xbf4fb5ff	-0.8113708
6	0xbd16668f	-0.0367189
7	0xbe867cb3	-0.26267013
8	0xbdfe38d8	-0.12413186
9	0x3f2136d4	0.62974286
10	0x3ed4f2f5	0.41591612
11	0xbf3fcf13	-0.74925345
12	0xbe5a51e8	-0.21320307
13	0x3c84bee6	0.016204309
14	0xbf024fe7	-0.5090317
15	0x3da6ea47	0.081501536
16	0xbdf9c06c	-0.12194905
17	0xbebe0b50	-0.37118006
18	0xbe849ed1	-0.25902417
19	0xbdd22201	-0.10260392
20	0x3e8020b7	0.2502496
21	0x3ee6f1c2	0.45106322
22	0x3ebeb9d7	0.3725116
23	0x3dcc3864	0.09971693
24	0xbeafccb9	-0.34335878
25	0xbe255b12	-0.16148022
26	0xbcc1b3f3	-0.023645377
27	0x3e16d8df	0.14731167
28	0x3d372c6d	0.044720102
29	0xbede39ed	-0.4340357
30	0x3d8f90dc	0.070100516
31	0xbe543b82	-0.20725825
32	0x3e86afff	0.2630615
33	0x3f04939e	0.51787746
34	0x3ebf8402	0.374054
35	0xbecb85d3	-0.39750537
36	0x3e56a18e	0.20960066
37	0xbe2b4733	-0.16726379
38	0xbeca7f9e	-0.3955049
39	0x3ea3b972	0.3197742
40	0x3e163492	0.14668491
41	0x3c3c90d5	0.01150914
42	0xbd027e37	-0.03185865
43	0x3f4e7f0d	0.80662614
44	0x3e3fd559	0.1873373
45	0x3e3d5d88	0.1849271
46	0x3e4c11c9	0.1992866
47	0xbd7b9908	-0.06142524
48	0x3d965394	0.0734016
49	0x3e3a038e	0.18165419
50	0xbdde5536	-0.108560964
51	0xbe282feb	-0.16424529
52	0x3dbf1f54	0.09332147
53	0xbe6c34d4	-0.23067027
54	0x3eb9cbad	0.36288205
55	0xbd4ea8f0	-0.05045408
56	0xbea263b9	-0.31716707
57	0xbbb1df09	-0.005428199
58	0x3ece667b	0.4031256
59	0xbeb4e655	-0.3533198
60	0x3eaa8ced	0.33310643
61	0xbfa94844	-1.3225179
62	0x3f240419	0.6406875
63	0xbed66d13	-0.41880092
64	0x3e2902f4	0.16505033
65	0x3f2712c2	0.65263
66	0x3db59ab2	0.088673964
67	0x3fbbf20d	1.4683243
68	0xbea80950	-0.32819605
69	0xbdb553e4	-0.088538915
70	0x3e7b460a	0.24538437
71	0xbf31951f	-0.69368166
72	0xbe420fce	-0.18951342
73	0x3c27f506	0.010251289
74	0xbe01c40d	-0.12672444
75	0x3da95215	0.08267609
76	0x3e20bf0f	0.15697883
77	0x3bc1ddec	0.0059163477
78	0x3e135249	0.14386858
79	0x3dc9ed9a	0.09859772
80	0x3e92fb11	0.28707173
81	0x3e72d2d8	0.23713243
82	0xbe051d30	-0.12999415
83	0xbee3603b	-0.44409356
84	0xbebad6d7	-0.36492035
85	0x3e8bd2c8	0.2730925
86	0xbd6c9d4d	-0.0577672
87	0xbf056807	-0.5211186
88	0x3eae20f6	0.34009522
89	0xbf37452e	-0.71589935
90	0x3ef4804f	0.47754142
91	0x3de0e2b6	0.10980742
92	0xbd947b7c	-0.07250115
93	0x3ee22783	0.4417077
94	0x3edf919d	0.43665782
95	0xbde334e7	-0.11094075
96	0xbe774296	-0.24146494
97	0x3de7a4ad	0.11310706
98	0xbe688229	-0.22705902
99	0x3d83fe71	0.06445015
100	0x3dac553d	0.084146954
101	0xbf39a8c2	-0.7252313
102	0xbd9757f5	-0.07389823
103	0xbe1be094	-0.15222389
104	0xbe20b3f8	-0.15693653
105	0x3de2f77c	0.1108236
106	0xbde3d287	-0.11124139
107	0x3e17e148	0.14832032
108	0xbcce9fae	-0.025222626
109	0x3e031f70	0.12804961
110	0x3e7bcbad	0.24589415
111	0xbef70609	-0.48246792
112	0x3ead6e1a	0.33873063
113	0xbf0812de	-0.5315379
114	0x3e9e8776	0.30962723
115	0x3e7d3321	0.24726535
116	0xbe1b3dd6	-0.15160307
117	0x3b80d8db	0.003932101
118	0x3e5c9f03	0.21545033
119	0xbe0a4e26	-0.13506374
120	0xbf280625	-0.65634376
121	0x3dbb9ba5	0.09160546
122	0xbe07b8e8	-0.1325413
123	0xbdebc2e2	-0.1151178
124	0xbda85074	-0.0821847
125	0xbe079db9	-0.1324376
126	0xbd44263b	-0.047888022
127	0xbeb0b3e7	-0.34512255
128	0xbe2658b7	-0.1624478
129	0x3f1255f6	0.57162416
130	0xbdb73ee5	-0.08947543
131	0xbf1e36cd	-0.6180237
132	0xbecb64fe	-0.39725488
133	0x3edaa3ad	0.42703
134	0xbee2c13d	-0.44288054
135	0xbf0611a8	-0.5237069
136	0x3f218957	0.6310019
137	0x3e2e3928	0.17013991
138	0x3d38a80a	0.04508213
139	0xbe04e827	-0.12979184
140	0xbe66608c	-0.22497767
141	0x3e806145	0.2507421
142	0x3ed079f1	0.40718034
143	0xbeff6d40	-0.4988804
144	0x3e319ddf	0.1734538
145	0xbec324b7	-0.3811395
146	0xbe51973b	-0.20467846
147	0xbe8f8546	-0.28031367
148	0x3d3c99d8	0.046045154
149	0xbf11f549	-0.570149
150	0xbeeaa4a4	-0.45828736
151	0xbe21e16a	-0.15808645
152	0x3e60b579	0.21944226
153	0x3dab5756	0.083662674
154	0xbe18193c	-0.14853376
155	0xbee6f619	-0.45109633
156	0xbe5a932c	-0.21345204
157	0x3e453547	0.19258605
158	0xbc0d566c	-0.008626562
159	0x3eb32e3e	0.34996217
160	0x3d1f1d8f	0.03884655
161	0xbe8879d4	-0.26655447
162	0xbd9d969d	-0.07694743
163	0xbd8171c8	-0.0632053
164	0x3e91cd0c	0.2847675
165	0xbca91dc7	-0.020644082
166	0xbd98b47d	-0.074563004
167	0x3e06ec2b	0.13176028
168	0x3e400da5	0.18755205
169	0x3d20e6d6	0.039282642
170	0x3e5fae3e	0.21843812
171	0xbea5f4d3	-0.3241335
172	0x3ed94fe2	0.42443758
173	0x3f27c5ff	0.65536493
174	0xbdb14724	-0.08656147
175	0xbe164c2b	-0.14677493
176	0x3e8daea0	0.2767229
177	0x3dcf38c2	0.101182476
178	0x3f36b2f4	0.7136681
179	0x3dcb856a	0.09937556
180	0x3dc006e9	0.09376318
181	0xbdea5945	-0.11442808
182	0xbedf354a	-0.43595344
183	0x3e9b03bb	0.30276284
184	0x3d46701b	0.048446756
185	0xbadf7f78	-0.0017051538
186	0x3e0207f8	0.12698352
187	0x3ecfd142	0.4058934
188	0x3ea5675d	0.32305422
189	0x3dd148dc	0.10218975
190	0xbc19fda1	-0.009398849
191	0xbed8de9a	-0.42357332
192	0xbe898c2a	-0.2686475
193	0x3e58d375	0.21174414
194	0xbe9277a6	-0.2860691
195	0xbe471b7a	-0.19444075
196	0x3e682ab8	0.22672546
197	0xbf0e7dba	-0.55660594
198	0xbdf1dd5d	-0.118098
199	0xbdce17e3	-0.1006315
200	0xbe987b24	-0.2978145
201	0x3e9e8850	0.30963373
202	0x3dbc0a18	0.09181613
203	0xbda24792	-0.07923807
204	0x3edac0a7	0.42725107
205	0xbe385914	-0.1800273
206	0xbe666c98	-0.22502363
207	0xbe49e13c	-0.19714826
208	0xbe6a949a	-0.2290825
209	0xbe4999df	-0.19687603
210	0xbf21544e	-0.63019264
211	0xbe48cd44	-0.19609553
212	0x3f048fa7	0.51781696
213	0x3dc46599	0.09589691
214	0xbca6281e	-0.020282801
215	0xbec3aed0	-0.3821931
216	0x3e2ff578	0.17183483
217	0x3e98a79b	0.29815373
218	0x3e09a588	0.13442051
219	0x3ece8347	0.40334532
220	0x3e470562	0.19435647
221	0xbef02d67	-0.4690964
222	0xbda2d0bb	-0.079499684
223	0xbe0c6461	-0.13710167
224	0x3d7f64a9	0.062351856
225	0x3e8d7bce	0.27633518
226	0x3cbc4f3d	0.022987003
227	0xbe38db3a	-0.18052378
228	0xbdf921df	-0.121646635
229	0xbec5db70	-0.3864398
230	0x3e56a75b	0.20962279
231	0xbe307e88	-0.17235768
232	0x3e09a15a	0.13440457
233	0x3e17b182	0.14813808
234	0x3d5c086d	0.053718973
235	0x3e0cc789	0.13747992
236	0xbe6c64b1	-0.23085286
237	0xbe00296e	-0.12515804
238	0x3d07a52e	0.033116512
239	0x3db5bdb9	0.08874077
240	0x3d442f13	0.047896456
241	0x3e9f55a3	0.31120023
242	0x3e5dbc47	0.21653853
243	0xbe549dcc	-0.2076332
244	0x3e0645d3	0.13112573
245	0xbea6b4c7	-0.32559797
246	0xbdb90a96	-0.09035222
247	0xbe4b8e94	-0.19878608
248	0x3e7c342b	0.24629276
249	0xbdd5e319	-0.10443706
250	0x3df352db	0.11881038
251	0xbe40d6fa	-0.18832007
252	0xbdbf02eb	-0.093267284
253	0x3e7b7cc4	0.24559313
254	0x3e352499	0.17689742
255	0xbdb22d5f	-0.0870006

rnn.bias_ih_l1 f4 [48]
0	0xbe1f9c45	-0.15586956
1	0xbebef15f	-0.37293527
2	0x3e25c724	0.16189247
3	0xbe4018a3	-0.18759398
4	0x3eb78f9e	0.3585176
5	0x3e5fa65b	0.21840803
6	0x3da6f68a	0.08152492
7	0x3f04f2ae	0.519328
8	0x3ea9c405	0.33157364
9	0xbd85cc18	-0.065330684
10	0x3ebf0c93	0.3731428
11	0x3ef3b4cb	0.47598872
12	0xbebc89bb	-0.3682383
13	0xbe019b0b	-0.126568
14	0x3de640db	0.11242839
15	0xbe340f32	-0.17583922
16	0x3de37645	0.111065425
17	0xbf0c9d89	-0.5492788
18	0xbeaf16b6	-0.34197015
19	0xbe28e424	-0.16493279
20	0x3e7cb033	0.2467659
21	0x3d106187	0.03524926
22	0x3e857e9d	0.2607316
23	0x3e22ed87	0.15910922
24	0xbdcf386f	-0.10118186
25	0xbd98818a	-0.074465826
26	0x3dd86290	0.10565674
27	0xbe480520	-0.19533205
28	0x3ce78dad	0.028265798
29	0xbd9f1474	-0.07767573
30	0x3e0e5014	0.13897735
31	0xbcbe4532	-0.023226354
32	0xbdd89cba	-0.10576768
33	0xbe0b0d3c	-0.13579267
34	0x3e60bcbb	0.21946995
35	0xbd7e7183	-0.062119972
36	0xbc2a6fd1	-0.010402636
37	0x3e138b50	0.14408612
38	0x3e1dbba8	0.15403616
39	0xbe8940eb	-0.2680734
40	0xbd9a1e4b	-0.07525309
41	0x3e76259f	0.24037789
42	0xbe17ed59	-0.14836635
43	0x3e84af2b	0.25914893
44	0x3e97ef51	0.2967477
45	0xbd73880a	-0.05945591
46	0x3ec2351b	0.3793114
47	0x3e8912e5	0.26772228

rnn.bias_hh_l1 f4 [48]
0	0x3ea463b5	0.3210732
1	0x3d7492a1	0.05971015
2	0x3e2b3049	0.16717638
3	0x3d806ea4	0.06271103
4	0xbdaa0cf6	-0.08303253
5	0x3e1f07a3	0.15530257
6	0x3c0f686d	0.008752924
7	0x3ef80880	0.48443985
8	0xbe082759	-0.1329626
9	0x3ee3877a	0.44439298
10	0x3dee9ab7	0.11650603
11	0x3ea36d74	0.31919444
12	0x3dd8bdcf	0.10583078
13	0xbe9522c8	-0.29128098
14	0x3cd981f9	0.026551234
15	0xbe00501a	-0.12530556
16	0x3e94bed0	0.29051828
17	0xbef2cbf6	-0.47421235
18	0x3e19f331	0.15034176
19	0x3eab9efb	0.3351973
20	0xbd7c6be2	-0.061626323
21	0x3e17856f	0.14796995
22	0xbe4e1a06	-0.20127115
23	0x3e0c667e	0.13710973
24	0x3db21c84	0.08696845
25	0x3e06c5a2	0.13161328
26	0x3b97b8f4	0.0046302024
27	0xbe45a943	-0.1930285
28	0x3e6db320	0.23212862
29	0xbdc0c4ea	-0.094125584
30	0x3df8041b	0.12110158
31	0x3e36b6bb	0.17843144
32	0xbe4bc1f2	-0.19898203
33	0x3dfe7686	0.1242495
34	0x3aa5435e	0.0012608578
35	0xbe5ac6b4	-0.21364862
36	0x3e98a7aa	0.29815418
37	0xbc36fc24	-0.011168513
38	0x3d7b83ad	0.061404873
39	0xbdfcc584	-0.123423606
40	0x3e121166	0.1426445
41	0x3da32aa4	0.079671174
42	0xbdc0e92d	-0.09419475
43	0x3f075eb3	0.52878875
44	0x3e8aed47	0.27134153
45	0x3e6bffc9	0.23046793
46	0x3e406af1	0.18790795
47	0x3f0b778c	0.5447929

rnn.weight_ih_l2 f4 [48, 12]
0	0xbeaa2d73	-0.332378
1	0x3e9d6153	0.30738315
2	0x3e1eb167	0.15497361
3	0xbf0b354d	-0.54378206
4	0x3edb12a5	0.42787662
5	0x3e629417	0.22126804
6	0x3d833288	0.064061224
7	0xbe0e3364	-0.13886791
8	0x3b344bb5	0.0027510945
9	0x3dd60d9c	0.104518145
10	0x3e9ac06b	0.30224928
11	0x3e0c1aa1	0.13682033
12	0x3e342667	0.17592774
13	0x3e6b3c2f	0.22972177
14	0xbde00e72	-0.10940255
15	0x3de0a6ae	0.109692916
16	0xbe0ffd1f	-0.14061402
17	0x3e41b4e6	0.18916664
18	0xbdd74006	-0.105102584
19	0xbe416372	-0.18885592
20	0xbdd67c51	-0.1047293
21	0x3d47d1d3	0.04878409
22	0x3df291be	0.11844204
23	0xbe17c2fb	-0.14820473
24	0xbd88fe17	-0.06689089
25	0xbdff75ff	-0.12473678
26	0xbddd3f19	-0.108030505
27	0x3ea3c74a	0.31987983
28	0xbd943e21	-0.07238413
29	0x3f48b12b	0.78395337
30	0x3dcc062f	0.09962117
31	0xbe926aaf	-0.28597018
32	0x3e3a1ba8	0.18174613
33	0xbec510db	-0.38489422
34	0x3f00460d	0.5010689
35	0x3d3e991a	0.046532728
36	0xbe127d2d	-0.14305563
37	0xbebbc520	-0.36673832
38	0xbe8524fe	-0.26004785
39	0x3e42ef5d	0.19036622
40	0x3dcf08bd	0.101090886
41	0x3e87109b	0.26379856
42	0xbe998da8	-0.29990888
43	0xbe56c0c6	-0.20971975
44	0x3e9d1714	0.3068167
45	0x3d9679e6	0.07347469
46	0xbd914bc3	-0.070945285
47	0x3d50b55d	0.05095421
48	0xbdedd8a0	-0.116135836
49	0x3cc39266	0.02387352
50	0xbe65a1e1	-0.22425033
51	0xbd2d51f9	-0.042314503
52	0x3ee5350d	0.44767037
53	0x3f5bd93d	0.85878354
54	0x3e2a3a71	0.16623856
55	0xbe84c9db	-0.25935254
56	0x3dabb75f	0.08384585
57	0xbe5e1404	-0.21687323
58	0x3e9a0f88	0.30089974
59	0xbc8ede2c	-0.017439924
60	0xbe907f92	-0.28222328
61	0x3d607863	0.05480231
62	0xbeca4ee7	-0.39513323
63	0x3c9ad079	0.018898236
64	0x3d704982	0.058663853
65	0x3ec28be2	0.37997347
66	0x3e8865f9	0.266403
67	0xbede65b0	-0.43436956
68	0xbe0e93aa	-0.13923517
69	0x3dcf255a	0.10114546
70	0x3f676000	0.9038086
71	0xbdf3edb3	-0.11910572
72	0xbe8cb637	-0.2748277
73	0xbc9ee54f	-0.019396452
74	0xbe5678df	-0.20944546
75	0x3e459aef	0.19297384
76	0x3e36bf10	0.17846322
77	0x3f0b2bb1	0.5436354
78	0xbd651305	-0.05592634
79	0x3d8b8445	0.06812338
80	0xbe7daa4d	-0.24771996
81	0xbd307d07	-0.043087985
82	0x3e0a99d3	0.13535242
83	0x3eb892fa	0.36049634
84	0x3e14ca93	0.14530401
85	0xbe038ea1	-0.12847377
86	0xbe003dfe	-0.12523648
87	0x3e282230	0.16419291
88	0x3e38c7a9	0.18044914
89	0x3eb9733a	0.36220723
90	0x3e9407e9	0.28912285
91	0xbea212ad	-0.31654873
92	0x3e39b644	0.18135935
93	0xbde8044b	-0.11328944
94	0xbc6e7787	-0.014554865
95	0x3eda1182	0.42591482
96	0xbea2c336	-0.3178956
97	0x3e45fef9	0.19335546
98	0xbe35f064	-0.17767483
99	0x3e239bee	0.15977451
100	0x3d71b148	0.05900696
101	0xbe32756e	-0.17427608
102	0xbe824f4e	-0.2545113
103	0xbeb56435	-0.35428014
104	0xbcf34e8a	-0.029700536
105	0x3eb538e0	0.35394955
106	0x3f06e54b	0.52693623
107	0xbf1fcff6	-0.624267
108	0xbf31cfdb	-0.6945779
109	0x3e40385e	0.18771502
110	0xbdad5e24	-0.084652215
111	0x3e71ea5e	0.2362456
112	0x3e62bf57	0.22143303
113	0x3f08b64d	0.5340317
114	0xbe0a2a8d	-0.13492794
115	0x3c823ccc	0.01589813
116	0xbe90fda8	-0.28318524
117	0xbeb3e0e5	-0.35132518
118	0x3f848710	1.0353718
119	0x3c49076c	0.012269836
120	0x3da3ab7d	0.07991693
121	0xbdad76cb	-0.084699236
122	0x3e460147	0.19336425
123	0xbe36968f	-0.17830871
124	0x3d63ec83	0.055645477
125	0x3e9c250f	0.30497023
126	0xbe819868	-0.2531159
127	0x3d1ce292	0.03830201
128	0x3da6a572	0.08137025
129	0xbe0d41be	-0.1379461
130	0x3e28da6c	0.16489571
131	0xbeab3ec6	-0.3344633
132	0x3d637c57	0.0555385
133	0xbd762f50	-0.060103714
134	0x3bcd360e	0.0062625473
135	0x3e16ce00	0.1472702
136	0x3e86b177	0.2630727
137	0x3ecdf066	0.40222472
138	0x3e29bdc0	0.1657629
139	0xbe4b080e	-0.19827291
140	0xbe51efe3	-0.20501666
141	0xbece2899	-0.4026535
142	0x3ed86fea	0.42272884
143	0x3e7bf3ba	0.24604693
144	0x3e89cac2	0.26912504
145	0x3e9c0c7c	0.30478275
146	0xbdaf5f5c	-0.0856311
147	0x3e3ba4bd	0.18324561
148	0xbe8991fc	-0.2686919
149	0x3d6b36ff	0.057425495
150	0xbe458c74	-0.1929186
151	0x3bf7ee08	0.0075662173
152	0x3d5a0dd9	0.053235862
153	0x3ea9782f	0.33099505
154	0x3dd8def0	0.10589397
155	0xbe0194d3	-0.12654428
156	0xbd8358b6	-0.06413405
157	0xbd8d2f0c	-0.06893739
158	0xbe1af688	-0.15133107
159	0x3e5c8abc	0.21537298
160	0x3dfcb319	0.12338848
161	0x3ebe4874	0.37164652
162	0xbe256a46	-0.16153821
163	0xbe767433	-0.24067764
164	0x3e17737e	0.1479015
165	0xbe308a7d	-0.17240329
166	0x3e4c22f7	0.19935213
167	0x3ea82326	0.32839316
168	0x3e516131	0.20447232
169	0xbe20f186	-0.15717134
170	0xbe88bbd0	-0.2670579
171	0x3e33d14f	0.17560314
172	0x3dc9f7a4	0.09861687
173	0x3f542feb	0.82885617
174	0x3dac0f50	0.08401358
175	0x3d133c1d	0.035946
176	0x3d359885	0.044334907
177	0xbe9e5708	-0.30925775
178	0x3d28f4ca	0.041249074
179	0x3e2e8161	0.17041542
180	0xbe472f00	-0.19451523
181	0xbebeb288	-0.37245584
182	0x3e8356b3	0.25652084
183	0xbd27eaf0	-0.04099554
184	0x3e35f0cc	0.17767638
185	0x3f235aa6	0.63810194
186	0xbe7055bc	-0.23470205
187	0xbed6bce2	-0.4194098
188	0x3ea099e8	0.3136742
189	0x3e86b4cc	0.26309812
190	0xbeb2890f	-0.34870192
191	0xbdcecdc7	-0.10097843
192	0xbe6629e7	-0.22476922
193	0xbd940acc	-0.07228622
194	0x3df62651	0.12019027
195	0x3e8c5ad3	0.27413043
196	0xbd9d2b44	-0.07674268
197	0x3eedd0e3	0.4644843
198	0x3e1c3c83	0.15257458
199	0xbe43f7d5	-0.19137509
200	0xbda7aaa3	-0.08186843
201	0xbd5bdda4	-0.05367817
202	0xbd15b889	-0.03655294
203	0x3e8116de	0.2521276
204	0xbe1cdba6	-0.15318164
205	0xbdd4fd28	-0.10399848
206	0xbc41cdf8	-0.011828892
207	0x3dc54812	0.09632887
208	0xbe0c7f95	-0.13720544
209	0x3e5dbf37	0.21654974
210	0xbb593792	-0.0033144695
211	0xbe72feac	-0.23729962
212	0x3d50cf18	0.05097875
213	0x3ea845a3	0.3286563
214	0x3e2ea077	0.170534
215	0xbe2184ef	-0.15773366
216	0x3e932311	0.2873769
217	0xbe22d99b	-0.15903322
218	0xbe8f74c3	-0.2801877
219	0xbe1a1a41	-0.15049078
220	0xbdd4c405	-0.1038895
221	0x3f27567a	0.6536633
222	0xbe00e874	-0.12588674
223	0xbe72ae72	-0.23699358
224	0xbe86cab6	-0.2632653
225	0xbced1068	-0.028938487
226	0xbd9c0f1b	-0.07620069
227	0xbde6579a	-0.112471774
228	0x3e5473f6	0.2074736
229	0xbe2d6e3c	-0.16936582
230	0x3d863fc0	0.06555128
231	0x3e938203	0.2881013
232	0x3e26ce0f	0.16289543
233	0x3d8d6478	0.069039285
234	0x3e86f5e2	0.2635947
235	0xbe2e5314	-0.1702388
236	0x3cdd997d	0.027050728
237	0xbd6e2644	-0.05814196
238	0xbc3e8037	-0.0116272485
239	0x3b1b20d4	0.002367069
240	0x3da5c04a	0.08093317
241	0xbe054f6d	-0.1301858
242	0xbf033383	-0.51250476
243	0x3e884dc5	0.26621833
244	0x3e4a0433	0.19728164
245	0x3f0c5ce6	0.5482925
246	0xbd9e94a2	-0.07743193
247	0x3d16f489	0.0368543
248	0xbdcc6bbc	-0.09981486
249	0x3d9890b0	0.07449472
250	0x3eec3eae	0.4614157
251	0xbeb1655b	-0.3464764
252	0xbcdef020	-0.02721411
253	0xbeaaa024	-0.33325303
254	0xbde999e6	-0.11406307
255	0x3d922911	0.07136739

rnn.weight_hh_l2 f4 [48, 12]
0	0xbe0efdfc	-0.13964075
1	0x3e129376	0.14314064
2	0xbe9aa4e3	-0.30203924
3	0xbec59eb4	-0.38597643
4	0x3e1495b4	0.14510232
5	0xbe31e3d2	-0.17372063
6	0x3d429a3c	0.04751037
7	0x3d419798	0.04726371
8	0x3dedc725	0.116102494
9	0xbe319dd5	-0.17345364
10	0x3d33c669	0.04389039
11	0xbc89a673	-0.016803002
12	0xbe25e5dd	-0.16200967
13	0xbe38e65e	-0.18056628
14	0x3e67bfa2	0.22631696
15	0xbf04bb53	-0.51848334
16	0x3d978d96	0.07400052
17	0x3dfb35fc	0.12266156
18	0xbd6e74f3	-0.058217
19	0xbd9680f6	-0.07348816
20	0x3e666c52	0.22502258
21	0xbeb54157	-0.35401413
22	0x3de887b3	0.113540076
23	0x3d511058	0.051040977
24	0x3e1eed73	0.15520267
25	0x3e6fd790	0.23422074
26	0xbdc953cd	-0.09830437
27	0xbc276666	-0.010217285
28	0xbe6a8908	-0.22903836
29	0x3ec62150	0.3869729
30	0xbe4086b4	-0.18801385
31	0x3d3e087d	0.046394814
32	0xbe15a7f2	-0.14614847
33	0xbe58de21	-0.21178485
34	0xbe127505	-0.14302452
35	0xbe8654b2	-0.26236492
36	0xbe70147b	-0.23445313
37	0xbe013ab4	-0.1262005
38	0xbe41fc77	-0.18943964
39	0x3de726f5	0.11286727
40	0x3e5534de	0.20820948
41	0xbe90b537	-0.28263256
42	0x3d5b087c	0.05347489
43	0x3cc2a217	0.023758931
44	0x3dcbc64d	0.09949932
45	0x3e9e3341	0.3089848
46	0xbee44674	-0.44585
47	0xbddeea16	-0.10884492
48	0xbe79eea5	-0.24407442
49	0xbdc62d15	-0.096765675
50	0xbe5b7297	-0.21430431
51	0xbeac896a	-0.3369859
52	0xbd96eb34	-0.0736908
53	0x3c767ed7	0.015044889
54	0xbe7494d2	-0.23884895
55	0xbe2c698a	-0.16837135
56	0x3d51628b	0.05111937
57	0xbea6adad	-0.3255438
58	0xbdea4f7c	-0.11440942
59	0xbe96c65c	-0.2944821
60	0xbec7b857	-0.39007828
61	0xbdec3751	-0.11533988
62	0x3d95427f	0.07288074
63	0x3e9c565a	0.3053463
64	0x3e5f8a1c	0.21830028
65	0xbe1c8d68	-0.15288317
66	0x3e8b5d20	0.27219486
67	0xbe34b0e1	-0.17645599
68	0xbdcf9cc4	-0.101373225
69	0x3e24b0b3	0.1608303
70	0xbecfbec1	-0.4057522
71	0x3d39127b	0.04518364
72	0x3cb121a6	0.02162249
73	0x3cba42d6	0.022736948
74	0x3e296e0c	0.16545886
75	0xbee3862a	-0.44438297
76	0x3e366675	0.17812522
77	0x3e9f23a4	0.3108188
78	0x3e82a46e	0.25516075
79	0xbe38ead4	-0.1805833
80	0x3e557428	0.20845091
81	0x3d93368b	0.071881376
82	0xbdecff70	-0.11572158
83	0x3e081caa	0.13292184
84	0xbea93e02	-0.3305512
85	0xbdc22297	-0.09479254
86	0xbe16645e	-0.14686725
87	0xbe8f506f	-0.27991053
88	0x3e62a970	0.22134948
89	0x3ec40329	0.3828366
90	0xbe694861	-0.22781517
91	0xbe54b71d	-0.20772977
92	0xbbb5e418	-0.0055508725
93	0xbf10c8d0	-0.56556416
94	0xbe3ab7f1	-0.1823423
95	0xbe549b6b	-0.20762412
96	0xbe7cfaf6	-0.24705109
97	0xbea95413	-0.33071956
98	0x3e6d7e87	0.23192798
99	0xbc057fca	-0.008148143
100	0x3e59c7b0	0.21267581
101	0xbbb29934	-0.005450392
102	0xbde9a124	-0.11407688
103	0x3e287375	0.16450293
104	0x3dbf8ca3	0.09352996
105	0x3ebab9d7	0.3646991
106	0xbed0f8e6	-0.40814894
107	0x3e093f8a	0.13403144
108	0xbef42003	-0.47680673
109	0x3e80a2b1	0.25124124
110	0xbebf0b88	-0.37313485
111	0x3d1d5a27	0.038416054
112	0x3de11164	0.10989645
113	0xbe6f999d	-0.23398443
114	0xbe899513	-0.26871547
115	0x3e0f6850	0.14004636
116	0xbdcfbe34	-0.101437
117	0x3ec0470c	0.37554204
118	0xbe80fa4e	-0.25190967
119	0x3cc98e68	0.024604037
120	0xbe3ee3ec	-0.18641633
121	0xbe329cc4	-0.17442614
122	0xbb262649	-0.002535241
123	0x3d73b165	0.05949535
124	0x3ea0dc9d	0.31418315
125	0x3ea78999	0.32722166
126	0x3e7238ad	0.23654433
127	0x3ddfc2b3	0.10925808
128	0x3ea29588	0.31754708
129	0xbf04b70d	-0.51841813
130	0xbd6e4ed5	-0.05818065
131	0x3df6cf93	0.120513104
132	0x3e693507	0.22774135
133	0x3e3e0961	0.18558265
134	0xbe6044e4	-0.2190128
135	0xbd88517e	-0.066561684
136	0x3c833551	0.016016634
137	0x3dfbdc37	0.12297862
138	0x3df15e6a	0.11785586
139	0xbe97d7e9	-0.29656914
140	0xbe8c3df1	-0.27391008
141	0xbeab38f0	-0.33441877
142	0xbe009b05	-0.12559135
143	0xbe99d731	-0.3004699
144	0xbd8168d6	-0.06318824
145	0x3de3046a	0.11084826
146	0x3e28aeff	0.16473006
147	0x3e158348	0.14600861
148	0x3daf2a54	0.08552995
149	0x3e4f3128	0.20233595
150	0x3e8d35fa	0.27580243
151	0x3d9a80d3	0.075441025
152	0x3c172c91	0.009226934
153	0xbd8b47b3	-0.06800785
154	0x3e6c4b40	0.2307558
155	0xbe17b467	-0.14814912
156	0xbd162a4a	-0.036661424
157	0xbd416a6d	-0.047220636
158	0x3e92d2e3	0.2867652
159	0xbdd5ef47	-0.10446029
160	0x3e98932a	0.29799777
161	0x3ea49e76	0.32152146
162	0x3dbe2820	0.09284997
163	0x3d256d32	0.04038734
164	0x3dc4d1eb	0.09610351
165	0xbde7e22e	-0.11322437
166	0xbe856b54	-0.26058447
167	0x3e2bca5b	0.16776411
168	0x3caa33e7	0.020776702
169	0x3d9e4540	0.07728052
170	0x3e4b502c	0.19854802
171	0xbd142a7f	-0.03617334
172	0xbe412ad0	-0.18863988
173	0x3e34d04d	0.17657585
174	0xbe8b5f31	-0.27221063
175	0xbe375987	-0.17905246
176	0x3dd98aad	0.106221534
177	0xbe0e746f	-0.13911603
178	0xbe964a81	-0.29353717
179	0x3e5ee196	0.21765742
180	0xbea27a85	-0.317341
181	0x3e17af68	0.14813006
182	0x3e78b90e	0.24289343
183	0x3e7cf67f	0.24703406
184	0xbdaab2a5	-0.08334855
185	0xbe5fe50e	-0.21864721
186	0x3ec13d1d	0.37741938
187	0x3e0def93	0.13860922
188	0x3e97101f	0.29504487
189	0xbe202b38	-0.15641487
190	0xbe7667a8	-0.24062979
191	0x3e90880c	0.28228796
192	0x3e15721a	0.14594308
193	0xbe2c296e	-0.16812679
194	0x3e0b9769	0.13631977
195	0xbe5d37c6	-0.21603307
196	0x3e176cb4	0.1478756
197	0x3e2c1ae2	0.1680713
198	0xbd508f8d	-0.05091815
199	0x3e66fa64	0.22556454
200	0x3d841c9e	0.06450771
201	0xbd2dfa67	-0.04247513
202	0xbe885455	-0.2662684
203	0xbd62f254	-0.055406883
204	0x3d903df5	0.07043067
205	0xbe911a22	-0.2834025
206	0x3eb1e147	0.34742185
207	0x3e24cc9d	0.16093679
208	0x3e907995	0.2821776
209	0x3e2dfb83	0.16990475
210	0x3e958047	0.2919943
211	0x3bf8195c	0.0075713824
212	0x3e094d98	0.13408506
213	0xbca35c53	-0.019941485
214	0x3d1f18ba	0.03884194
215	0x3dbd7501	0.09250832
216	0xbe91bd7e	-0.28464884
217	0xbd9aecd9	-0.07564706
218	0xbdb46da6	-0.08809976
219	0xbebacce1	-0.36484435
220	0xbdbab987	-0.09117418
221	0x3ebcffef	0.36914012
222	0xbdc3ed3e	-0.09566735
223	0x3e6ec407	0.23316966
224	0xbe974dd6	-0.29551572
225	0xbba806b1	-0.005127751
226	0x3e69a5ad	0.22817107
227	0xbe095d0c	-0.13414401
228	0x3e0b37b2	0.13595465
229	0xbb8d3254	-0.004308978
230	0x3e89a05d	0.2688016
231	0xbe31caec	-0.17362565
232	0xbdb9f09d	-0.090790965
233	0x3d45c790	0.04828602
234	0xbdfde4b1	-0.12397135
235	0xbe0264c1	-0.12733747
236	0xbe8eab5c	-0.27865112
237	0xbf03377d	-0.51256543
238	0x3dd94eef	0.106107585
239	0x3e117d74	0.14208013
240	0xbe1e77b6	-0.15475354
241	0x3df70d40	0.12063074
242	0xbd3aec69	-0.045635615
243	0x3c05b83a	0.008161599
244	0x3ec5f7e3	0.38665685
245	0xbd039bd7	-0.032131042
246	0x3e5cdada	0.2156786
247	0x3d89d785	0.0673056
248	0xbe261de9	-0.16222347
249	0x3e0e507b	0.13897888
250	0xbed365bd	-0.41288558
251	0x3e9ad3bc	0.30239666
252	0xbe630658	-0.22170389
253	0xbd168131	-0.0367443
254	0x3d058135	0.032593925
255	0xbe127827	-0.14303647

rnn.bias_ih_l2 f4 [48]
0	0x3e899af2	0.26876026
1	0x3e3e9496	0.18611369
2	0xbd854be0	-0.06508613
3	0xbe931849	-0.28729466
4	0xbe13f536	-0.1444901
5	0x3e3a0a7b	0.1816806
6	0xbdd15996	-0.10222165
7	0xbdaf5105	-0.08560375
8	0x3c518b88	0.0127896145
9	0x3d17fc7f	0.037106033
10	0xbe6df6d3	-0.23238687
11	0x3c59176a	0.013250211
12	0x3e6bc804	0.23025519
13	0xbe7568d0	-0.23965764
14	0xbe6ca8f9	-0.23111333
15	0x3e0481d4	0.1294015
16	0x3dbbc7f2	0.09168996
17	0xbe8a8b42	-0.2705937
18	0x3c02ecac	0.007990997
19	0x3e249e3e	0.1607599
20	0x3e2526ee	0.16128132
21	0xbdf51347	-0.119665675
22	0x3e6538c7	0.2238494
23	0x3dccfbd0	0.10008967
24	0xbe03a87e	-0.12857243
25	0x3c9a98b3	0.01887164
26	0xbe5ea4df	-0.21742581
27	0xbe52af67	-0.20574723
28	0xbe68b913	-0.2272685
29	0x3e282975	0.16422065
30	0x3c8392c6	0.016061198
31	0xbd12a111	-0.035798136
32	0x3c94f231	0.018181892
33	0x3e0f371d	0.13985868
34	0xba0f747c	-0.00054723746
35	0xbea86881	-0.3289223
36	0x3d407e0d	0.04699521
37	0xbdbbc2d1	-0.09168018
38	0x3e9ac0e1	0.3022528
39	0x3e009bc2	0.12559417
40	0x3e069096	0.13141093
41	0x3e785804	0.24252325
42	0xbe50d1c9	-0.20392527
43	0x3e6ff9da	0.23435155
44	0xbe91ee1a	-0.2850197
45	0x3c898685	0.016787777
46	0xbe32afa3	-0.17449813
47	0x3e78ec4a	0.24308887

rnn.bias_hh_l2 f4 [48]
0	0x3d7ab28b	0.061205428
1	0xbc9b5db7	-0.018965585
2	0x3e42c6a5	0.1902109
3	0xbde19ba3	-0.110160135
4	0x3e8d4bb6	0.27596825
5	0x3e08c016	0.13354525
6	0x3e62afa4	0.22137314
7	0x3d2e8fbb	0.04261754
8	0xbe8e5e4f	-0.27806327
9	0x3d75c170	0.05999893
10	0x3e22c3ad	0.15894957
11	0xbe540628	-0.20705473
12	0xbe336c29	-0.17521729
13	0xbdf0ab2f	-0.11751401
14	0xbe3dd411	-0.18537928
15	0x3e3963d1	0.18104483
16	0xbe2a977a	-0.16659346
17	0xbe3d8d8c	-0.18511027
18	0xbe7f7195	-0.24945672
19	0xbcd1c709	-0.025607603
20	0xbe85ae7e	-0.2610969
21	0xbe5a335a	-0.21308652
22	0xbde77afb	-0.113027535
23	0xbd810716	-0.0630018
24	0x3e2c57f7	0.16830431
25	0x3e033110	0.12811685
26	0xbe8ded93	-0.27720317
27	0xbd2006f8	-0.039069146
28	0xbd3587f6	-0.044319116
29	0xbcec0b9c	-0.02881413
30	0xbe7233ab	-0.23652522
31	0xbe88b1cb	-0.26698145
32	0x3c952e78	0.018210635
33	0xbe32bd8b	-0.17455117
34	0x3b0138f2	0.001971778
35	0xbea2024c	-0.31642377
36	0x3d8d2a7e	0.0689287
37	0x3e22475b	0.15847532
38	0xbe4bf1a0	-0.19916391
39	0x3d990876	0.07472317
40	0xbe497cf6	-0.19676575
41	0xbe6326f3	-0.22182827
42	0xbdd58d87	-0.10427385
43	0xbe2f00c3	-0.17090134
44	0x3e550271	0.20801713
45	0xbcffccb3	-0.031225538
46	0x3d95ce6f	0.07314765
47	0xbe62c1bf	-0.22144221

reg.weight f4 [1, 12]
0	0x3e25b9f8	0.16184223
1	0x3dd57dde	0.10424398
2	0xbeb2afa8	-0.3489964
3	0x3d8ca11f	0.06866669
4	0xbdbe10b5	-0.0928053
5	0xbe3e987e	-0.18612859
6	0xbe9a09e9	-0.30085686
7	0xbe0441b7	-0.12915693
8	0x3d75cc1d	0.06000911
9	0x3e58123d	0.21100707
10	0x3d9dfee1	0.0771463
11	0xbe69f653	-0.22847871
