模型代码/LSTM/weights/123.pth (torch_old, 21646 bytes, 17 tensors)

rnn.weight_ih_l0 f4 [48, 8]
0.17149013 0.29086757 0.23854873 0.2697507 0.054922353 0.54118854 0.6747747 0.45791423
-0.2106339 -0.24476428 0.12208526 -0.16655661 -0.08283692 -0.19275893 -0.19453467 -0.38046274
0.25798038 0.08404952 -0.10652332 0.25007266 -0.00041135983 0.4913583 0.6560251 0.52485555
-0.119046286 -0.026940165 -0.15826033 -0.0467391 0.18931732 0.007172553 -0.046624675 0.0768386
0.14733273 -0.084205136 0.08645954 0.026627533 0.1047143 -0.23020238 -0.06497819 -0.40518713
0.15917926 -0.024742806 0.43731877 0.40768844 0.27314612 0.5184048 0.6910275 0.9856289
-0.07906327 -0.07661456 0.08926255 0.39393353 0.027819801 0.095245905 0.5329408 0.9081453
0.35926443 0.39262232 0.012302002 0.21829732 0.30845493 0.47016266 0.17015244 0.36894542
0.22561163 0.36074275 0.26374686 0.23151392 0.0553133 0.27437156 0.03211808 0.55245703
-0.11885866 0.036682736 -0.05007608 -0.26134884 0.043469824 -0.06770453 -0.42170107 -0.25237206
0.08307166 -0.25147924 -0.15887815 0.07668892 0.23512322 -0.15356171 -0.016851217 0.47891682
0.03831732 -0.12369977 0.33966804 0.056929346 -0.053119913 0.31440616 0.27414954 0.5137834
0.120025344 -0.23808287 -0.050467677 0.2774951 0.24630418 0.0015695005 -0.16490763 -0.25948927
-0.14062092 -0.025789483 -0.23606881 -0.15372205 -0.19469859 0.13624674 -0.013366322 -0.31073073
-0.4171044 -0.3300995 0.16851622 -0.17378686 -0.28778735 -0.04492741 -0.25561935 -0.43308592
0.19118646 0.091101676 -0.052762423 0.2191167 0.29441807 0.13569383 0.19575645 0.21813996
-0.06888466 -0.15462936 0.14531948 -0.26224217 -0.024877397 -0.21274385 -0.10678932 -0.4626691
0.47363377 0.42780283 0.30012608 0.19625893 0.050303817 0.44625473 0.24987309 0.73152065
0.28894335 0.2560387 0.20968051 -0.07243565 0.32061714 0.22260535 0.14629033 0.40971205
0.00761394 -0.034975905 0.1855306 0.0472079 0.10097481 -0.050692443 0.050914016 0.0533265
0.078345105 -0.053456716 0.22727326 0.0006048485 0.045614474 0.23976947 0.39581138 -0.13672587
0.14058067 -0.31093016 -0.099661104 -0.3042408 -0.2072554 -0.38605553 -0.1645316 -0.35493785
-0.066049166 0.21316308 0.04306938 -0.23326065 0.24252135 0.3048162 0.0204052 0.25676483
-0.09790643 -0.09656311 0.24087907 -0.023268804 0.17178625 0.25634477 -0.20419057 -0.1991989
0.16633533 -0.03526026 0.16512485 0.12560734 0.15027094 0.05740882 0.4411223 0.2796743
-0.25519508 -0.07642673 -0.17369156 0.09304321 0.065429814 -0.11020344 -0.006770948 0.45435673
-0.0025660002 0.010538106 0.3008719 0.27962992 -0.28404316 -0.31406218 -0.28034067 -0.90009
-0.36661282 0.033937734 -0.28441396 0.14225115 -0.07216805 0.06810875 -0.37195668 0.033882912
-0.20438367 -0.15141548 0.07410494 -0.20684639 -0.093804665 -0.2669202 -0.07241621 -0.010485404
0.23207898 0.28975767 0.1761535 -0.12817599 -0.03629638 0.22744873 0.62312734 0.8115162
-0.22112831 0.13551658 0.19719598 0.18744315 -0.006199009 0.19926699 0.66647476 0.54782665
0.07363279 -0.29798496 -0.30806822 0.16080287 -0.3670006 -0.42245483 -0.23777281 -0.536993
00000000: 1c9b 2f3e 98ec 943e 1e46 743e c41c 8a3e
00000010: 43f6 603d 558b 0a3f 09be 2c3f bc73 ea3e
00000020: 6ab0 57be 7da3 7abe d607 fa3d d18d 2abe
00000030: 67a6 a9bd 9962 45be 1934 47be 03cc c2be
00000040: 0116 843e 2822 ac3d e628 dabd 8609 803e
00000050: c8ab d7b9 5193 fb3e 43f1 273f ef5c 063f
00000060: 8ace f3bd 9fb1 dcbc ff0e 22be 8071 3fbd
00000070: 66dc 413e bc07 eb3b 84f9 3ebd 8e5d 9d3d
00000080: 64de 163e be73 acbd b311 b13d fc21 da3c
00000090: 7374 d63d 2cba 6bbe 4913 85bd b074 cfbe
000000a0: e3ff 223e 6db1 cabc 3fe8 df3e 8abc d03e
000000b0: cfd9 8b3e 2db6 043f 2ee7 303f 2d52 7c3f
000000c0: eceb a1bd 18e8 9cbd 49cf b63d a8b1 c93e
000000d0: 5ae6 e33c 4910 c33d cf6e 083f 367c 683f
000000e0: 82f1 b73e cb05 c93e 568e 493c 5589 5f3e
000000f0: ceed 9d3e 29b9 f03e 713c 2e3e 6ae6 bc3e
00000100: bc06 673e 46b3 b83e d409 873e fc11 6d3e
00000110: 3390 623d 6e7a 8c3e 3f8e 033d d36d 0d3f
00000120: 2b6c f3bd a340 163d 931c 4dbd 84cf 85be
00000130: 6a0d 323d aca8 8abd 34e9 d7be e936 81be
00000140: 7921 aa3d e3c1 80be f4b0 22be 150f 9d3d
00000150: 24c4 703e 483f 1dbe 900b 8abc 9634 f53e
00000160: 9ff2 1c3d 4e56 fdbd f8e8 ad3e bf2e 693d
00000170: 4494 59bd d8f9 a03e 545d 8c3e 4f87 033f
00000180: d9cf f53d ffcb 73be 32b7 4ebd d613 8e3e
00000190: 2a37 7c3e b3b7 cd3a 8cdd 28be c7db 84be
000001a0: eefe 0fbe 7744 d3bc 06bc 71be 5069 1dbe
000001b0: 115f 47be 4484 0b3e 6bfe 5abc 1918 9fbe
000001c0: b58e d5be cd02 a9be 848f 2c3e 2ff5 31be
000001d0: dd58 93be ce05 38bd 8ae0 82be 70bd ddbe
000001e0: 62c6 433e 8493 ba3d 691d 58bd 2160 603e
000001f0: f7bd 963e 53f3 0a3e 6174 483e 1560 5f3e
00000200: 6713 8dbd 2957 1ebe a1ce 143e 9b44 86be
00000210: afcb cbbc 86d9 59be 5cb4 dabd f7e2 ecbe
00000220: 2080 f23e f908 db3e 20aa 993e 1af8 483e
00000230: 600b 4e3d 807b e43e bbde 7f3e f044 3b3f
00000240: 62f0 933e 8117 833e 7db6 563e 2459 94bd
00000250: ee27 a43e a8f2 633e 22cd 153e c7c5 d13e
00000260: 5c7e f93b e542 0fbd bcfb 3d3e 125d 413d
00000270: e2cb ce3d e1a2 4fbd 378b 503d e36c 5a3d
00000280: 6673 a03d 6ef5 5abd 52ba 683e b28e 1e3a
00000290: 3ed6 3a3d 2186 753e caa7 ca3e de01 0cbe
000002a0: 61f4 0f3e 3d32 9fbe 1f1b ccbd 73c5 9bbe
000002b0: c23a 54be 12a9 c5be f97a 28be 6aba b5be
000002c0: c944 87bd 6c47 5a3e 8569 303d e1db 6ebe
000002d0: 8457 783e de10 9c3e ce28 a73c ae76 833e
000002e0: 2b83 c8bd e1c2 c5bd 01a9 763e 389e bebc
000002f0: bce8 2f3e 9f3f 833e 5517 51be ccfa 4bbe
00000300: cf53 2a3e 106d 10bd 7d16 293e 369f 003e
00000310: a0e0 193e 8325 6b3d c8da e13e 7831 8f3e
00000320: eea8 82be 9e85 9cbd 33dc 31be 708d be3d
00000330: 1100 863d 57b2 e1bd d4de ddbb 72a1 e83e
00000340: 572a 28bb 05a8 2c3c e20b 9a3e a72b 8f3e
00000350: 1b6e 91be c2cc a0be d088 8fbe 4c6c 66bf
00000360: adb4 bbbe 4b02 0b3d b59e 91be 49aa 113e
00000370: d8cc 93bd 9a7c 8b3d 1b71 bebe cfc8 0a3d
00000380: f449 51be a90c 1bbe 55c4 973d 8acf 53be
00000390: a91c c0bd c4a9 88be f34e 94bd f9ca 2bbc
000003a0: 1da6 6d3e 1e5b 943e 9561 343e 9140 03be
000003b0: 83ab 14bd 52e8 683e 4685 1f3f 87bf 4f3f
000003c0: 766f 62be dcc4 0a3e beed 493e 19f1 3f3e
000003d0: 0e21 cbbb a50c 4c3e 179e 2a3f 5e3e 0c3f
000003e0: cacc 963d 7c91 98be 1ebb 9dbe 82a9 243e
000003f0: 81e7 bbbe 004c d8be b77a 73be 6078 09bf

rnn.weight_hh_l0 f4 [48, 12]
-0.27196854 -0.51398027 0.10546146 0.12691471 -0.26808676 0.07812026 -0.06948959 -0.11536631
-0.033505432 -0.07349544 0.16436496 -0.0069160773 -0.27503264 -0.24878062 0.19308138 -0.32685563
-0.2285245 0.28441167 0.33441654 -0.11490168 0.2984363 0.31779942 0.18563099 0.35688767
-0.32388273 -0.4620457 0.676705 -0.20422722 0.5364173 0.07753275 0.37375188 0.014871693
0.2047893 0.39351943 0.4953299 0.13913171 0.209295 0.16084637 -0.24233252 -0.009321816
0.19479434 0.040714953 0.13373534 -0.36354262 0.02638415 -0.5694953 0.08780892 -0.2252435
-0.010108036 0.13189682 -0.06025423 0.3701755 0.025918026 -0.15035468 -0.16710033 -0.0059644417
0.04381457 -0.36725467 -0.45310366 -0.12573949 0.33675244 -0.6506225 0.13919386 -0.2678119
0.23161046 0.10660996 -0.011701257 -0.44291413 -0.16875736 -0.16473955 0.30868182 0.020396477
0.2736238 -0.23231186 0.20381261 0.20469856 -0.063135244 -0.10855944 0.08122873 -0.1305514
-0.10716513 -0.23264867 -0.067500904 -0.08784768 -0.032658145 -0.22442782 0.32995084 0.09788954
0.11975767 0.19429383 -0.20925406 -0.00083895284 0.14994329 -0.20373991 -0.08212998 -0.006925961
0.41619626 -0.007549365 -0.12619472 -0.15433732 0.00804943 -0.0010620482 -0.005730875 0.04400213
0.09139062 -0.41248667 0.01246802 0.16715842 0.09957449 -0.13424641 0.23897187 -0.074386366
0.24249844 -0.23582223 0.20430799 0.009031052 0.13341098 0.047993515 0.0139989 -0.111441545
-0.16420026 -0.07490122 0.046211764 0.2964228 0.064794816 0.12751973 0.042296026 0.045487866
-0.25605494 -0.33563247 0.13054468 -0.071349345 0.49450842 0.0718877 0.28541964 -0.13125683
0.33560446 -0.05177141 0.05628413 -0.37747034 -0.085149765 -0.26235166 0.29817742 0.069625914
0.12752269 0.23410478 -0.0960141 0.22667576 0.048084687 -0.3165321 -0.09096868 -0.22113836
0.05285773 -0.39084744 -0.0793254 0.07467441 -0.17908642 -0.08810102 -0.26394105 -0.350549
-0.1611036 0.04032291 0.45137426 -0.029069168 0.28082317 0.1499593 0.1954156 0.20928535
0.07825215 0.051328447 -0.49816698 -0.14190127 -0.35984722 0.22668771 0.004491218 0.27300116
0.03619793 0.05195039 -0.3049749 0.2190033 0.046396952 0.20364141 -0.463616 0.09791281
-0.28218007 0.3140626 0.24712768 -0.32531562 0.38102493 -0.2711499 0.05118594 -0.10032075
-0.14112738 0.017006045 -0.16404447 0.29633418 0.058151748 0.04223559 -0.3678741 0.41036856
-0.2137321 -0.29738247 -0.028080732 -0.11914779 0.16070701 -0.12772655 -0.37157717 0.019212354
0.21685739 0.15672894 0.013145052 -0.5207001 0.0015225587 -0.2965165 0.18095171 0.538074
0.2657201 0.317681 0.029872091 -0.0656097 0.097929694 -0.25746545 -0.25633198 -0.24231656
-0.08639825 -0.49014068 0.0005973961 0.0019238987 -0.16994062 0.06354424 -0.14663474 0.3527627
-0.23408803 -0.097322926 -0.119372934 -0.099492 0.025771711 0.03011426 -0.15037616 0.04626857
0.7263279 -0.120904066 -0.26114884 0.034038797 -0.088333696 -0.17932676 0.10783864 -0.20915206
-0.14766766 -0.16543995 -0.25124985 -0.07761122 -0.16739027 -0.23876384 0.16686979 0.09625107
00000000: 763f 8bbe 3694 03bf 2efc d73d eef5 013e
00000010: ab42 89be 84fd 9f3d 8f50 8ebd 2c45 ecbd
00000020: fe3c 09bd c784 96bd 4a4f 283e 43a0 e2bb
00000030: 14d1 8cbe 59c0 7ebe 20b7 453e 9f59 a7be
00000040: 5402 6abe 689e 913e a538 ab3e 9251 ebbd
00000050: a5cc 983e 9bb6 a23e 0d16 3e3e fbb9 b63e
00000060: f5d3 a5be 4191 ecbe 8a3c 2d3f f120 51be
00000070: a552 093f 7ec9 9e3d 685c bf3e 67a8 733c
00000080: 49b4 513e 617b c93e e19b fd3e 8b78 0e3e
00000090: 6e51 563e e9b4 243e 0426 78be 88ba 18bc
000000a0: 2b78 473e b9c4 263d ebf1 083e 4222 babe
000000b0: 9323 d83c 72ca 11bf 2ad5 b33d 3ba6 66be
000000c0: 2d9c 25bc f60f 073e 24cd 76bd a587 bd3e
000000d0: 0a52 d43c 94f6 19be 591c 2bbe 5d71 c3bb
000000e0: e876 333d ce08 bcbe 34fd e7be dac1 00be
000000f0: d16a ac3e 328f 26bf d688 0e3e a41e 89be
00000100: 4b2b 6d3e 5356 da3d a1b6 3fbc a4c5 e2be
00000110: bbce 2cbe 7cb1 28be 8b0b 9e3e 8316 a73c
00000120: 6b18 8c3e 29e3 6dbe 41b4 503e 809c 513e
00000130: 0d4d 81bd 6954 debd 405b a63d 44af 05be
00000140: 6479 dbbd 743b 6ebe ea3d 8abd 7ce9 b3bd
00000150: 8cc4 05bd 68d0 65be 51ef a83e 507a c83d
00000160: 8243 f53d f6f4 463e b246 56be 2ced 5bba
00000170: bc8a 193e 32a1 50be c333 a8bd 2cf3 e2bb
00000180: ad17 d53e aa60 f7bb 3039 01be 9a0a 1ebe
00000190: c2e1 033c 6d34 8bba 10ca bbbb 943b 343d
000001a0: 012b bb3d 7431 d3be ab46 4c3c 942b 2b3e
000001b0: b6ed cb3d e477 09be 0bb5 743e e157 98bd
000001c0: 8351 783e 627b 71be 1d36 513e faf6 133c
000001d0: e39c 083e d994 443d a45b 653c 773b e4bd
000001e0: 1d24 28be d065 99bd 8c48 3d3d bbc4 973e
000001f0: 25b3 843d 8894 023e 993e 2d3d 7c51 3a3d
00000200: a219 83be 05d8 abbe 81ad 053e 9b1f 92bd
00000210: 3530 fd3e dc39 933d 8622 923e 3168 06be
00000220: 59d4 ab3e 420e 54bd 308a 663d cb43 c1be
00000230: 0063 aebd f552 86be b6aa 983e 0898 8e3d
00000240: 4f95 023e 2ab9 6f3e 0aa3 c4bd b11d 683e
00000250: 73f4 443d 7f10 a2be ca4d babd 1872 62be
00000260: 5981 583d 281d c8be 5b75 a2bd e6ee 983d
00000270: 6e62 37be 4f6e b4bd 4823 87be 297b b3be
00000280: 58f8 24be a329 253d 871a e73e 7722 eebc
00000290: 0ec8 8f3e ee8e 193e 071b 483e e64e 563e
000002a0: aa42 a03d c73d 523d be0f ffbe 914e 11be
000002b0: e53d b8be d320 683e 112b 933b cfc6 8b3e
000002c0: 4844 143d efc9 543d ac25 9cbe 6742 603e
000002d0: bb0a 3e3d 6087 503e 145f edbe 8386 c83d
000002e0: e879 90be d0cc a03e 0a0f 7d3e c58f a6be
000002f0: b315 c33e 29d4 8abe 59a8 513d f774 cdbd
00000300: b283 10be 4350 8b3c 46fb 27be 1db9 973e
00000310: 8730 6e3d 3aff 2c3d fe59 bcbe d41b d23e
00000320: 96dc 5abe 8442 98be 9009 e6bc c203 f4bd
00000330: 6190 243e c0ca 02be 5d3f bebe 3a63 9d3c
00000340: dd0f 5e3e 8d7d 203e 585e 573c 9a4c 05bf
00000350: 9890 c73a 03d1 97be 684b 393e 38bf 093f
00000360: 770c 883e 16a7 a23e 51b6 f43c 615e 86bd
00000370: 5d8f c83d 83d2 83be f23d 83be d521 78be
00000380: 91f1 b0bd b8f3 fabe 939a 1c3a 542b fc3a
00000390: ea04 2ebe 7c23 823d 6b27 16be 509d b43e
000003a0: c6b4 6fbe 3e51 c7bd cc79 f4bd 76c2 cbbd
000003b0: 321f d33c 2eb2 f63c 35fc 19be 1d84 3d3d
000003c0: a0f0 393f 8d9c f7bd 4db5 85be 446c 0b3d
000003d0: 4ce8 b4bd 6fa1 37be 81da dc3d f52b 56be
000003e0: 3136 17be 1769 29be d2a3 80be a2f2 9ebd
000003f0: 5b68 2bbe 827e 74be eadf 2a3e 481f c53d

rnn.bias_ih_l0 f4 [48]
0.30141073 -0.0631 0.23717783 -0.21176557 -0.17835574 0.37426144 0.0002873769 -0.04597814
0.35402945 0.21269786 -0.040056467 0.010401882 0.24453288 0.32817942 -0.13773139 0.102376334
-0.33427614 0.07056666 0.17299023 -0.25141877 0.2675154 0.10203769 0.1796713 0.05382474
0.19710353 -0.430771 0.023192374 -0.095975086 -0.054317933 0.18926342 0.21849096 -0.07720258
0.14737356 0.04293882 0.27913147 -0.17427829 0.19873469 0.060382515 0.4946345 0.2662683
-0.19357331 0.44321224 0.21520919 -0.06484925 0.22009715 0.19568251 0.025226546 0.2529921
00000000: 8252 9a3e 933a 81bd bfde 723e 13d9 58be
00000010: e3a2 36be 329f bf3e 13ab 9639 9353 3cbd
00000020: 5943 b53e 78cd 593e 4012 24bd a86c 2a3c
00000030: d466 7a3e 2207 a83e 7509 0dbe afaa d13d
00000040: 3e26 abbe 4185 903d 5a24 313e f6b9 80be
00000050: c7f7 883e 23f9 d03d c1fb 373e 5577 5c3d
00000060: 82d5 493e 048e dcbe effd bd3c 968e c4bd
00000070: 7b7c 5ebd 45ce 413e 18bc 5f3e 631c 9ebd
00000080: 18e9 163e 9ee0 2f3d 52ea 8e3e 0276 32be
00000090: 1b81 4b3e a853 773d bc40 fd3e 5254 883e
000000a0: 1538 46be b7ec e23e cc5f 5c3e afcf 84bd
000000b0: 2661 613e ff60 483e e7a7 ce3c 2e88 813e

rnn.bias_hh_l0 f4 [48]
0.2960943 0.08094689 0.62957865 -0.09625443 -0.09160451 0.36590713 0.25323948 0.09953143
-0.052657362 0.1615392 0.15969357 0.17967336 0.0075232065 -0.08045127 -0.38074213 0.14546107
-0.35703906 0.17195158 -0.29574317 -0.24540152 0.21070376 -0.32817405 0.23225541 -0.19619769
-0.35498434 -0.20581941 0.36961013 -0.14987929 0.27833363 0.177233 0.114985704 0.043707028
-0.0023112772 0.18314472 0.122199915 0.33412397 0.53493416 -0.16207649 0.48263445 0.045177646
-0.09116031 0.3942005 -0.050844245 -0.14727563 0.40972626 0.15392633 -0.2332373 0.07469175
00000000: ac99 973e 7cc7 a53d 112c 213f 0b21 c5bd
00000010: 259b bbbd 2e58 bb3e 9ba8 813e 22d7 cb3d
00000020: 3faf 57bd 886a 253e b686 233e 4bfc 373e
00000030: 3b85 f63b a3c3 a4bd a2f0 c2be bff3 143e
00000040: d3cd b6be 1314 303e a66b 97be 894a 7bbe
00000050: bac2 573e 6e06 a8be 5dd4 6d3e 0ce8 48be
00000060: 82c0 b5be 53c2 52be 8a3d bd3e f579 19be
00000070: bf81 8e3e 917c 353e a07d eb3d 2406 333d
00000080: cc78 17bb 4a8a 3b3e f343 fa3d 4c12 ab3e
00000090: 72f1 083f 61f7 25be dd1b f73e 320c 393d
000000a0: 42b2 babd a6d4 c93e 0e42 50bd 6ccf 16be
000000b0: a4c7 d13e dd9e 1d3e c2d5 6ebe fdf7 983d

rnn.weight_ih_l1 f4 [48, 12]
-0.46825328 -0.029198587 0.30638826 -0.085088626 -0.083733544 -0.378161 -0.06519628 0.035944805
-0.29790717 0.2394323 -0.21084519 -0.0972024 0.23505431 0.35418895 -0.29996997 -0.22014003
-0.010463965 -0.10632158 -0.08044599 -0.36551985 -0.12939464 -0.14207143 0.06201044 -0.22181581
0.6358734 -0.15493071 -0.07312218 0.057685487 0.05582519 0.5625908 0.5082327 -0.57058907
0.33924428 0.14666684 0.12700169 0.4506518 0.25252238 -0.12007729 -0.408721 -0.2927585
0.2649594 -0.023451522 -0.049776684 0.032049663 0.22274363 0.28759804 0.28616217 0.2468409
0.06967883 -0.39850372 0.35356814 -0.25645232 -0.357387 0.2641303 0.3793397 -0.39855066
0.021399794 0.39284953 0.11275138 0.27715904 0.5542824 0.3781289 -0.45387095 -0.20487179
-0.07494906 0.26459336 0.07085186 0.021565672 -0.13282922 -0.32554704 -0.14496598 0.42785636
-0.25980902 -0.3576621 0.1642116 -0.4181573 0.36204654 0.17311426 0.13757586 0.17482674
-0.028890288 0.28270444 -0.2718777 -0.06708061 0.40252963 -0.19317684 -0.39459684 0.00764745
-0.034758627 0.38538957 0.22081651 0.020587917 -0.17915538 0.04193503 0.049566437 0.4018776
-0.20464717 -0.0011300434 -0.122232035 -0.015296044 -0.19149198 0.034858134 -0.25164184 -0.18680134
0.005429466 -0.22753249 0.16536134 -0.04767455 -0.026480732 -0.25829706 0.5898278 0.012502647
0.22599812 -0.037661634 -0.21495113 0.07632551 -0.15653834 -0.16391653 0.21370858 -0.06527905
-0.08398759 -0.24472533 0.40841267 -0.048374202 0.32933387 0.007756186 -0.13390824 0.19416021
0.0352484 0.037315376 0.10842771 -0.14584932 -0.30546448 -0.080056064 0.44322082 0.07335392
-0.09926197 -0.32528716 0.103213824 -0.07562788 -0.089380294 0.21064177 0.021947749 -0.24230576
-0.114474 0.04255721 0.30625996 0.2528309 -0.123237625 -0.1196868 -0.34484312 0.060394455
-0.22110026 0.03430448 0.078414574 0.12542935 0.13925558 0.25524747 -0.38969657 -0.054547004
0.032292213 -0.17808111 -0.18161762 0.21618076 -0.25503534 -0.15408015 0.11926367 -0.32042268
0.51150167 0.17824243 -0.055126198 0.20734037 0.060266256 0.003056373 0.08550595 -0.081597544
0.10117763 -0.27409688 0.2555235 0.18477184 0.042776372 0.08221783 -0.4079137 -0.24194121
0.13688166 0.29625115 0.038463283 -0.36648658 -0.030144922 0.24295327 0.35600388 -0.00092452415
0.1771323 0.1131484 0.5885118 -0.076147735 -0.4051057 -0.16422468 0.119843274 -0.15459326
-0.13769348 0.059756327 -0.28255546 0.033853862 0.34657556 0.025299737 -0.6781366 -0.19200033
0.11985178 0.22902846 -0.06282717 0.034026127 0.21613698 -0.45366138 0.2177441 0.08350721
-0.09204192 -0.43711025 0.6341332 0.20116991 0.0873765 -0.3749273 -0.31386527 0.37359887
-0.25241774 -0.075746305 -0.1753785 -0.41482762 0.029486991 0.0072445786 -0.21368723 -0.20381407
-0.062112372 0.07895857 0.15031646 -0.19154945 -0.30193412 -0.26727515 0.20503618 0.23667145
-0.26149812 0.11653949 -0.1378618 0.29407853 0.17112717 -0.06833137 -0.076357566 0.38714263
-0.07511509 0.114170335 -0.026345069 -0.043385375 -0.2756333 -0.40523103 0.7316464 0.1582929
00000000: e5be efbe e031 efbc ecde 9c3e f242 aebd
00000010: 7e7c abbd 529e c1be a185 85bd dc3a 133d
00000020: 4a87 98be be2d 753e cde7 57be 0d12 c7bd
00000030: 14b2 703e 4158 b53e aa95 99be 636c 61be
00000040: 0d71 2bbc 21bf d9bd dec0 a4bd 6b25 bbbe
00000050: 0780 04be 2c7b 11be a9fe 7d3d af23 63be
00000060: 99c8 223f 28a6 1ebe 15c1 95bd 9e47 6c3d
00000070: f4a8 643d f305 103f 8a1b 023f 2012 12bf
00000080: 6db1 ad3e d52f 163e bb0c 023e d5bb e63e
00000090: 9d4a 813e 15eb f5bd e143 d1be 71e4 95be
000000a0: c2a8 873e 681d c0bc a3e2 4bbd 8246 033d
000000b0: e816 643e 0d40 933e d983 923e dcc3 7c3e
000000c0: c6b3 8e3d ae08 ccbe e206 b53e b84d 83be
000000d0: 6efb b6be 163c 873e d038 c23e d50e ccbe
000000e0: 9f4e af3c 9323 c93e 32ea e63d cae7 8d3e
000000f0: 74e5 0d3f 1c9a c13e c661 e8be e9c9 51be
00000100: e57e 99bd c878 873e c81a 913d 7eaa b03c
00000110: 6204 08be 1aae a6be f671 14be fd0f db3e
00000120: b005 85be 7d1f b7be 1627 283e b718 d6be
00000130: 2a5e b93e dd44 313e b0e0 0c3e c805 333e
00000140: 53ab ecbc a3be 903e 8e33 8bbe 8f61 89bd
00000150: 5d18 ce3e 26d0 45be 9908 cabe 7697 fa3b
00000160: 105f 0ebd c851 c53e b91d 623e fea7 a83c
00000170: 8274 37be 11c4 2b3d 2d06 4b3d e7c2 cd3e
00000180: 078f 51be f71d 94ba ca54 fabd 429c 7abc
00000190: 7916 44be 67c7 0e3d 33d7 80be da48 3fbe
000001a0: a9e9 b13b 47fe 68be 7c54 293e 6446 43bd
000001b0: 1fee d8bc 833f 84be f4fe 163f e7d7 4c3c
000001c0: 0d6c 673e 1643 1abd 261c 5cbe 8d50 9c3d
000001d0: 964b 20be bcd9 27be 6cd6 5a3e 06b1 85bd
000001e0: b001 acbd 4799 7abe 771b d13e 0724 46bd
000001f0: 739e a83e 9b27 fe3b 3e1f 09be efd1 463e
00000200: a060 103d 02d8 183d 590f de3d 8659 15be
00000210: d765 9cbe 6ff4 a3bd d7ed e23e 943a 963d
00000220: dc49 cbbd 0a8c a6be c561 d33d cae2 9abd
00000230: 040d b7bd 7ab2 573e c4cb b33c 001f 78be
00000240: 5871 eabd 7850 2e3d 1bce 9c3e 0d73 813e
00000250: 0264 fcbd 5a1e f5bd 478f b0be 2d60 773d
00000260: 1b68 62be db82 0c3d d297 a03d 8d70 003e
00000270: 0499 0e3e ccaf 823e 4f86 c7be ae6c 5fbd
00000280: d744 043d e55a 36be f8f9 39be 7d5e 5d3e
00000290: fe93 82be 30c7 1dbe 8340 f43d 710e a4be
000002a0: c6f1 023f 2f85 363e 02cc 61bd 0951 543e
000002b0: c0d9 763d 6e4d 483b be1d af3d 9d1c a7bd
000002c0: 3836 cf3d 6d56 8cbe fad3 823e d434 3d3e
000002d0: 4736 2f3d d261 a83d 11da d0be 70bf 77be
000002e0: b52a 0c3e 3bae 973e ad8b 1d3d 21a4 bbbe
000002f0: 7cf2 f6bc bec8 783e 2446 b63e c45b 72ba
00000300: 2b62 353e 59ba e73d b6a8 163f 58f3 9bbd
00000310: 046a cfbe 842a 28be 6470 f53d b24d 1ebe
00000320: 85ff 0cbe 0dc3 743d 1cab 90be 59aa 0a3d
00000330: 5a72 b13e 6541 cf3c 5c9a 2dbf bc9b 44be
00000340: da74 f53d 7086 6a3e 88ab 80bd fb5e 0b3d
00000350: 0353 5d3e 4e46 e8be 4ff8 5e3e d405 ab3d
00000360: 7980 bcbd eacc dfbe 8e56 223f 7cff 4d3e
00000370: 73f2 b23d 79f6 bfbe f3b2 a0be 5a48 bf3e
00000380: e63c 81be e120 9bbd 6c96 33be 4964 d4be
00000390: b48e f13c ee63 ed3b d3d0 5abe a3b4 50be
000003a0: 8b69 7ebd 08b5 a13d 8fec 193e 8a25 44be
000003b0: 1c97 9abe 4ad8 88be 01f5 513e 005a 723e
000003c0: 15e3 85be 42ac ee3d a52b 0dbe 7691 963e
000003d0: f63b 2f3e 51f1 8bbd 5b61 9cbd 8f37 c63e
000003e0: f1d5 99bd 23d2 e93d 9dd1 d7bc ddb4 31bd
000003f0: cf1f 8dbe 717a cfbe 2e4d 3b3f 8917 223e

rnn.weight_hh_l1 f4 [48, 12]
-0.07497295 0.10564542 -0.046994105 0.037139006 0.18703969 -0.229831 0.3032361 0.23969866
0.1766841 0.023520524 -0.22643992 0.30604413 -0.050111618 0.1696106 -0.0036781467 0.18603739
0.36138308 -0.060860958 0.35133058 0.31993163 0.16151117 0.14090681 0.027370144 -0.3460183
0.06630016 -0.047239844 -0.18462773 -0.35055548 0.48993486 -0.0037018082 0.47345328 -0.27562293
0.080683105 0.2790435 -0.48321056 -0.1537698 -0.06852626 0.16270134 0.25357527 -0.014974318
0.05141691 0.40992495 0.3555212 0.041138425 0.061646275 -0.10996616 0.12535824 0.21368966
0.30560353 -0.1155089 -0.048276577 -0.30996603 0.22493955 0.3006659 0.6043367 -0.28352022
-0.4624592 0.2741593 -0.48113465 -0.349361 -0.05318989 0.024652699 0.030600626 0.04204787
0.38986272 0.051020756 0.549772 0.092479 -0.22017281 0.21458219 -0.12359433 0.23409247
0.023654709 -0.34313366 0.04904176 -0.3532933 -0.029143576 0.3232528 -0.05683178 0.06533045
-0.30576324 0.36274177 -0.100186765 0.0366797 0.2509864 0.08297543 -0.10991862 -0.39346826
0.27562904 0.3372456 0.5725605 0.15906924 0.15927908 0.25933176 -0.34019154 -0.2500697
-0.17653649 -0.54792416 0.28948882 -0.059087835 -0.37802383 -0.04751842 -0.090220205 -0.36720273
0.08164865 -0.2671026 0.25493118 0.08775591 -0.097745016 0.15351364 0.14410214 0.036070526
0.2658146 0.14071652 0.46184483 0.15506181 0.2750796 0.2855438 0.05615126 0.11917281
0.06591816 0.15096597 0.0033278437 -0.046140872 0.20224823 0.07509279 0.5327387 0.27116227
0.11535187 0.39270943 -0.29523486 -0.24670573 0.1391544 0.110286675 0.16169095 0.08787373
-0.2773974 -0.15873812 -0.044602126 -0.2599871 -0.39311895 -0.11095868 0.06760502 -0.29530114
0.048112795 0.27999058 -0.15029609 0.27068624 0.054818597 0.09165683 -0.19072014 -0.24900813
0.46219254 -0.1605498 0.059199657 0.1751022 -0.25755602 0.14884815 -0.06620987 0.3796707
0.00091985037 -0.13906594 0.14138378 -0.049107358 0.13856481 -0.18873078 0.21329673 0.21328948
0.1330259 0.020471131 0.17988236 -0.16949344 0.09031857 -0.31241938 0.12648493 -0.05313029
-0.11470855 0.032615572 -0.08565773 0.3508772 0.23554718 -0.00786286 0.0914947 -0.2668819
-0.067305274 -0.011587834 -0.021097811 -0.23169285 0.2974591 0.26688227 -0.33967504 0.27051955
0.2381834 0.073656656 -0.0504899 -0.014514686 -0.20837663 0.056078143 -0.08074435 0.3235991
-0.1605903 -0.22249791 0.17355573 -0.20802188 -0.18395926 -0.16965926 0.34418428 -0.017671712
0.35537684 -0.23863238 0.46190283 -0.009062461 -0.031137226 0.22729684 -0.35811806 0.22905892
-0.047562413 -0.23099394 0.16126348 -0.13811141 0.15106884 0.07583359 -0.1192761 -0.151029
-0.089977145 0.053797763 -0.15473206 0.012247222 0.0756977 0.22703898 0.05557821 0.044044353
0.2511019 0.019277131 0.30321956 -0.20951301 0.16115427 0.1474503 -0.11813652 0.0028457055
0.055296026 -0.124092355 -0.036338158 0.076944426 -0.27904385 0.23616327 -0.29667136 -0.40863276
0.06746156 -0.24601279 -0.08692045 0.055252198 0.07857341 -0.17531522 0.25658843 0.14723256
00000000: 6b8b 99bd a05c d83d e47c 40bd 121f 183d
00000010: 5587 3f3e d158 6bbe c341 9b3e 9173 753e
00000020: adec 343e 1dae c03c dedf 67be d1b1 9c3e
00000030: d741 4dbd 67ae 2d3e 100d 71bb 9680 3e3e
00000040: 3407 b93e 5749 79bd 9ae1 b33e 14ce a33e
00000050: 2f63 253e e049 103e 5a37 e03c 5029 b1be
00000060: 61c8 873d 917e 41bd 0d0f 3dbe 027c b3be
00000070: bed8 fa3e 099a 72bb 7868 f23e 731e 8dbe
00000080: 2f3d a53d cade 8e3e 6067 f7be d575 1dbe
00000090: 7f57 8cbd 2e9b 263e 9ed4 813e d856 75bc
000000a0: 8a9a 523d afe1 d13e e006 b63e c480 283d
000000b0: ce80 7c3d f035 e1bd e95d 003e 76d1 5a3e
000000c0: 1178 9c3e ee8f ecbd a9bd 45bd deb3 9ebe
000000d0: 8e56 663e e1f0 993e cfb5 1a3f 9029 91be
000000e0: 74c7 ecbe 9c5e 8c3e 4857 f6be 72df b2be
000000f0: a4dd 59bd 75f4 c93c 2aae fa3c 633a 2c3d
00000100: 169c c73e 24fb 503d dcbd 0c3f a165 bd3d
00000110: fb74 61be 6fbb 5b3e 061f fdbd f0b5 6f3e
00000120: 85c7 c13c 37af afbe 03e0 483d dce2 b4be
00000130: 82be eebc 6481 a53e 71c8 68bd f9cb 853d
00000140: 008d 9cbe 4ab9 b93e b82e cdbd 743d 163d
00000150: 4a81 803e 06ef a93d 031d e1bd ac74 c9be
00000160: 401f 8d3e 75ab ac3e 5393 123f 0ce3 223e
00000170: 0e1a 233e 22c7 843e 962d aebe 2309 80be
00000180: fbc5 34be c244 0cbf e137 943e 1606 72bd
00000190: 578c c1be ada2 42bd 5fc5 b8bd ff01 bcbe
000001a0: 6837 a73d acc1 88be 5786 823e 5fb9 b33d
000001b0: 8a2e c8bd ae32 1d3e 838f 133e b0be 133d
000001c0: da18 883e fe17 103e ed76 ec3e 86c8 1e3e
000001d0: 3cd7 8c3e cc32 923e ddfe 653d e010 f43d
000001e0: 1a00 873d d396 1a3e f417 5a3b 36fe 3cbd
000001f0: 291a 4f3e 40ca 993d 9061 083f c8d5 8a3e
00000200: 9a3d ec3d 3611 c93e 0629 97be 6da0 7cbe
00000210: 7e7e 0e3e fbdd e13d 5092 253e 24f7 b33d
00000220: 0807 8ebe 3f8c 22be b8b0 36bd 071d 85be
00000230: e346 c9be 4e3e e3bd 8074 8a3d b631 97be
00000240: ec11 453d ed5a 8f3e 38e7 19be 6397 8a3e
00000250: 7789 603d 93b6 bb3d 244c 43be fdfb 7ebe
00000260: 80a4 ec3e 2b67 24be 577b 723d fe4d 333e
00000270: 62de 83be a66b 183e 0a99 87bd 3364 c23e
00000280: 1d22 713a 4d67 0ebe e9c6 103e cc24 49bd
00000290: efe3 0d3e a442 41be 756a 5a3e 8f68 5a3e
000002a0: f137 083e 13b3 a73c 1533 383e b08f 2dbe
000002b0: f1f8 b83d 6ff5 9fbe 4485 013e 269f 59bd
000002c0: 51ec eabd e897 053d 526d afbd 2da6 b33e
000002d0: 4833 713e 3ad3 00bc 9361 bb3d bfa4 88be
000002e0: 59d7 89bd e6da 3dbc 51d5 acbc e440 6dbe
000002f0: 8f4c 983e cba4 883e e3e9 adbe 8a81 8a3e
00000300: 59e6 733e 4dd9 963d 7fce 4ebd 01cf 6dbc
00000310: af60 55be 32b2 653d 4b5d a5bd c8ae a53e
00000320: c971 24be 7ed6 63be 98b8 313e b003 55be
00000330: d15f 3cbe 28bb 2dbe ec38 b03e 44c4 90bc
00000340: f4f3 b53e 0c5c 74be 877e ec3e b77a 14bc
00000350: 7f13 ffbc 81c0 683e 405b b7be 6c8e 6a3e
00000360: ced0 42bd ad89 6cbe 4122 253e 146d 0dbe
00000370: cab1 1a3e a44e 9b3d 0747 f4bd 59a7 1abe
00000380: f045 b8bd 0b5b 5c3d 1572 1ebe 92a8 483c
00000390: 6507 9b3d e87c 683e faa5 633d da67 343d
000003a0: 6e90 803e 13eb 9d3c 983f 9b3e 948a 56be
000003b0: a005 253e 36fd 163e 8ff1 f1bd 047f 3a3b
000003c0: 167e 623d 2224 febd 52d7 14bd 0a95 9d3d
000003d0: d6de 8ebe c9d4 713e 4fe5 97be 5038 d1be
000003e0: 4929 8a3d c7ea 7bbe 5903 b2bd 2150 623d
000003f0: 19eb a03d d585 33be 8f5f 833e 22c4 163e

rnn.bias_ih_l1 f4 [48]
-0.045780703 -0.27557433 -0.0482656 0.30319822 0.36946857 -0.06479442 -0.04117059 -0.10811396
0.24515903 0.10282804 0.44153494 -0.005198833 -0.06787186 -0.45032188 0.20515288 -0.10472269
-0.26661062 0.28882855 -0.27451068 -0.09210175 0.060890976 -0.1331838 0.18943891 -0.17369021
0.3517408 -0.08424924 -0.19563496 -0.19275355 0.008971098 0.3005914 0.25740227 -0.3199671
-0.22105935 0.047556147 -0.34437874 -0.028512144 0.29011482 -0.037672993 0.31238785 -0.12816194
0.35697472 0.102971174 0.23359941 0.324408 -0.13542731 0.445337 -0.097391166 0.18721996
00000000: 8c84 3bbd 1418 8dbe 26b2 45bd cc3c 9b3e
00000010: fc2a bd3e f0b2 84bd 7ea2 28bd da6a ddbd
00000020: f80a 7b3e 8297 d23d de10 e23e f95a aabb
00000030: 6700 8bbd 9790 e6be 9913 523e da78 d6bd
00000040: 3081 88be 56e1 933e aa8c 8cbe d89f bcbd
00000050: d168 793d 5661 08be 46fc 413e d9db 31be
00000060: 5f17 b43e de8a acbd 8854 48be 3061 45be
00000070: 83fb 123c 1ee7 993e 3bca 833e bad2 a3be
00000080: 625d 62be 3cca 423d 6952 b0be 4d92 e9bc
00000090: ee89 943e ff4e 1abd 4df1 9f3e e23c 03be
000000a0: 64c5 b63e 8de2 d23d af34 6f3e ce18 a63e
000000b0: 75ad 0abe 3603 e43e 0575 c7bd 97b6 3f3e

rnn.bias_hh_l1 f4 [48]
-0.009564472 0.003981282 0.12324942 0.20300877 0.010849852 0.2895909 0.0063688485 0.41861224
0.08105366 0.40025404 0.4615138 0.25089744 -0.02092865 -0.11868203 -0.26902544 0.2899636
-0.33911774 0.2825889 0.11196996 0.095668465 0.0013166941 0.13558397 0.03070763 0.13657002
-0.0063058757 0.1356797 0.14773415 -0.21686582 0.19531654 -0.08285982 0.15462042 0.050851934
0.067535795 0.19822529 0.019870281 0.068440326 0.2611115 0.07575695 0.5436926 0.1821557
0.3685417 -0.19455807 -0.041676488 -0.059464302 -0.20458776 0.40547752 -0.21650957 -0.08796298
00000000: 4eb4 1cbc 6a75 823b 316a fc3d 88e1 4f3e
00000010: 94c3 313c 4245 943e c6b1 d03b 5854 d63e
00000020: 76ff a53d 19ee cc3e 894b ec3e a175 803e
00000030: 8f72 abbc 900f f3bd b4bd 89be 1c76 943e
00000040: d7a0 adbe 7eaf 903e 8250 e53d d4ed c33d
00000050: ec94 ac3a 86d6 0a3e 918e fb3c 03d9 0b3e
00000060: 85a1 cebb 9fef 0a3e 9f47 173e 1312 5ebe
00000070: 0f01 483e 69b2 a9bd d154 1e3e 1e4a 503d
00000080: 3550 8a3d 92fb 4a3e 00c7 a23c 712a 8c3d
00000090: 68b0 853e 7626 9b3d 702f 0b3f 0687 3a3e
000000a0: 7fb1 bc3e 3b3a 47be f7b4 2abd d790 73bd
000000b0: 747f 51be c09a cf3e afb4 5dbe ef25 b4bd

rnn.weight_ih_l2 f4 [48, 12]
0.14560539 -0.18972556 -0.2142737 0.039479986 0.7583395 0.17166501 0.6271866 0.11586497
-0.011774203 -0.12882553 0.12136654 -0.30457497 0.13526875 0.08299693 -0.47694626 0.37571838
-0.038840853 -0.10907157 0.018087119 0.34137985 -0.27852976 0.09053242 -0.07009999 -0.16487831
0.0025334645 -0.49570435 0.45810056 -0.44531003 0.16416961 0.5251518 -0.023786226 -0.39323398
-0.3243413 0.40056306 0.028824022 -0.37282217 -0.013863544 -0.27393645 -0.07085922 -0.057771955
0.2444271 0.13641137 0.43909854 0.12069736 0.03449184 0.115236156 -0.050546546 -0.41301683
0.022577256 0.20422117 0.13011357 0.119296595 -0.06172667 0.20455968 0.34149894 0.013382264
0.08030719 0.030345382 -0.32441157 -0.34655344 0.047318645 -0.21917187 -0.07855584 -0.33925205
-0.0019376614 0.26864094 0.2556447 -0.05112143 -0.08627955 0.46184933 -0.11055395 -0.25020018
-0.21092956 -0.21543406 0.3400762 -0.11032561 -0.4405091 0.1602958 -0.09558817 -0.09287707
0.06932695 0.08509274 -0.33897305 0.075171985 -0.09342448 -0.022148218 -0.37175438 0.3224349
0.35713312 -0.35214505 0.19316298 0.22928773 0.24720831 -0.1518787 0.19943151 -0.005349726
0.19484526 0.015156622 0.57779104 -0.012872777 -0.25230715 0.068540886 0.4439616 -0.20699726
-0.34460616 0.054553136 -0.5082179 -0.24735174 0.1672055 0.29327822 0.011228852 -0.26208404
0.014055955 0.33959678 0.32177606 -0.008263868 0.19482079 0.32052886 -0.40087715 0.07729729
-0.2796916 -0.012604325 -0.43415245 0.2860594 0.35166162 -0.018563474 -0.09316565 0.16856423
-0.31547427 0.24960953 0.13707516 -0.029760519 0.18797144 0.05800932 0.12259771 -0.16558613
-0.08636233 0.34975517 -0.2759242 -0.2517639 -0.04116535 -0.27234048 0.05981033 -0.23712665
-0.18514398 -0.08318069 0.122857876 0.26481116 0.3998503 -0.2907461 0.08321377 -0.047173854
0.1502313 0.17044088 0.10531704 -0.25597414 -0.06181008 0.13538536 -0.046978056 0.101966985
-0.25367764 -0.33395284 -0.066123016 0.019566452 0.07338495 -0.35974553 0.08816613 -0.11104781
-0.2840252 -0.06141936 -0.073510334 0.3319326 0.053035572 -0.20189275 0.010619464 0.45666826
-0.1695485 0.11081246 0.19616443 -0.14998329 -0.04456087 0.18776621 -0.107316695 0.27135587
0.38985777 0.083531424 0.6023021 0.3958183 0.080420956 -0.061569445 -0.4239988 -0.075665005
-0.15245634 0.18779916 -0.124956034 -0.026273677 -0.46285403 -0.007911461 -0.12317897 0.2757213
-0.1990083 0.13952123 -0.19512413 0.10137667 0.22517265 0.4144833 -0.5852402 0.35017735
0.38976908 -0.48832673 0.03191269 0.45100182 -0.36282662 0.13911487 0.13286121 0.03355047
0.20770213 0.13616887 0.14096493 0.13547696 -0.34403017 -0.074922524 0.14939697 0.16620769
0.010607053 -0.17214544 0.08149911 0.15001103 -0.32669264 0.117669195 -0.1160891 -0.015350776
0.089868836 0.13000129 0.060875267 0.12167387 -0.14589289 -0.023295391 0.07873877 0.35342097
0.23411237 -0.034116495 0.20322391 -0.10712344 0.10452216 0.12961388 -0.23311038 -0.14324994
-0.22004181 -0.35722065 0.2726045 -0.18620895 0.26471737 -0.14185128 0.23462705 -0.046844058
00000000: 9419 153e 6b47 42be 916a 5bbe c4b5 213d
00000010: 8a22 423f f4c8 2f3e 4d8f 203f 9d4a ed3d
00000020: 96e8 40bc d7ea 03be 058f f83d 40f1 9bbe
00000030: e483 0a3e 4bfa a93d 4d32 f4be 295e c03e
00000040: 9617 1fbd ea60 dfbd 702b 943c 57c9 ae3e
00000050: 749b 8ebe 1069 b93d 9590 8fbd dcd5 28be
00000060: 7b08 263b f6cc fdbe 288c ea3e adff e3be
00000070: 141c 283e 5970 063f 55db c2bc f755 c9be
00000080: 1010 a6be 9a16 cd3e 5b20 ec3c 8ce2 bebe
00000090: eb23 63bc 6641 8cbe a41e 91bd 49a2 6cbd
000000a0: 194b 7a3e 6caf 0b3e 86d1 e03e 2d30 f73d
000000b0: 5147 0d3d ef00 ec3d e509 4fbd f176 d3be
000000c0: f0f3 b83c 5b1f 513e 7e3c 053e c651 f43d
000000d0: 1bd5 7cbd 1878 513e f3d8 ae3e 4941 5b3c
000000e0: 1978 a43d e196 f83c 4619 a6be 746f b1be
000000f0: 32d1 413d 976e 60be e2e1 a0bd 72b2 adbe
00000100: 21f9 fdba 4e8b 893e dde3 823e b464 51bd
00000110: 55b3 b0bd 8477 ec3e 1c6a e2bd 3d1a 80be
00000120: ebfd 57be bf9a 5cbe 781e ae3e 65f2 e1bd
00000130: 698a e1be 9524 243e bbc3 c3bd 5536 bebd
00000140: 4afb 8d3d 1a45 ae3d e08d adbe c5f3 993d
00000150: 5555 bfbd 2e70 b5bc 9756 bebe 3016 a53e
00000160: 27da b63e 5b4c b4be 84cc 453e 67ca 6a3e
00000170: 2d24 7d3e 1786 1bbe c637 4c3e c14c afbb
00000180: 8485 473e 7b53 783c 1dea 133f 57e8 52bc
00000190: 672e 81be 2a5f 8c3d ef4e e33e 17f7 53be
000001a0: 3870 b0be 1c73 5f3d 911a 02bf c649 7dbe
000001b0: eb37 2b3e 9028 963e 38f9 373c e12f 86be
000001c0: f34a 663c a1df ad3e d5bf a43e 2d65 07bc
000001d0: 1a7f 473e 5c1c a43e c53f cdbe 0b4e 9e3d
000001e0: bd33 8fbe 5f82 4ebc 3b49 debe 6176 923e
000001f0: fe0c b43e 6d12 98bc a2cd bebd 1a9c 2c3e
00000200: d885 a1be a499 7f3e 6e5d 0c3e 55cc f3bc
00000210: 967b 403e 2e9b 6d3d 8214 fb3d 698f 29be
00000220: bcde b0bd 1c13 b33e f045 8dbe 33e7 80be
00000230: ff9c 28bd 3670 8bbe adfb 743d 54d1 72be
00000240: 6296 3dbe a35a aabd e99c fb3d 5495 873e
00000250: 2eb9 cc3e acdc 94be fb6b aa3d 5f39 41bd
00000260: 3cd6 193e 0e88 2e3e 76b0 d73d 0b0f 83be
00000270: 912c 7dbd 76a2 0a3e 106c 40bd 11d4 d03d
00000280: 09e2 81be defb aabe 816b 87bd d349 a03c
00000290: d94a 963d 9130 b8be 7290 b43d 096d e3bd
000002a0: c06b 91be de92 7bbd 968c 96bd 12f3 a93e
000002b0: d43b 593d f9bc 4ebe 43fd 2d3c 6cd0 e93e
000002c0: 1f9e 2dbe a5f1 e23d 54df 483e 3895 19be
000002d0: 7585 36bd c945 403e dbc8 dbbd 28ef 8a3e
000002e0: 709b c73e 8612 ab3d 7830 1a3f b2a8 ca3e
000002f0: beb3 a43d 3e30 7cbd 5f16 d9be 41f6 9abd
00000300: 841d 1cbe 6c4e 403e f3e8 ffbd e53b d7bc
00000310: 34fb ecbe 139f 01bc 4145 fcbd 582b 8d3e
00000320: d5c8 4bbe a7de 0e3e 9fce 47be 929e cf3d
00000330: a993 663e 2837 d43e 4dd2 15bf 724a b33e
00000340: d08f c73e f605 fabe e1b6 023d b6e9 e63e
00000350: 69c4 b9be 2174 0e3e c50c 083e 386c 093d
00000360: deaf 543e da6f 0b3e 1c59 103e 79ba 0a3e
00000370: b924 b0be fb70 99bd 85fb 183e 5932 2a3e
00000380: 34c9 2d3c e546 30be 01e9 a63d 7e9c 193e
00000390: 4244 a7be 8cfc f03d 1fc0 edbd d281 7bbc
000003a0: 270d b83d 0f1f 053e 5858 793d 2630 f93d
000003b0: f264 15be fad5 bebc cb41 a13d 98f3 b43e
000003c0: 27bb 6f3e bdbd 0bbd ee19 503e 8963 dbbd
000003d0: b70f d63d 80b9 043e 7db4 6ebe 1db0 12be
000003e0: a452 61be a0e5 b6be d192 8b3e 8fad 3ebe
000003f0: 0989 873e 7641 11be 1342 703e 8edf 3fbd

rnn.weight_hh_l2 f4 [48, 12]
0.17671615 -0.15858318 -0.0026729177 0.19340211 -0.1462235 0.024768239 -0.16023427 0.12822776
-0.27351183 -0.16494404 -0.015885722 -0.09337421 0.3355212 0.31815276 0.09347784 0.050598573
-0.10464233 -0.17839973 -0.09112625 -0.22802877 -0.2468144 0.11666051 -0.17717032 0.38738272
-0.20317122 0.4804755 0.21509944 0.5898805 0.053391058 -0.3648868 -0.00673194 0.09779422
0.22816336 0.028363777 -0.044506438 -0.28395572 0.19917654 0.026213503 0.39638057 0.21579823
0.15554301 -0.32680103 0.02004713 -0.26841092 -0.32367226 0.06743751 -0.0046465327 0.33240056
-0.044935904 0.2138468 -0.052714285 0.3006438 -0.14020653 0.019868093 -0.31553626 -0.09526965
0.3236328 -0.18375804 -0.23660311 0.22782111 -0.30440688 0.49287525 -0.008557196 0.9319606
0.15643013 -0.59445226 -0.33487543 -0.0748906 0.34752664 0.33900896 -0.15107915 -0.10978103
-0.0004898974 0.07227778 -0.34437603 0.052590303 -0.13499235 -0.2234504 0.027032329 -0.09096384
0.12591736 -0.038266435 -0.1761539 0.14039014 -0.0024795702 0.047466744 -0.40968606 0.052426524
0.274345 0.064827144 -0.028753947 0.10459143 -0.2933813 0.10209283 0.3167213 -0.15413895
-0.28218466 0.41282526 -0.06538582 0.3215528 0.029888418 -0.20861384 0.16101477 -0.07109482
0.1330464 0.15922716 -0.01119465 -0.03240235 0.026804836 -0.3077572 -0.045350228 0.18511768
-0.20290631 0.1727471 -0.060359176 0.27964804 -0.2071578 0.16451748 -0.0011546795 -0.1474738
0.098183386 -0.08182208 0.3056108 -0.027441788 -0.23450328 -0.23759784 0.055504534 0.09702424
0.10778587 -0.12762758 0.25810283 -0.06661998 0.21332116 0.0019161919 -0.23827556 0.34901175
0.31820533 0.07489143 -0.120898984 0.17856157 0.043085802 -0.2964884 -0.08074841 -0.10625526
0.30540383 -0.07616194 -0.24201179 0.3269072 -0.21979323 0.21963254 -0.10105475 0.26557994
-0.18828021 0.22234693 -0.15024391 0.09906305 0.096984565 -0.1603464 -0.03362674 0.3226982
0.13533099 -0.014177016 -0.13439234 -0.28173968 -0.31493965 -0.044191983 -0.2028237 -0.17095037
0.5157239 0.046333704 0.14052072 -0.04347204 -0.10781521 0.21823348 0.24126495 0.097459465
0.18578596 0.13448049 -0.124994464 0.23761314 0.26671255 -0.17010777 0.59500873 0.00644972
0.18278806 -0.7168268 0.25241256 0.24015741 -0.25740105 -0.1571925 0.2079075 -0.04915765
-0.22201101 -0.23624967 -0.21357197 0.19105604 0.020875927 0.119053066 0.012274245 0.13703002
0.06579578 -0.20516834 -0.10071346 0.21339029 0.17526014 -0.24067363 -0.1082924 -0.45542637
0.019986846 0.116661005 -0.18137774 0.18930455 0.0404306 0.43237415 0.38455388 -0.14342697
-0.019353997 -0.30900288 -0.3640856 -0.2555161 0.08289292 0.1813727 -0.15041669 0.1966583
0.023005638 -0.08266121 0.33938554 0.13847478 0.29146716 -0.3487878 -0.24827588 -0.08909091
-0.18652722 0.37116858 0.18039885 0.12114041 -0.21567768 0.013839195 0.02976178 -0.00031320908
0.023583882 0.11003657 -0.28979078 -0.48968783 0.17558901 0.39516 0.21604809 -0.22804412
0.16021265 -0.06795334 0.22122933 0.18780129 0.065708704 -0.17742875 0.20184793 0.23041508
00000000: 14f5 343e a163 22be 1e2c 2fbb 340b 463e
00000010: 9dbb 15be c3e6 ca3c 7414 24be 234e 033e
00000020: be09 8cbe 17e7 28be c622 82bc fa3a bfbd
00000030: 6fc9 ab3e ebe4 a23e 4f71 bf3d 7340 4f3d
00000040: b84e d6bd 6bae 36be 66a0 babd 6080 69be
00000050: eabc 7cbe b5eb ee3d 236c 35be 0757 c63e
00000060: 1e0c 50be e200 f63e 0743 5c3e 6902 173f
00000070: 95b0 5a3d 71d2 babe 9b97 dcbb 5648 c83d
00000080: a8a3 693e 275b e83c 624c 36bd a562 91be
00000090: eff4 4b3e b3bd d63c 65f2 ca3e 36fa 5c3e
000000a0: ab46 1f3e 7752 a7be e139 a43c 286d 89be
000000b0: 5fb8 a5be ad1c 8a3d f141 98bb 6830 aa3e
000000c0: b60e 38bd a8fa 5a3e efea 57bd fced 993e
000000d0: 4d92 0fbe 69c2 a23c f88d a1be bc1c c3bd
000000e0: 33b3 a53e 112b 3cbe 1648 72be f049 693e
000000f0: 38db 9bbe 255a fc3e 7b33 0cbc f894 6e3f
00000100: 382f 203e 062e 18bf cb74 abbe 3e60 99bd
00000110: 03ef b13e 9592 ad3e 7eb4 1abe e0d4 e0bd
00000120: 756c 00ba 5f06 943d 0e52 b0be ee68 573d
00000130: 6f3b 0abe 2fd0 64be e772 dd3c 404b babd
00000140: 7bf0 003e 44bd 1cbd b061 34be 6fc2 0f3e
00000150: 4980 22bb 7d6c 423d 5fc2 d1be 32bd 563d
00000160: f376 8c3e 18c4 843d 668d ebbc 0834 d63d
00000170: 1336 96be 0c16 d13d 4b29 a23e 9ad6 1dbe
00000180: 827a 90be d55d d33e 00e9 85bd 92a2 a43e
00000190: 8ed8 f43c de9e 55be 0ee1 243e 299a 91bd
000001a0: 513d 083e 720c 233e c469 37bc 54b8 04bd
000001b0: d195 db3c 5a92 9dbe 29c1 39bd 7d8f 3d3e
000001c0: acc6 4fbe 9ee4 303e 2f3b 77bd 072e 8f3e
000001d0: 2d21 54be 4577 283e 9d58 97ba 5f03 17be
000001e0: 5f14 c93d 5692 a7bd 0579 9c3e 9acd e0bc
000001f0: a121 70be d94c 73be b958 633d a5b4 c63d
00000200: d7be dc3d ceb0 02be 0e26 843e 0e70 88bd
00000210: dd70 5a3e bb28 fb3a 82fe 73be abb1 b23e
00000220: cfeb a23e ae60 993d e399 f7bd d8d8 363e
00000230: bd7a 303d 54cd 97be 6c5f a5bd 5c9c d9bd
00000240: e45d 9c3e cbfa 9bbd f0d1 77be 6160 a73e
00000250: 7a11 61be 5ae7 603e cbf5 cebd 18fa 873e
00000260: 87cc 40be eaae 633e 8ad9 19be 91e1 ca3d
00000270: d89f c63d d931 24be 31bc 09bd b338 a53e
00000280: 3594 0a3e b746 68bc 259e 09be 2f40 90be
00000290: c53f a1be a702 35bd 04b1 4fbe 9d0d 2fbe
000002a0: 7b06 043f 69c8 3d3d aae4 0f3e bd0f 32bd
000002b0: 39ce dcbd 9978 5f3e 290e 773e d498 c73d
000002c0: ad3e 3e3e 41b5 093e 19fd ffbd dc50 733e
000002d0: 8c8e 883e bb30 2ebe 7e52 183f 2c58 d33b
000002e0: cb2c 3b3e f681 37bf 383c 813e d3eb 753e
000002f0: 12ca 83be 12f7 20be b4e5 543e 8859 49bd
00000300: db56 63be 6feb 71be 9cb2 5abe 32a4 433e
00000310: fe03 ab3c 18d2 f33d ea19 493c 9951 0c3e
00000320: f0bf 863d a617 52be dc42 cebd fc82 5a3e
00000330: 6577 333e 2673 76be 68c8 ddbd a52d e9be
00000340: 74bb a33c f7eb ee3d 16bb 39be 0dd9 413e
00000350: 8f9a 253d 2560 dd3e 3fe4 c43e 85de 12be
00000360: 468c 9ebc a035 9ebe 6e69 babe 02d3 82be
00000370: c3c3 a93d c4b9 393e d506 1abe cb60 493e
00000380: 5276 bc3c 484a a9bd f1c3 ad3e 55cc 0d3e
00000390: 2f3b 953e 5194 b2be 083c 7ebe 4c75 b6bd
000003a0: fe00 3fbe cf09 be3e 7aba 383e 7718 f83d
000003b0: 9cda 5cbe cabd 623c face f33c 3636 a4b9
000003c0: fc32 c13c da5a e13d 755f 94be 5db8 fabe
000003d0: 9bcd 333e 6952 ca3e b63b 5d3e 6684 69be
000003e0: c90e 243e 1f2b 8bbd f189 623e fb4e 403e
000003f0: 4992 863d e2af 35be 39b1 4e3e eef1 6b3e

rnn.bias_ih_l2 f4 [48]
-0.25292045 0.054313622 0.27212593 0.064812906 0.24283218 0.47236133 0.28560743 -0.31478462
0.120145634 0.2912824 0.0818286 0.08120705 0.17933968 -0.31084865 -0.22048566 0.19852369
0.14059462 0.17554033 0.03187015 -0.29741856 -0.19589286 0.2625043 -0.0009495165 0.0021100289
-0.15186448 -0.15207857 0.06765523 -0.08358857 -0.18700977 -0.37045062 -0.24557659 0.2804441
0.08719192 -0.05479807 -0.0473283 0.13776492 -0.06553567 -0.049778786 0.28996223 0.15361679
-0.01329835 0.19310327 -0.23436035 0.081157476 0.28696275 -0.1348092 0.19186822 -0.18239667
00000000: ca7e 81be f677 5e3d 1754 8b3e a1bc 843d
00000010: 00a9 783e 58d9 f13e 233b 923e 732b a1be
00000020: ea0e f63d f722 953e c195 a73d e24f a63d
00000030: d2a4 373e 8e27 9fbe fec6 61be cb49 4b3e
00000040: 09f8 0f3e d8c0 333e 468a 023d 3f47 98be
00000050: 2398 48be f766 863e f9e8 78ba 6948 0a3b
00000060: 5d82 1bbe 7cba 1bbe d38e 8a3d 7c30 abbd
00000070: 7d7f 3fbe b4ab bdbe 6e78 7bbe 5e96 8f3e
00000080: ad91 b23d f173 60bd 52db 41bd 3f12 0d3e
00000090: 9137 86bd d7e4 4bbd ee75 943e b84d 1d3e
000000a0: 53e1 59bc ddbc 453e 29fc 6fbe e435 a63d
000000b0: c8ec 923e 6c0b 0abe 1a79 443e 31c6 3abe

rnn.bias_hh_l2 f4 [48]
-0.009798691 0.03142472 0.44429657 0.14717154 -0.14443536 0.03572517 -0.13054101 0.00199663
0.46469206 0.3022087 0.16510472 0.25598177 -0.09850101 -0.19215615 -0.27697855 -0.14207001
0.2738797 -0.21446332 -0.032970853 -0.06319563 0.24604826 -0.13319841 -0.21533988 -0.26135597
-0.022318799 0.07308325 -0.18248747 -0.031459384 0.11817001 0.13644102 -0.30459404 0.15449987
-0.08006129 0.28295636 0.06737641 -0.23231192 0.06252987 0.16313992 0.24762599 0.19054562
0.29376516 0.1985509 0.2659704 0.06476957 0.18286389 0.22719502 -0.010363208 0.1865079
00000000: b08a 20bc 35b7 003d d77a e33e 23b4 163e
00000010: dde6 13be 8e54 123d 8bac 05be e5d9 023b
00000020: 1eec ed3e 19bb 9a3e 3611 293e 0b10 833e
00000030: e6ba c9bd 95c4 44be 22d0 8dbe cd7a 11be
00000040: f639 8c3e 469c 5bbe 720c 07bd b66c 81bd
00000050: 13f4 7b3e 2a65 08be 0f82 5cbe 73d0 85be
00000060: ead5 b6bc acac 953d ffdd 3abe 8edb 00bd
00000070: 1e03 f23d 32b7 0b3e c0f3 9bbe 3735 1e3e
00000080: 2cf7 a3bd a8df 903e a5fc 893d 2de3 6dbe
00000090: a90f 803d 270e 273e ab91 7d3e 641e 433e
000000a0: 6368 963e ed50 4b3e 462d 883e e9a5 843d
000000b0: ac40 3b3e d0a5 683e 72ca 29bc edfb 3e3e

rnn.weight_ih_l3 f4 [48, 12]
-0.019729774 -0.037008807 -0.4383086 0.37403452 0.09815785 0.1584603 -0.06094851 -0.19339655
0.24175945 -0.28955343 -0.12305135 0.056140006 0.14750898 0.040677104 -0.074876145 0.2795084
-0.0026860964 0.52821314 -0.15562426 -0.33330905 0.4834197 0.0027882475 -0.1286243 -0.016214287
0.122169495 0.016297683 -0.27578357 0.20234436 -0.12359296 0.5624179 0.123347364 0.21617404
0.2856167 -0.16013475 0.2899735 0.0048845476 -0.1980958 -0.21179959 -0.41130075 -0.03007674
-0.10856998 0.12523894 -0.15131438 0.046030693 0.48690963 0.23047547 0.24718413 -0.34487122
-0.11226189 -0.17187339 -0.13073991 0.29599047 -0.18057552 -0.6563679 0.15617284 0.09606075
-0.28271088 -0.21346627 -0.14779742 -0.24732147 0.19661754 -0.21529974 -0.39914057 -0.17787074
-0.18550499 0.20871954 -0.02816061 -0.0015155706 0.35132214 0.21636488 -0.052330367 0.11468412
-0.14487213 -0.25546318 -0.47915486 0.1790218 0.20144232 0.3143044 -0.0819544 0.17489761
0.260479 0.20409238 0.06157066 -0.24362744 -0.105640404 -0.1924335 -0.12136882 0.15254742
-0.038065046 0.24324772 -0.31243175 0.2320907 0.15930961 0.040414408 0.14317359 -0.13856009
0.289523 -0.11456944 -0.52987087 -0.21862103 -0.23633069 -0.031233516 0.03540837 0.108167164
0.13268422 -0.10883252 -0.0071300524 -0.14774594 0.0552296 0.26158956 -0.22825903 0.4198641
-0.0048753507 0.35118508 0.19400801 -0.32913503 0.40715602 0.16179703 -0.3708101 -0.24497268
0.02428908 0.17455336 0.058910858 -0.013010906 0.12724523 -0.055232994 0.30276188 0.16328873
0.18284939 0.057880454 0.21058708 -0.15312497 0.18470633 0.14621915 -0.47762764 0.30198762
-0.031526323 0.42549393 0.041070778 -0.28824723 0.2448753 0.27336502 -0.004833977 -0.045777168
0.17799318 -0.035171423 -0.3834085 0.021287728 0.25420648 0.020890106 -0.09718676 -0.03955259
-0.09381017 0.09562019 0.22008324 -0.0059797224 -0.081490874 -0.027001783 -0.3146669 -0.023342961
-0.070987806 0.0663648 -0.22647119 0.18347277 -0.056778237 -0.010248443 0.36389843 -0.09428283
0.32265002 -0.09442534 -0.5431 -0.110791884 -0.1575201 0.23085213 -0.11986667 -0.28488353
0.07303871 -0.09351344 0.34508154 -0.16210793 0.2735754 -0.32126656 -0.2828379 -0.17830461
-0.25468057 0.363224 -0.21886979 -0.259445 0.06720851 -0.16501847 0.3094344 -0.042630184
0.18967634 0.35800007 0.08714036 0.21618094 0.2241048 -0.8975751 0.0141492495 -0.23958834
-0.41253287 -0.35684448 -0.25178903 0.055947684 0.21808094 0.029748399 -0.31783247 -0.10320633
-0.2002374 0.28174144 -0.13549957 -0.32996964 0.27186927 0.29082167 0.15506092 -0.26869607
-0.23386295 -0.35665363 -0.24116799 -0.05788912 0.17782907 0.25697237 0.023542834 -0.3086738
-0.11213896 -0.04252207 -0.15974498 -0.0509811 -0.03402181 0.14290014 -0.048217513 -0.05492638
-0.10821681 -0.003320699 0.058027197 0.03914682 0.46457866 0.2483379 -0.17586459 0.024205975
0.08572983 0.027954651 -0.29151148 0.10789802 -0.19735025 0.18647155 -0.19844311 -0.083481714
-0.019769961 0.044376083 0.3573307 -0.003992226 0.27142307 0.13935252 -0.08836509 0.030318975
00000000: 56a0 a1bc 8c96 17bd fc69 e0be 7481 bf3e
00000010: fc06 c93d 6b43 223e 25a5 79bd bf09 46be
00000020: ca8f 773e 5940 94be 5902 fcbd 10f3 653d
00000030: 980c 173e 099d 263d aa58 99bd ba1b 8f3e
00000040: 3809 30bb fa38 073f f75b 1fbe 7ca7 aabe
00000050: c982 f73e 08bb 363b 17b6 03be d3d3 84bc
00000060: 0034 fa3d b882 853c 8133 8dbe 5c33 4f3e
00000070: 4e1e fdbd 9ffa 0f3f 8b9d fc3d ba5c 5d3e
00000080: 5a3c 923e 5dfa 23be 6877 943e 8e0e a03b
00000090: a0d9 4abe fee1 58be 0396 d2be 7f63 f6bc
000000a0: f059 debd a33e 003e 28f2 1abe ae8a 3c3d
000000b0: 384c f93e c301 6c3e d61d 7d3e f692 b0be
000000c0: 90e9 e5bd 94ff 2fbe afe0 05be 108c 973e
000000d0: cae8 38be ba07 28bf c6eb 1f3e 80bb c43d
000000e0: 7bbf 90be e796 5abe 3558 17be d741 7dbe
000000f0: 1c56 493e 8977 5cbe 275c ccbe bf23 36be
00000100: 05f5 3dbe 93ba 553e 14b1 e6bc 1ca6 c6ba
00000110: 7fe0 b33e c18e 5d3e 5e58 56bd 82df ea3d
00000120: 5c59 14be 12cc 82be c953 f5be 7e51 373e
00000130: e546 4e3e 82ec a03e b5d7 a7bd 5c18 333e
00000140: 815d 853e 98fd 503e 8431 7c3d 7979 79be
00000150: ff59 d8bd 4a0d 45be 3790 f8bd 6435 1c3e
00000160: 18ea 1bbd ee15 793e 0ef7 9fbe 2fa9 6d3e
00000170: 0f22 233e 9489 253d 199c 123e b2e2 0dbe
00000180: 5c3c 943e 62a3 eabd 9ea5 07bf 31de 5fbe
00000190: ac00 72be 6edd ffbc 5e08 113d bf86 dd3d
000001a0: 5fde 073e 96e3 debd 37a3 e9bb b64a 17be
000001b0: 6f38 623d 11ef 853e bcbc 69be 6df8 d63e
000001c0: 68c1 9fbb 88ce b33e 09aa 463e 6384 a8be
000001d0: c176 d03e 1fae 253e d2da bdbe 1eda 7abe
000001e0: e5f9 c63c 1ebe 323e 834c 713d b22b 55bc
000001f0: 934c 023e fe3b 62bd 9b03 9b3e 2935 273e
00000200: df3c 3b3e 0e14 6d3d 24a4 573e cbcc 1cbe
00000210: a823 3d3e 79ba 153e 9c8b f4be 1f9e 9a3e
00000220: bf21 01bd 57da d93e d539 283d 2495 93be
00000230: 97c0 7a3e 80f6 8b3e 5766 9ebb d780 3bbd
00000240: d843 363e e90f 10bd 1e4e c4be 9a63 ae3c
00000250: 5a27 823e ba21 ab3c da09 c7bd e601 22bd
00000260: 8c1f c0bd 85d4 c33d 805d 613e 8cf1 c3bb
00000270: b0e4 a6bd d832 ddbc 051c a1be bd39 bfbc
00000280: 0e62 91bd 45ea 873d 10e8 67be 49e0 3b3e
00000290: 4c90 68bd 16e9 27bc e550 ba3e 5b17 c1bd
000002a0: 6232 a53e 1362 c1bd 9a08 0bbf dbe6 e2bd
000002b0: f34c 21be 8064 6c3e a87c f5bd 41dc 91be
000002c0: 5295 953d f983 bfbd 87ae b03e 9fff 25be
000002d0: 1312 8c3e 0d7d a4be 21d0 90be 7c95 36be
000002e0: 7e65 82be 7ff8 b93e 671f 60be fad5 84be
000002f0: 9ea4 893d 9afa 28be 306e 9e3e fd9c 2ebd
00000300: 843a 423e c94b b73e a576 b23d 895e 5d3e
00000310: bb7b 653e 7bc7 65bf 41d2 673c a556 75be
00000320: 8237 d3be 52b4 b6be 7eea 80be 6629 653d
00000330: 9c50 5f3e eab2 f33c f0ba a2be d75d d3bd
00000340: 080b 4dbe 6a40 903e 66c0 0abe c8f1 a8be
00000350: 7332 8b3e 94e6 943e 4ac8 1e3e 8892 89be
00000360: c579 6fbe 4e9b b6be bef4 76be 241d 6dbd
00000370: d318 363e e291 833e e7dc c03c 7e0a 9ebe
00000380: 1ca9 e5bd 9f2b 2ebd 3094 23be 8fd1 50bd
00000390: 745a 0bbd 6a54 123e ba7f 45bd 7cfa 60bd
000003a0: c6a0 ddbd 16a0 59bb edad 6d3d 6a58 203d
000003b0: 41dd ed3e 4a4c 7e3e d915 34be 9c4b c63c
000003c0: 1f93 af3d 2701 e53c fe40 95be a3f9 dc3d
000003d0: 2f16 4abe 66f2 3e3e ac34 4bbe 76f8 aabd
000003e0: 9df4 a1bc b2c3 353d 0df4 b63e 38d1 82bb
000003f0: f7f7 8a3e 6db2 0e3e c2f8 b4bd 805f f83c
