模型代码/LSTM/weights/123.pth (torch_old, 5737 bytes, 9 tensors)

rnn.weight_ih_l0 f4 [32, 5]
00000000: 9649 1b3f b7ad bc3e 2d8d 523f d679 873f
00000010: 03de 683f 2141 443e b813 82be 37c5 82bd
00000020: be60 71bc 3589 683d 8f59 9e3d fb77 54be
00000030: 8d51 8fbe e517 c2bd e5ed bbbe 92fd 63be
00000040: d05e 683e 8e63 e73e 81f0 bb3e 7fc7 2f3f
00000050: d4e4 6f3e b03a 3a3f b3ff 083f 58a1 253f
00000060: ae27 5c3f b15a a9bd fc92 95bd a0a4 c03e
00000070: c6cf ac3d 12d1 603e 30a0 2fbe a04a 6a3e
00000080: 1da4 0abc ab6b 913e 7f79 a43d 64dd 9c3e
00000090: 737b 983d 205f bc3d 0213 d83e f679 d83e
000000a0: 5a7e 7bbe 6f32 64be f32f c3bd c901 f03d
000000b0: 78cb b6be 04e9 80bb 46bb 7a3d 7ae8 823e
000000c0: 24a9 98be c00c 823d 11f4 5abe ade7 053e
000000d0: 270b 56be 3d4c a9be 8bfb 0d3e cf15 5b3e
000000e0: 9d92 52be 276d 933d 32ab 2a3e 7705 dc3e
000000f0: d981 92be aae2 403d 0aea 88bb 133b 2d3e
00000100: c9b7 343f 20b8 c23d 72da 713c f2dc 523e
00000110: ecd1 4dbe 4ea4 da3e f7b0 9a3e 1d23 54be
00000120: 8a87 df3e 3ec2 143e 6624 263e 1f47 493e
00000130: 2db1 613d dc3e 653c b33b a83e f852 2e3e
00000140: 078f b1bd af98 3dbe df38 1d3e 3fb7 193f
00000150: 3d50 b33f 0afd 1ebd cb03 39be 869a d8bb
00000160: 2a2d 82be 0b0e 3a3e c73a f93e e495 b43d
00000170: c481 a93d 1d4f 20be dc72 cb3d 43d7 c93e
00000180: 3d3b 17bd 61ad 7f3e a5ec b13c 7113 113f
00000190: 9b88 c43d 99fb 03bc 0c6e 263e 9215 81bd
000001a0: 5d5a 7f3f 9e19 213e 10c9 e6bc 07e9 be3d
000001b0: eeb0 96bd 0e65 a7be f7d3 323e 934f a33e
000001c0: 71ce 993e e1bd 123b 9b2a d93e 3611 9abd
000001d0: 8b8f 28be 3515 5c3e b00e 4dbe 7432 0fbf
000001e0: 68b6 943e 063f f53e 7464 f53e 6d5a 353f
000001f0: 96b9 363f 7585 9a3e ce7d 603e 3e51 3bbe
00000200: 3886 973d 20d3 10bf c587 3a3d dc90 bbbd
00000210: 674c 2cbe 76a7 1b3e b01c 01be e968 6a3e
00000220: 7d74 073f 15e8 deba 2f3e 133f bbcd d43e
00000230: 0dae ba3e 5979 bb3e 3d80 fb3e 68a6 ec3e
00000240: 25d1 df3e 2487 783e 8ab4 bebd b549 ca3a
00000250: cc83 3a3e ff71 ae3e 168c 9fbd e570 0dbe
00000260: 64cd b23d 5cba 0f3f 9369 093f 835c c53e
00000270: 8171 0a3e 1f45 193f 92da 283e b61c 513e
0.6065916 0.36851284 0.8224667 1.0584056 0.90963763 0.1916547 -0.2540567 -0.06385272
-0.014732538 0.056771476 0.07731926 -0.20748894 -0.27991906 -0.09477214 -0.36704937 -0.22264698
0.22692418 0.45193142 0.36706927 0.6866378 0.23427135 0.727458 0.53515166 0.64699316
0.85998046 -0.08269251 -0.07303426 0.376256 0.08438067 0.21954754 -0.1715095 0.2288003
-0.008461979 0.28402457 0.08030986 0.30637658 0.07445421 0.09197831 0.42202002 0.4228055
-0.24559918 -0.22284864 -0.0953063 0.117190905 -0.3570211 -0.0039340276 0.061213754 0.2556799
-0.29816544 0.06350088 -0.21382166 0.13076659 -0.20902692 -0.33065978 0.13865487 0.21395038
-0.20563741 0.071985535 0.16666868 0.4297292 -0.2861469 0.047091164 -0.0041782903 0.16917066
0.70592934 0.09507775 0.014761554 0.20592096 -0.2009961 0.4270348 0.30213138 -0.2071652
0.43658096 0.14527223 0.16224822 0.19656037 0.05510061 0.013992038 0.32858047 0.17023838
-0.086698584 -0.18515275 0.15353726 0.60045236 1.4008862 -0.038815536 -0.18067853 -0.0066102175
-0.25425082 0.1816942 0.48677656 0.08817652 0.08276704 -0.1565518 0.09934017 0.39422044
-0.03692173 0.24968483 0.021719286 0.5667029 0.09596368 -0.008055591 0.16252917 -0.06302942
0.9974726 0.15732428 -0.028172046 0.0932179 -0.073579654 -0.32694286 0.1746367 0.31896648
0.30040315 0.0022391009 0.42415318 -0.07522814 -0.16461007 0.21492465 -0.20025134 -0.5593636
0.29045415 0.47899646 0.47928202 0.70841104 0.7137693 0.30179945 0.2192299 -0.1829271
0.07398647 -0.5657215 0.045539636 -0.09158489 -0.1682602 0.152006 -0.126086 0.22891583
0.5291212 -0.0017006422 0.5751676 0.4156321 0.36460915 0.36616018 0.49121276 0.46220708
0.43714252 0.24270302 -0.09311779 0.0015433343 0.18214339 0.34071347 -0.07790391 -0.13812597
0.087305814 0.56143737 0.5367672 0.38547143 0.13519861 0.59871095 0.16489628 0.20421109

rnn.weight_hh_l0 f4 [32, 8]
00000000: 73f8 06be bb7c 6ebf bc95 45bd 09a1 423f
00000010: f791 4f3f 15a9 9fbe b647 fd3e 0a09 4dbf
00000020: 4cba 483e ed4c ebbd 249f 553e f7d0 853e
00000030: 7d9a d73e 7a83 9b3e 2a21 183f 98fd a6bd
00000040: 1704 d8be 0301 55be 7cb5 c93e 6962 353d
00000050: 4d07 9ebe e903 c63e 9047 9bbe 9912 a63e
00000060: c260 3dbe 8282 073d bcd8 cebb a619 31bd
00000070: da71 363e 58f0 6abc 5b79 21bd c2f3 68be
00000080: bd3c 1d3e 699b a1be 55ad 1c3e 3448 823b
00000090: 5371 b13e 20d7 10be 08ca 063e 782b 0ebf
000000a0: ada0 763e eb20 cc3a adbc ab3d 96b0 193e
000000b0: d2e2 7cbd 3656 cabc 06fb b93e 9dbc 703e
000000c0: 0171 be3d 3b2d 8d3e 4ccf ebbd e481 7f3e
000000d0: 96e5 d73a 9cb3 f53b 1990 3fbe adfa dabd
000000e0: 4212 463e ec60 f63c 28c8 cbbd d5de 523e
000000f0: 0c44 173e be1a 9e3e ffc0 e0bc d8f1 69be
00000100: 8033 adbe 4125 dd3e b6d4 e23e 4a8d 5ab9
00000110: 39d1 d6be 3c42 13bc ad1f f43c 92f0 e33e
00000120: fcd6 20bf c4de a1be ce1e 723e cdef 793e
00000130: a6a6 993d f99a b53e f625 103f 2d66 8b3d
00000140: fa77 c4be 22ee 3f3e 7ead ee3d 8e03 213d
00000150: 592e babe c7b9 913c e211 bdbd 9e98 20be
00000160: 9d56 51be b504 f23e c30b bfbe 0c1a 43be
00000170: b668 8c3e d77d a4be 80c0 9c3c d762 693e
00000180: 1a96 99be d8a6 443f cddc 47bd 18c4 c8be
00000190: b61e f9be b830 1abe 694a e2be 2562 cb3e
000001a0: 9da4 b63b c8bd b63e dae8 9bbd fdb6 f1bd
000001b0: 29f4 c1bd 601f 013f 2bf0 c6be 43f8 403d
000001c0: cb1a a1be af1f 2a3f 4ccb 13be 7a9d 1b3d
000001d0: 4cc5 eabd 3ac6 e7bd f8a2 51be 4545 f03e
000001e0: 64b2 673e 241e 9c3d 4d49 323c bc7b 6b3e
000001f0: dea5 17be c796 b73e 4538 133e c2f7 cb3e
00000200: 43b0 0ebd 5b6c ca3e a505 bebe 2739 4bbd
00000210: a36e 5cbe 7985 cabe a8e9 b0be 4eed 063f
00000220: b447 41bf f2a8 9ebb ada9 9ebe f7d9 38bf
00000230: 5fcc 21bf 0662 783e 1b6e 80bf 870a 1d3d
00000240: 65bc 233e da14 b9bb 3386 0bbe 1865 7cbd
00000250: 0132 c73d 4156 4b3e ad2f 003e 4fc0 75bd
00000260: e284 863e 9f0e 54bd 57f3 0a3e aeab 56bd
00000270: 5ca8 beba f824 a9bd 8fad 03bd a451 f1bc
00000280: 22bf d7be d1e3 023e ec39 483e 4611 21be
00000290: 59ef 8cbe 46b3 a1bd b4b4 94be d1e4 563e
000002a0: 71d6 ff3e dfde 3e3d eab0 19be adfe 38bb
000002b0: cf3f 823e 5bbf 86be 671b a43e 3235 61bd
000002c0: c311 b7be 14dc 443f ee84 b53d 8558 5dbe
000002d0: 6a87 bb3e 6b74 bdbe 3984 16be 283a c43e
000002e0: 6daf 833e 7907 17bf 9184 e7bd 1954 9c3e
000002f0: 7497 2f3e 64b0 84be 9df1 c33c c7c9 efbe
00000300: 0e8e 22be c1a9 c9be 119d 8fbd d16e 863e
00000310: b6ac e53e 5523 2fbd 6387 e83e ffc0 d8be
00000320: 97bc c23e 9590 273e 0cab 85be 0bff 693d
00000330: 751e 0d3f 5413 593d 1c39 e93e f95a 8cbe
00000340: 50a7 353d 61ff 383e 8326 573e 0518 acbd
00000350: a7d6 aabd 3153 adbc 5a00 1fbe b625 3d3e
00000360: 816d d7bd d99d f93e 415b ff3d 2f7c b23e
00000370: 30ff 553e 2e20 343e 5d5d 843e 7d7a 763e
00000380: cce2 47bd ace0 b93d 62ce e33d 5ee6 d53e
00000390: 0d56 c63e ae86 e83d 7355 0e3d 6bef a2be
000003a0: cff8 f7bd fc99 283d d7d6 0ebe 1009 373e
000003b0: d628 b4be 054c 853e 7aba aabe 41df 7fbe
000003c0: 3a8c 75be 7595 cf3e 38b2 17bf 75f4 523e
000003d0: cf77 9a3e 1991 f93d f944 5f3e a24c dfbd
000003e0: f78e 79bd 9962 c2bd e71b 163c 1dfd d23e
000003f0: d2a9 a83e 42ad e5bd f6cf 6f3e 36bd 3e3e
-0.13180713 -0.93159074 -0.0482385 0.7602697 0.810821 -0.31183687 0.49468774 -0.8009192
0.19602317 -0.11489282 0.20861489 0.2613599 0.42110053 0.30373746 0.59425604 -0.08153838
-0.4219062 -0.20801167 0.39396274 0.044283304 -0.30864945 0.38674858 -0.30328035 0.32436064
-0.18493941 0.033083446 -0.006312458 -0.04323735 0.17816868 -0.014339529 -0.039422374 -0.22749236
0.15355201 -0.3156388 0.15300496 0.0039758924 0.34656772 -0.14144564 0.13163006 -0.5553508
0.2408473 0.0015573775 0.083855964 0.15008768 -0.06173975 -0.024699312 0.36324328 0.2350945
0.092988975 0.2757357 -0.11514148 0.24951893 0.001647162 0.0074982177 -0.18707313 -0.10692344
0.19342902 0.030075513 -0.09950286 0.20592816 0.14772052 0.30879778 -0.027435778 -0.22846162
-0.33828354 0.43192485 0.4430291 -0.00020842734 -0.419565 -0.0089879595 0.02980026 0.44519478
-0.6282804 -0.3161527 0.23644564 0.24407883 0.07502489 0.35469797 0.56307924 0.06806598
-0.38372785 0.18743184 0.11654185 0.03931003 -0.36363485 0.01778878 -0.092319265 -0.15683219
-0.20443197 0.47269216 -0.3731366 -0.19052905 0.27423638 -0.32127258 0.01913476 0.2279161
-0.2999733 0.76817083 -0.048794556 -0.39212108 -0.48656243 -0.15057647 -0.44197395 0.39723316
0.0055738227 0.35691667 -0.07612772 -0.1180248 -0.09470398 0.504385 -0.3885511 0.04711176
-0.31465754 0.66454595 -0.1443302 0.03799198 -0.11463413 -0.113171056 -0.20472324 0.46927848
0.22626644 0.07622936 0.010881734 0.2299642 -0.14809367 0.3585722 0.14376934 0.39837462
-0.034836065 0.39535794 -0.3711368 -0.04961505 -0.2152658 -0.39554957 -0.34553266 0.5270585
-0.75500035 -0.004841917 -0.30988827 -0.7220759 -0.6320247 0.24256143 -1.0033602 0.038340118
0.15989836 -0.0056482377 -0.13625412 -0.061619848 0.09726334 0.19857122 0.12518187 -0.059997853
0.26273257 -0.051771756 0.1356939 -0.05240982 -0.0014546025 -0.08259004 -0.03214794 -0.029457875
-0.4213801 0.12782218 0.19553345 -0.15729246 -0.27526358 -0.07895522 -0.29044116 0.20985724
0.49968293 0.046599265 -0.15008894 -0.002822797 0.25439307 -0.26317868 0.32052156 -0.05498237
-0.3575574 0.7689831 0.08863245 -0.21615799 0.3662675 -0.37002882 -0.14698876 0.3832562
0.25719777 -0.5899578 -0.11304582 0.3053291 0.17147619 -0.25915825 0.023918921 -0.4683363
-0.15874502 -0.39387324 -0.0701238 0.2625642 0.4485833 -0.042758305 0.45415792 -0.42334744
0.38034508 0.16363747 -0.2610706 0.057127994 0.551246 0.05299695 0.45551383 -0.27413157
0.044349015 0.1806617 0.21010785 -0.08403019 -0.08341723 -0.021157833 -0.15527478 0.18471417
-0.10518933 0.4875324 0.12468577 0.3486037 0.20898128 0.175904 0.2585248 0.24070163
-0.048800275 0.09076056 0.11123349 0.4177732 0.38737527 0.11353813 0.03474946 -0.31823286
-0.12108003 0.041162476 -0.13949142 0.17874551 -0.35187405 0.2603456 -0.33345395 -0.24987508
-0.23979273 0.40543714 -0.59256315 0.20601065 0.30169532 0.12185878 0.21803655 -0.109032884
-0.060927358 -0.09491462 0.009161926 0.41208735 0.32942063 -0.11214687 0.23419175 0.18626866

rnn.bias_ih_l0 f4 [32]
00000000: 9a36 ef3e 4120 04bd c375 c8be d852 933d
00000010: 06bf e53e 6982 cdbd 35cc 4ebe dd8d 1ebc
00000020: 50b7 a7be 5bd2 9d3e 450c 59be cf9d 313d
00000030: 97c4 fbbd e29a 2c3e a622 babd 58be d6bd
00000040: 6c09 4ebe 047b 8fbd b020 36be 7700 ba3d
00000050: a290 273e 7809 09be e913 a1be 8515 08be
00000060: 6aa5 9c3e 7001 a53b 2395 9fbe 2ce8 e33d
00000070: 5ae6 a73e 15af 273e d557 0a3d 6957 01bd
0.46721345 -0.032257322 -0.39152345 0.071935356 0.44872302 -0.100346394 -0.20195086 -0.0096773775
-0.32757044 0.3082455 -0.21196087 0.04336339 -0.12293356 0.16855958 -0.0908864 -0.10485524
-0.20120782 -0.07005885 -0.17785907 0.0908212 0.16363767 -0.13382518 -0.31460503 -0.13289459
0.3059495 0.0050355718 -0.3116847 0.11128268 0.32792932 0.16375382 0.03377517 -0.0315775

rnn.bias_hh_l0 f4 [32]
00000000: 9e9c c33e 9bf4 ff3e 2b2a 0abe 1d03 1bbc
00000010: 072d 073e 6132 693e fe49 943e b08c 5a3e
00000020: d43f aabe 8e14 073f 1b47 adbe d510 80be
00000030: 9ea7 df3d 57e8 e03c 4d9f 6bbe b9ec 2e3e
00000040: f74a bfbe 4880 7fbd 4bd2 c33d 9ff7 d23d
00000050: f486 3cbe 895e 0ebd bbc5 553e 40a9 11be
00000060: 2166 043f 54ef e53d 0afb 893a 8dca 1d3e
00000070: dc91 983e 4bb6 32bd 400c 6b3e 88ba cb3d
0.38205427 0.49991307 -0.13492648 -0.0094611915 0.1320077 0.22773124 0.28962702 0.2134273
-0.33251822 0.5276574 -0.33843312 -0.25012842 0.10920642 0.027454538 -0.23009987 0.1708249
-0.3736188 -0.062378198 0.095615946 0.10301136 -0.18410856 -0.034758125 0.2087621 -0.1422472
0.51718336 0.11227289 0.0010527086 0.15409298 0.29798782 -0.04363088 0.22953892 0.099476874

rnn.weight_ih_l1 f4 [32, 8]
00000000: ac91 193f 2d61 943e 5949 9ebd 7d2e e8bc
00000010: 16a1 213c 53a0 f1be 65a2 7dbd d6aa 0bbf
00000020: 9aa8 c4be d18c 1abe bcc6 1fbe 2596 fcbe
00000030: ea81 bdbe 947c 963d c24a e8bd 7ebf 1abe
00000040: 4a74 6e3d 0f52 bcbe c975 dbbd 61d3 b3be
00000050: bfe1 95be e91b 623e 2838 cb3d b50b 093e
00000060: d0cd 4abd 3cf9 6abe 0d1d 263e 7e3c 4c3e
00000070: a91a 9d3e 5bcc 543e 4309 133e eb5b 94be
00000080: f6ef 70be 5639 27be f2b1 453e 92a0 e6bd
00000090: ca1d 91bd 7cb1 8c3e 46c4 c93d 97fd e43d
000000a0: 4f79 72be 94ef 0dbf 7605 a9bb 42e3 093e
000000b0: 23a6 e8bd 961b b43d 5cbe 84bd 4e16 1cbf
000000c0: 6251 d1bd b891 2bbe 6e78 a3be d277 b73e
000000d0: f061 3f3e 4f4f 60be 288a 18be 4a7e 4ebe
000000e0: 6ec7 b03e b37c 6c3e 424f 133c 603f bdbb
000000f0: a155 7f3e 79bb 15be d6d4 ecbd e634 ae3d
00000100: 7bcf a03e a86a a53e 6541 a9bd 0e36 103e
00000110: f776 ac3e 032b 283d a4ff cdbd 1a16 5c3e
00000120: f032 d43d 20a9 99be a639 3cbe 3979 5d3d
00000130: b4c6 8cbe d682 c23e 4755 fd3c e64f 983e
00000140: 3329 e93d f3c2 49bd 94de c73e 418f 253e
00000150: 0144 92bd 8df9 e03e db1a e1ba 5caf babd
00000160: 1d40 c73e 712a 333f d3b5 b8bd 6a9a b63e
00000170: dc8c ff3e 47ce 0b3e 3663 8c3e 497a a93b
00000180: f7cb eb3d 2c0c fabd f161 a5bd 9884 d0be
00000190: a7c9 15be 8251 59be 5495 673d 82d3 6c3e
000001a0: 6387 5bbd 51b2 c5bd a5b5 23bb cdf0 c7be
000001b0: 254b c4be 1ad2 17be 35f5 983e 04ac 513e
000001c0: 0e8c 043f fc2f 803e edfd 41bd 03a6 2d3e
000001d0: dacb 1c3e da0a b6be 6578 843e 814f b4bc
000001e0: acb4 f83e 6d7d a53e 65db 473e c3eb 8b3e
000001f0: 9f1d 32bc 6dd9 34be a380 273e e8f9 343e
00000200: eb37 52be 5b35 d5be c140 d93d bbf3 e4be
00000210: 871a f43d e285 fe3e ed8f 75be 9c20 eb3e
00000220: 2ddb 233e 9f30 f73e 022c d33d 68c9 57be
00000230: 4fcb b6be 7521 3a3d 1686 d3bd 8800 6d3d
00000240: 62e0 6f3e 79cd b3be 5eaa 193e 6196 a33e
00000250: c755 59be 8b2c f83d 5f37 993d b3d1 463e
00000260: d8b7 25bf f6b0 53be 9e89 963d 1976 3ebe
00000270: e885 88bd 0c2b afbd 54f4 70be 3b82 76bd
00000280: ff74 91be 7c05 143e 4ffd 3abe a5ca 22be
00000290: c204 b6bd 4dbd 58be 2ebf 9dbe 0d31 bb3e
000002a0: 8df9 abbe a76e f1be 148e 5fbe ecb4 f9be
000002b0: 89c9 2cbf 9234 d93e 90db 913d 81b0 9d3c
000002c0: 6ebb d33e 203f 923e ecec d1bd aa26 ee3e
000002d0: 4a0a e53e 6772 093e a16b 7b3e cb2b 89bd
000002e0: 158c 7dbd 5b70 fa3d fef4 2c3e 797a 8abe
000002f0: 5bce 1abe 177f cb3e 9f12 47be 175a 173e
00000300: 5455 333f 5ab4 153e 7689 2fbe 9193 933d
00000310: 70d6 e93d fe29 b0be bceb 7b3e bdee 15bf
00000320: 6dfa 0cbf 4f3c c73d f376 b83d 32cd e8be
00000330: 53b5 f5be 344b 0fbd 5acb 87bd f446 ac3e
00000340: 12df 0fbf f554 4d3e 4dc6 803e e43e 8ebd
00000350: 283b 15bf 96af 193e f0ae a4be a3fb 873d
00000360: 8733 083f a1c7 3b3e 2d27 75be 7feb e93e
00000370: 0f50 0e3e 02c4 0f3e fc33 063d 2cc4 e8be
00000380: 351e 773e b58f 9c3c 5208 973e aa8b 953e
00000390: 7e85 7dbe c413 5c3d f7df c93e 1de9 953e
000003a0: 3150 1dbe 7284 05bf 39ea 9e3e 9325 033f
000003b0: 76dd 073f 8877 7f3e 6d5f 853d 9c71 98be
000003c0: 30db 71bd 1654 babc 7458 06be 8a19 f13d
000003d0: 67da 463e 6882 573d b24d 4c3e dafd bfbd
000003e0: 9c2a 943e ae96 213e a631 773e ca50 d8bd
000003f0: 7a82 7d3e 9aad 6fbe 89f8 d73d 5053 bdbe
0.599879 0.2898039 -0.07728834 -0.02834248 0.009865066 -0.4719263 -0.06192245 -0.5455755
-0.38409883 -0.1509278 -0.15603155 -0.493333 -0.3701318 0.0734798 -0.11342384 -0.15112111
0.05821637 -0.36781356 -0.10715825 -0.35122207 -0.29273793 0.2208096 0.0992282 0.13383372
-0.049512684 -0.22946638 0.1622202 0.19944951 0.30684403 0.2078108 0.14359002 -0.28976378
-0.23529038 -0.16330466 0.19306162 -0.11261095 -0.0708576 0.2747916 0.09851889 0.11181181
-0.23679088 -0.5544369 -0.0051581217 0.13465598 -0.11359813 0.08794324 -0.06481621 -0.60971534
-0.10220601 -0.16754806 -0.31927818 0.35833603 0.18689704 -0.21905254 -0.14896452 -0.20165363
0.34527153 0.23094444 0.0089910645 -0.005775377 0.24935009 -0.14622296 -0.11564033 0.08506183
0.31408295 0.32307935 -0.08264426 0.1408312 0.33684513 0.041056644 -0.10058525 0.21492806
0.10361278 -0.30011845 -0.18381366 0.054070685 -0.27495348 0.37990445 0.030924452 0.29748458
0.11384811 -0.049258184 0.39037 0.16167928 -0.07141877 0.43940392 -0.0017174141 -0.091154784
0.38916102 0.69986635 -0.09019055 0.35664684 0.49912155 0.13652907 0.27419442 0.005172048
0.115135126 -0.12209353 -0.080753215 -0.4072616 -0.14627706 -0.21222499 0.056538895 0.23127559
-0.05359591 -0.09653152 -0.0024980095 -0.39050904 -0.3833858 -0.14826241 0.29874578 0.20475775
0.51776206 0.2503661 -0.047361303 0.1695786 0.15312138 -0.35555154 0.25873104 -0.022010567
0.48575342 0.32322255 0.19517286 0.2732831 -0.01087132 -0.17661066 0.16357665 0.17673457
-0.20529144 -0.4164227 0.10608054 -0.44717202 0.11919122 0.4971152 -0.23980685 0.45923316
0.16001578 0.48279282 0.10311128 -0.21072924 -0.35701987 0.045442063 -0.10328309 0.057861835
0.23425439 -0.351177 0.15006396 0.31950668 -0.21224128 0.12117871 0.07481264 0.19415931
-0.6473365 -0.20672974 0.07350467 -0.18599738 -0.066661656 -0.085531324 -0.23530704 -0.06018279
-0.28409573 0.14455217 -0.18260692 -0.15897615 -0.08887626 -0.21165963 -0.3080992 0.3656086
-0.3358883 -0.47154734 -0.21831542 -0.48770845 -0.6749502 0.4242292 0.07121956 0.019249203
0.41353935 0.28563786 -0.102502674 0.46513873 0.44734412 0.13422547 0.24552776 -0.06697806
-0.06190117 0.12228461 0.16890332 -0.27046564 -0.15117781 0.397454 -0.19440697 0.1478046
0.70052075 0.1461958 -0.17142281 0.072058804 0.11417854 -0.34407037 0.24601644 -0.5856741
-0.5506962 0.097283 0.09007063 -0.45469052 -0.47989902 -0.03498383 -0.06630583 0.33647883
-0.56199753 0.2005194 0.2515129 -0.06945589 -0.5829339 0.15008387 -0.32164717 0.06639793
0.53203624 0.18337871 -0.23940726 0.45687482 0.13897727 0.14039615 0.03276442 -0.45462167
0.24132617 0.019111494 0.29498535 0.29208118 -0.24757954 0.053729787 0.39428684 0.29279414
-0.15362622 -0.5215522 0.31038073 0.5122921 0.530723 0.24947941 0.06512342 -0.29774177
-0.059046924 -0.022745173 -0.1311968 0.11772449 0.19419251 0.0526146 0.19951513 -0.0937459
0.28938758 0.15780136 0.24140033 -0.10562284 0.24756804 -0.23406067 0.10545451 -0.36977625

rnn.weight_hh_l1 f4 [32, 8]
00000000: aed3 8dbe 335c b93e 37ed aa3e 8120 80be
00000010: 2c94 0c3f 9de5 87bd c6e2 093e fa4e 293e
00000020: 83a1 fd3d a2e5 78bd 7990 233e 5c94 5dbe
00000030: 21d6 42bd 9e4b 543e 7c4d a63d 1600 163e
00000040: fff2 b9be e909 75be ece7 563e a433 03be
00000050: c514 3c3e 2b3d c3be e997 653d c584 57be
00000060: d9bb 883e a9ec 83ba 64e6 a13e c719 743d
00000070: 2c5b cdbc 33e8 e9bc c972 82be 77c2 96be
00000080: cd89 3ebe 2e0e 9fbe 9b32 94bd 48d3 ffbe
00000090: 2f93 58be 8467 07be bce9 423d ed9a 8cbd
000000a0: 748c c3bd 82df e0bc cdde 1f3f 8828 853d
000000b0: 456c 4d3d d2f1 8dbe f49d e33e f83d c6be
000000c0: 0a70 5bbe 1c6b 70be 5917 013f b186 b7bc
000000d0: 2115 32bd 1d2d 80be 9294 28be 9452 713e
000000e0: e3e5 2c3e ad57 59be 5b72 f83c dec2 093e
000000f0: 3b11 aa3e 4245 933e 7576 7cbe c96e a2bc
00000100: 18cf 18be 7a50 943e e3ce 1ebe 45bf 433d
00000110: aabc c93e 465a b13e d543 d9bc fe18 88be
00000120: 6784 0bbe 06b7 063e 1216 053e 729a 7a3d
00000130: c354 103d 2f21 56be b4e7 a0be bc6a 33be
00000140: 7e13 e63b 931d aabe b046 79be c0ce 21bd
00000150: 89f0 a43c 6b5c b1be f526 2cbe aaa4 2f3e
00000160: a6da f1bd 305b 913e 3eb9 16be e8ea b03d
00000170: 7d5d 5a3e 9f17 0d3c cca9 15be 261e 7d3d
00000180: 2335 003f ac86 673e 5526 67be 6ba6 f2bd
00000190: f3cf dcbe e2f3 3c3e 45a5 e1be be65 27be
000001a0: 7b75 b23e 43ba 5ebd 835e 6c3e b976 8f3e
000001b0: d767 b13e f89a c33d bc90 b13e 0fa4 823e
000001c0: efe7 3a3d 9164 ea3c b20a cebe ad92 c23e
000001d0: f0e6 213f 2506 2c3e d311 42be f671 023f
000001e0: 9a5f 3c3e 7744 88be 9943 0d3d fd38 a4be
000001f0: 49df ca3e d779 2dbd ba29 aa3e 691b 5f3e
00000200: 51d8 e83e d9cf b1bd 57a2 75be ad92 cebc
00000210: 4111 163e 7332 d0bd cf04 cbbe be3b 523e
00000220: 47c1 3a3e 09b7 ebbe 641b 783c 5820 0e3f
00000230: bfe9 593e 03a0 883e c1c0 10bf f06d 883e
00000240: 87ec babe 5770 313e 2bda e93d fec1 20be
00000250: 8dba dfbc a814 41be 7c57 7abd bc4e e53c
00000260: c0fc 20be df9e cebd 7ebe c1bd f073 02bd
00000270: ff90 e0bd 0416 78be d745 8abe 48fc 453e
00000280: 3968 b63d 9bf3 eabe f54d bf3c 9858 f1bd
00000290: 5c37 17be 1dcc 133e aa4f 893e d7c5 203a
000002a0: 7a81 8bbe 3b9b d0be 9331 f73d 9c9d c6be
000002b0: f848 273b d2bd f3be 9f3f a0be e823 b3bd
000002c0: 13ca 543e b8d8 933e 15e1 dcbe 6c16 0cbe
000002d0: 52e6 b13e 69d6 1c3d 6f4e 30be 14e0 e2bd
000002e0: dac3 5a3e 95c1 163e 02ec dabd 73b6 f23d
000002f0: 6223 0f3e 678a 473c 034c 63be ed9c e3bd
00000300: 1e2d 353e 213d 2ebe d3a9 02bd 39b1 9ebe
00000310: 99bd 9d3e b48b 82be 8a15 57be d4d7 7ebe
00000320: 3d37 163d fe1b 71be afde af3e cc5e 183e
00000330: 0115 7fbe 376b f5bd ead8 17be bd5d f23d
00000340: f613 b5be 2048 a43d c804 1abe b713 06be
00000350: add7 b4be 6a60 b1be 7c08 8abd af4d f1be
00000360: 96bd 6fbc 3583 93be f4ec 34bc a97c 30be
00000370: f1ab 383e eb16 58bd b974 593e 33e7 adbe
00000380: 18da 44be 71de 49bd fbae 7e3e 9f0b 253e
00000390: 5ee0 333d 77ba 28be be38 2ebd 5ac9 d5be
000003a0: 82de f4be ba89 9fbe 8997 103f 8d55 62be
000003b0: bdfd 2ebd 54eb 463d aac1 e23e e407 0abf
000003c0: 09c7 e2be 47c4 ad3c 2990 b3bd b479 9dbe
000003d0: b9e6 6e3e df17 28bd 900e c83e e02e 17be
000003e0: 6cd7 753e 3651 7fbd e26b 12be d1e0 91be
000003f0: 8e76 863e 7d87 25be 7d45 9d3e 2613 813d
-0.2770056 0.36203155 0.33384106 -0.250248 0.5491359 -0.06635592 0.13465413 0.16534033
0.123843215 -0.06076587 0.1597308 -0.21638626 -0.04756749 0.2073197 0.08120248 0.1464847
-0.36318204 -0.23929562 0.20986909 -0.12812668 0.18367298 -0.38132605 0.056053076 -0.21046741
0.26705816 -0.0010065037 0.31621087 0.059594896 -0.025067888 -0.028553104 -0.254782 -0.2944524
-0.18607254 -0.31065506 -0.07236215 -0.49965882 -0.21149896 -0.13223082 0.047586188 -0.06865487
-0.09548274 -0.027450327 0.6244934 0.06501871 0.050152082 -0.27723557 0.44456446 -0.38719153
-0.21429458 -0.23478359 0.5042625 -0.022403093 -0.04347718 -0.2503442 -0.16462925 0.23566657
0.1688457 -0.21224852 0.030327966 0.13453242 0.3321627 0.28763777 -0.24654563 -0.019828217
-0.1492275 0.2896765 -0.15508609 0.04778983 0.39401752 0.34639186 -0.026521603 -0.26581568
-0.13624726 0.13155755 0.129967 0.061182447 0.035237085 -0.20911096 -0.31426775 -0.17521185
0.0070213666 -0.33225688 -0.24343371 -0.039503813 0.020134227 -0.34640822 -0.16811736 0.17152658
-0.11809282 0.28389883 -0.14719102 0.08638555 0.21324725 0.008611589 -0.14615554 0.06179633
0.5008108 0.22609967 -0.22573216 -0.11848148 -0.43127403 0.18452409 -0.44071403 -0.16347405
0.34855255 -0.05437685 0.23082928 0.28020266 0.34649536 0.09551042 0.34680736 0.25515792
0.045631345 0.028612407 -0.40242535 0.3800253 0.6324301 0.16799219 -0.18952112 0.5095514
0.18395844 -0.26614735 0.034488294 -0.3207473 0.39623478 -0.042352524 0.3323496 0.217878
0.45477536 -0.08682222 -0.23987709 -0.025216425 0.1465502 -0.101658724 -0.39652106 0.20530602
0.18237792 -0.46038082 0.015143249 0.555181 0.21280573 0.2668458 -0.5654412 0.26646376
-0.3650858 0.1732801 0.11418565 -0.15699002 -0.027310634 -0.18855536 -0.061118588 0.027991645
-0.15721416 -0.10088896 -0.094601616 -0.031848848 -0.10965156 -0.24227148 -0.2700641 0.19334519
0.08906598 -0.4588898 0.023352602 -0.11784476 -0.14767212 0.14433332 0.2681859 0.0006132996
-0.2724722 -0.4074343 0.120700024 -0.3879212 0.002552567 -0.4760576 -0.3129854 -0.08747083
0.2078021 0.2887628 -0.43140474 -0.13680428 0.34746033 0.038290415 -0.1721742 -0.11077896
0.21363774 0.14722283 -0.10689546 0.11851206 0.13978341 0.012178994 -0.22196965 -0.111139156
0.17692992 -0.17015506 -0.03190024 -0.30994585 0.30808714 -0.2549721 -0.2100431 -0.2488702
0.036673773 -0.23545834 0.34349582 0.14879912 -0.24910356 -0.1198334 -0.1482884 0.118342854
-0.3536679 0.08021569 -0.15040886 -0.13093458 -0.35320798 -0.3464387 -0.067398995 -0.4712958
-0.014632603 -0.2881104 -0.011042822 -0.17235054 0.1803434 -0.05275623 0.21235932 -0.33965454
-0.19223821 -0.049284402 0.24871437 0.16117714 0.043915145 -0.1647738 -0.042534582 -0.41755182
-0.4782601 -0.31159765 0.56481224 -0.22102948 -0.042722452 0.04856427 0.4428838 -0.5391829
-0.44292477 0.021211756 -0.08767731 -0.30756915 0.23330201 -0.04103839 0.3907361 -0.14763975
0.24007958 -0.06233331 -0.14298967 -0.28491834 0.26262325 -0.16164966 0.30717078 0.063024804

rnn.bias_ih_l1 f4 [32]
00000000: a01e 813c cf82 9b3d 26de e93d 2931 64bd
00000010: 95d4 e3be 5a6c ce3e d52d 293e 0f16 e83b
00000020: 1c5f a33e d094 9ebe 7572 933d e8f4 b9bd
00000030: 087d 8c3c 5c9b 01bf c4d2 823c 44b6 d13d
00000040: 3454 2bbe 8a21 953d 276b 753e 4347 81be
00000050: df99 803d f212 5f3e 923c 793e ace0 9bbe
00000060: 7e7c 3ebe 00a9 e6be 1379 c1be c839 073d
00000070: 4e3d d3bb abf2 f13e 2013 7b3e c528 a23e
0.015761673 0.07593309 0.114193246 -0.055710945 -0.44498125 0.4031704 0.1652139 0.0070827077
0.319085 -0.3097291 0.07199565 -0.09079915 0.017149463 -0.50627685 0.015969642 0.102398425
-0.1673134 0.07281788 0.23966657 -0.2524968 0.062793486 0.21784571 0.24339512 -0.3044485
-0.18602178 -0.45050812 -0.37787685 0.03301409 -0.006446517 0.47255453 0.24519014 0.3167173

rnn.bias_hh_l1 f4 [32]
00000000: 0bfe 10be 624b 95bd 07b6 dfbd c8f5 873e
00000010: 4678 c6bd a821 c33e a033 6b3d 004b 6e3e
00000020: 770d 183e 7163 4a3d 47f1 023e a236 33bc
00000030: be78 78be 4614 c73d 68dc 743e 5434 73bd
00000040: fb32 d3bd 860a 7a3d 4c4d c73c 9ca6 fdbd
00000050: 2b46 c2bd a4ca 15be a9d4 bcbd a7e5 41bd
00000060: c9e2 c23d e6af bebe 09c5 3b3e 7a51 f53d
00000070: 750e d2be 26ea b63e 0965 55be 60c8 d5bd
-0.1415941 -0.07289769 -0.10923391 0.26554704 -0.09690909 0.38111615 0.05742228 0.23270798
0.14848886 0.04941124 0.12787353 -0.010938318 -0.2426481 0.09720664 0.23912203 -0.059376076
-0.10312458 0.061045192 0.02432885 -0.12385294 -0.0948604 -0.14628083 -0.09220249 -0.047338154
0.09515912 -0.37243575 0.18336882 0.11978431 -0.41026655 0.35725516 -0.20839323 -0.10438609

reg.weight f4 [1, 8]
00000000: 463c 99be 2673 793d 916a 87bd f3fd dfbe
00000010: 3f12 71be 9454 05bf d9fa af3e e6e2 debe
-0.29928797 0.06090083 -0.06612123 -0.43748435 -0.23542117 -0.5208218 0.3437107 -0.43532485
