模型代码/LSTM/weights/123.pth (torch_old, 5737 bytes, 9 tensors)

rnn.weight_ih_l0 f4 [32, 5]
000000 e2 0d ee bd c0 a7 ad 3d 9d e2 9a 3d 78 54 bc be
       -0.11623742 0.084792614 0.07562754 -0.36783195
000010 92 ed 29 bf 79 a2 80 bd ac 6f 5f be 3b ff 06 bd
       -0.6637813 -0.06280989 -0.21819943 -0.03295825
000020 29 cd 98 3d f6 6b f7 3e dc 2c ef bd 4c 32 26 3d
       0.07461006 0.48324555 -0.11678478 0.04057531
000030 73 43 a9 3c 36 32 01 3b f9 90 07 bf 0a 1a 05 3f
       0.020662045 0.0019713766 -0.52955586 0.5199286
000040 2d 96 b6 3e 6f 95 10 3f 69 7d 04 3f 39 99 82 3f
       0.3566145 0.5647802 0.5175386 1.020301
000050 66 af da 3e 6e 59 22 3e 8e 8e 0c 3f 36 25 7e 3e
       0.42711943 0.15854427 0.5490502 0.24818882
000060 55 28 55 3f 44 50 ce 3e b6 82 ff 3d 31 e5 a3 bd
       0.83264667 0.40295613 0.12476103 -0.08002699
000070 24 c6 69 3e ae fb 71 3f 64 be 43 3e f1 16 e1 3e
       0.22829491 0.9452466 0.19115597 0.43962815
000080 3b 19 b3 3e fb 74 79 3e 44 4a 57 3e de 94 da 3d
       0.34980187 0.24361031 0.21024424 0.106729254
000090 1d 83 65 be 14 a2 31 3e 38 46 1d be a2 92 f2 be
       -0.22413297 0.17346984 -0.15358818 -0.47377497
0000a0 2b 55 8c be d6 90 65 bc 97 ef 25 3e e5 fe 20 bf
       -0.27408728 -0.014011582 0.16204678 -0.6288894
0000b0 03 e1 12 bf b6 19 ac be 9d 14 86 be 50 78 92 be
       -0.5737459 -0.33613366 -0.26187602 -0.28607416
0000c0 00 de 03 3e 2f 17 37 3e cd 94 4f be d2 f7 f2 be
       0.12877655 0.17879938 -0.20271607 -0.47454697
0000d0 ea d2 f4 be 4a 60 17 3d 00 ad 51 bc 39 22 0f 3e
       -0.47817165 0.036957063 -0.012797594 0.13977899
0000e0 9b bf 5c bd 0c 48 c9 be c8 e2 3f 3e 57 a5 a4 3e
       -0.053893667 -0.3931278 0.18738854 0.32157394
0000f0 3b 8a 2c be e4 42 8d 3e 1e 85 99 3e 1f 96 8c 3e
       -0.16849606 0.27590096 0.29984373 0.27458283
000100 a7 8a 06 3d e4 66 d2 be d9 4f c2 3d 4a 3c be bd
       0.032847073 -0.41094124 0.09487886 -0.09288843
000110 86 15 7a be 87 ac 2b 3e d5 87 a2 bd 25 87 93 3e
       -0.24422273 0.16765033 -0.07936064 0.28814045
000120 05 68 87 3d d2 0b 3b be 51 ed d1 3e 4b 12 5b be
       0.06611637 -0.18266228 0.4100137 -0.21393697
000130 ef 18 d1 3e be b1 63 bd db e2 c4 3e dd 1d 99 3d
       0.40839335 -0.05558943 0.38454327 0.07476399
000140 9b a7 5d 3e 10 6c 80 3e 89 42 fc 39 17 38 0d be
       0.21645968 0.25082445 0.00048114758 -0.13790928
000150 d7 ee 79 3e 71 5a 61 bd 3c 6f 3b be a3 dd 8c bd
       0.24407516 -0.055017892 -0.18304151 -0.06878211
000160 70 80 91 be 43 42 93 be 29 ea 6e 3e 40 93 29 be
       -0.28418303 -0.2876149 0.23331513 -0.16560078
000170 d2 57 a0 bc 0e a3 ea 3e 5c 84 91 bd 0e 32 a8 be
       -0.019573126 0.45827526 -0.07105324 -0.3285069
000180 bc 1e 10 3e 8a c1 9a 3e 49 08 84 3d 41 bb 87 3f
       0.14074224 0.30225784 0.06446893 1.060402
000190 fd 8c a1 3e fa 3d 5a be 2e 89 f7 bd b9 ab 89 3e
       0.31552878 -0.21312705 -0.12086712 0.26888826
0001a0 4b 51 3e 3f f3 02 36 bd 3c d2 c9 3d f9 b0 b9 3e
       0.74342793 -0.044436406 0.09854552 0.36267832
0001b0 df 76 ae 3e 7b 7a 09 3f c7 03 54 bd d4 43 a2 3e
       0.34075066 0.53702515 -0.051761415 0.31692374
0001c0 a8 26 00 3e 8e 6c c1 be 34 a0 55 be 4d 30 03 3f
       0.12514746 -0.37778133 -0.20861894 0.51245576
0001d0 a1 38 0d 3f de 7c b5 3e cc ee aa bc e3 c8 73 3e
       0.55164534 0.3544683 -0.02086582 0.23807101
0001e0 ec 5a 96 be 1c 24 06 3e c6 a8 e5 be a7 91 55 be
       -0.29366243 0.13099712 -0.44855326 -0.20856343
0001f0 3e 00 92 bf d6 8a 52 3e b4 35 46 be ac 8b f3 3d
       -1.1406324 0.20560774 -0.19356424 0.11891875
000200 7f 28 57 bd 67 a9 32 3d 48 79 07 3e ca 46 04 bf
       -0.052528854 0.043618586 0.13229859 -0.51670516
000210 42 9e 09 bf df e5 45 be e7 6d 1b bf 8c df 46 3e
       -0.5375711 -0.1932597 -0.6071457 0.19421214
000220 b9 a5 78 3e ea 70 b5 3e db 1f 81 3e 64 73 0a 3f
       0.24281968 0.3543771 0.25219616 0.5408232
000230 89 05 e4 3e 9a da 2e 3f 04 34 63 3e cc 38 d3 3e
       0.44535473 0.6830231 0.22187811 0.4125427
000240 d5 cd b5 3e bd 39 8a 3b e7 76 a1 3c fa 75 73 3e
       0.355086 0.0042183087 0.019710017 0.23775473
000250 36 fc 44 3f ac ed 19 3f fd f1 66 3e d3 23 29 3e
       0.76947343 0.60128284 0.22553249 0.16517572
000260 ac f9 1f be a9 c5 14 3f 67 18 b9 3e 72 ba bd 3c
       -0.15622586 0.58114105 0.3615143 0.023160193
000270 a8 1b db 3e 13 3c 19 3f f0 ff 84 bd fa a3 1b be
       0.42794538 0.5985729 -0.06494129 -0.15199271

rnn.weight_hh_l0 f4 [32, 8]
000000 64 f6 92 be 9e 22 d5 bd 45 e5 25 3e 92 c5 a9 be
       -0.28703606 -0.10406993 0.1620074 -0.33158547
000010 50 21 3b be 16 8d 15 be 3f 27 51 3e d0 bf 1d 3f
       -0.18274426 -0.14604601 0.20425127 0.6162081
000020 05 1c 22 3e d1 1b da 3e 3a be 9f be 9c 86 f0 3e
       0.15831001 0.42599347 -0.3119982 0.469777
000030 f8 86 d4 3d 75 6a 9f 3e 15 b0 ea bb c3 0e f9 3d
       0.10377306 0.31135908 -0.007162104 0.12161019
000040 28 2b 96 bd f8 53 65 3e 1b af 51 3e 1e 1a 49 3e
       -0.0733245 0.22395313 0.20476954 0.19638869
000050 da bd 82 be 8b 09 ea bd ca b6 09 be 12 0c 79 3e
       -0.2553547 -0.114276014 -0.13448635 0.2432101
000060 be 23 0e bf 68 23 e7 3c d8 2b f7 3e 6e eb 9f 3e
       -0.5552329 0.028215125 0.48275638 0.31234306
000070 57 fc 31 3f a2 2d 0c 3f 76 8e a9 3c 0e 44 ab 3f
       0.69525665 0.5475713 0.020697813 1.3380144
000080 3f a8 36 bd 2a b4 42 bd c8 db da 3e 4b 19 c1 3e
       -0.044594046 -0.0475351 0.42745805 0.3771461
000090 df 24 9c 3e 47 66 7d 3d b3 88 d3 be e5 19 6d 3f
       0.3049688 0.061865117 -0.4131523 0.92617637
0000a0 eb 75 a2 3e 87 bd cb bc 8e 16 82 3e f2 fb cc bd
       0.3173059 -0.024870647 0.25407833 -0.10008992
0000b0 e0 de 05 3f af 39 28 3e 9c 47 72 3e a8 63 41 bd
       0.52293205 0.16428255 0.2366013 -0.04721418
0000c0 88 45 1d be cf 8a c3 bd cf ed e5 bd 99 cc f5 3c
       -0.15358555 -0.0954796 -0.11226999 0.030004786
0000d0 79 91 95 3e 95 df 84 be f5 33 62 be b6 af 16 3f
       0.2921255 -0.2595183 -0.22090133 0.58861864
0000e0 17 2e 46 be 8e ea 01 be 6e 0b 83 3d 46 1e 17 3f
       -0.1935352 -0.12687132 0.063986644 0.5903057
0000f0 4f 55 2f 3e e9 d2 d8 bd 36 6c 9e 3e 73 93 1a 3e
       0.17122386 -0.10587103 0.30941933 0.1509531
000100 78 44 67 3d 92 14 aa 3e 85 69 a3 be e2 be f0 bd
       0.05646178 0.3321882 -0.31916443 -0.11755158
000110 3e a6 8e be 9e 0a 0a be 4b 8d a6 3e 54 07 20 be
       -0.27861208 -0.13480613 0.32529673 -0.15627795
000120 2e 23 f6 3e 51 f2 c2 3e 5c 9f 13 be b9 f6 e5 bc
       0.48073715 0.38075498 -0.1441626 -0.028071748
000130 26 c3 c8 3d b4 4c c3 be c6 e4 8e 3e a0 ba a4 3e
       0.098028466 -0.38144457 0.27908915 0.32173634
000140 24 20 00 be 88 c1 b1 bd 79 d7 38 3e f4 57 0f be
       -0.1251226 -0.08679491 0.18050946 -0.13998395
000150 5c 67 93 3d f2 80 ed bd 99 37 9f bd cc 4d d0 3d
       0.071974486 -0.1159686 -0.07774276 0.101710886
000160 76 62 24 3f 72 cf 5d 3e ec b8 96 bd 78 8b 3a 3d
       0.6421274 0.21661165 -0.0735949 0.045543164
000170 6e e2 1b bf 22 d2 0a bf 0d 6d 86 be c2 5a 63 bf
       -0.6089238 -0.5422689 -0.26255074 -0.8881036
000180 4b 82 1a 3e dc b2 4a 3e 8c dc 28 3e 80 f3 2f 3e
       0.15088765 0.19794792 0.16490382 0.17182732
000190 ae 65 c5 be 54 ed a6 3d 93 a0 04 3e 0d 2e 15 bf
       -0.38554138 0.081507355 0.12951879 -0.5827339
0001a0 8d 5d 10 3f 9f 40 aa 3d 4c 88 32 bd 8b 0b 9a 3c
       0.5639275 0.08313107 -0.043587014 0.018804332
0001b0 bb 96 a9 bd c2 ef 82 3d 2e d0 80 3e 4a 8d 74 bf
       -0.08280703 0.063933864 0.25158828 -0.9552809
0001c0 07 fc d7 3e 1f 35 9f 3e d7 99 cb be a6 66 27 3e
       0.4218447 0.31095216 -0.39765808 0.16347751
0001d0 89 a8 bf be 73 d2 eb 3d a4 ec a9 bd 06 ad 2e 3d
       -0.3743327 0.115147494 -0.08297089 0.042645477
0001e0 e1 40 f3 be 21 55 63 be ba 32 12 3e f4 e1 32 3f
       -0.47510436 -0.22200443 0.14277163 0.6987603
0001f0 09 c7 1f 3f cd 9e 3c bc 28 94 b9 3e 18 6b 67 3e
       0.6241308 -0.01151247 0.36245847 0.22599447
000200 86 63 9b bb 3c f1 b7 3e a9 98 d5 be 89 9d 9a 3e
       -0.0047420887 0.35926235 -0.41718033 0.30198315
000210 f8 d1 6b be 40 d4 6c be 16 37 f1 bd ba 18 a7 be
       -0.23029315 -0.23127842 -0.11778085 -0.32636052
000220 4d 81 a0 bc f4 69 ce 3d ba 88 46 3e dc 7e 08 bf
       -0.019592905 0.10078803 0.19388095 -0.5331857
000230 d1 95 ad 3e ce d3 97 bd 30 55 44 3e 7b fb fb 3e
       0.33903363 -0.074134454 0.19173121 0.49215302
000240 7f 99 52 3e cb e0 18 be d3 0c 6d be 97 42 b8 3e
       0.20566367 -0.14929502 -0.23149423 0.35988304
000250 f6 59 9e 3e 3a 7c 1b 3f 5e 5a 20 be 3b 38 54 3e
       0.3092801 0.6073643 -0.15659472 0.20724575
000260 bd d1 99 bd 94 fe db 3e 12 89 ba be d6 97 b2 be
       -0.075107075 0.42967665 -0.364327 -0.34881467
000270 c2 55 e0 3c 0d 49 94 bc c7 a9 12 be e3 e8 34 be
       0.027384643 -0.01810124 -0.14322577 -0.17666964
000280 0e a7 65 3e 73 8f 20 3d 9f 7d d7 bd e7 df a5 be
       0.22427008 0.039199304 -0.10522007 -0.32397386
000290 c2 f8 f2 be 15 99 dc be 76 49 7f bd c5 36 9d be
       -0.47455412 -0.43085542 -0.062325917 -0.30705848
0002a0 36 06 4c be 4c 2e e4 3e d1 e7 01 be 49 a7 5b be
       -0.19924244 0.44566572 -0.12686087 -0.21450533
0002b0 c2 4b da 3d b1 e3 81 3d 27 e6 96 3d ec 05 e9 be
       0.10658981 0.06342257 0.07368117 -0.4551233
0002c0 b3 81 13 be c6 00 e0 bd 27 a9 73 3e 1c d1 f6 3e
       -0.14404945 -0.109376475 0.23794995 0.48206413
0002d0 18 69 07 3f b3 55 76 3e 38 53 6d be 61 5b 2f be
       0.52894735 0.24056129 -0.23176277 -0.17124702
0002e0 b6 fe 4a be 67 5d b8 bd 5e 79 0f 3f c2 ca f3 3e
       -0.19823727 -0.0900219 0.56044567 0.4761563
0002f0 ca e6 98 3d d1 4b d0 3b 06 9c 09 bf 01 60 92 3e
       0.074658945 0.0063566943 -0.537537 0.2858887
000300 e0 5c 74 3e db b0 06 3e 4d be ce 3e 55 d0 25 bf
       0.23863554 0.13153403 0.40379563 -0.64771014
000310 7f 84 32 bd 1c c8 5c bd 53 a4 ff bd c6 14 cc bc
       -0.04358339 -0.053901777 -0.12482514 -0.02491225
000320 a7 48 20 3e 22 2d c5 3e 3a 20 d9 bd 26 be fe 3e
       0.15652715 0.38510996 -0.1060185 0.49754447
000330 9a 43 d4 3e 39 99 ab 3e 5c 82 2e be da 0e bf 3e
       0.41457826 0.33515337 -0.17041916 0.37316018
000340 36 94 dc be 68 a4 0c be 6d ba 0c be 7b 9e 09 bf
       -0.43081826 -0.13734591 -0.13742991 -0.53757447
000350 5d 11 a9 3d 8a 61 bf 3b 36 79 8a 3e 47 83 31 3e
       0.08255265 0.005840485 0.27045602 0.17335235
000360 b7 cb 92 be ba 49 fa 3c 49 84 2d 3f a8 df 13 3f
       -0.28671047 0.030552734 0.67779976 0.5776315
000370 f4 20 30 3f 85 39 a0 3e e0 2f eb be 16 4e 94 3f
       0.6880028 0.31293884 -0.45934963 1.158633
000380 db e6 a6 be 9f 28 fb be 6c df 3d 3e d7 a8 c0 3e
       -0.32598004 -0.4905443 0.1854226 0.37628815
000390 b4 14 91 3e a8 e9 0d 3f e4 ee 24 3d 6a 11 d1 3e
       0.28336108 0.55434656 0.040266886 0.40833598
0003a0 50 64 1b bd 5a 2a df bc 75 d6 e3 3e c9 f3 8c 3e
       -0.037937462 -0.027241874 0.44499555 0.27529743
0003b0 8a 85 0f 3e 23 3b af bd c4 7e 80 be 3d 4c f8 3e
       0.14015785 -0.08556201 -0.25096714 0.48495665
0003c0 e8 f7 8b bd 15 b9 a2 be 17 95 80 bd 07 2a 06 3e
       -0.06834394 -0.3178183 -0.06278437 0.1310197
0003d0 11 17 a0 3e 79 8c a6 3e 45 f1 06 be 6e a5 34 3f
       0.31267598 0.32529047 -0.13177975 0.70564926
0003e0 4f cd 8f bd 7a ce 36 3e e9 c6 da 3c 41 68 37 3f
       -0.070215814 0.17852202 0.026706176 0.71643454
0003f0 09 ee 44 3f c9 7c d2 3e 18 11 27 3e 2c db 08 3f
       0.7692571 0.4111083 0.16315114 0.5345943

rnn.bias_ih_l0 f4 [32]
000000 0a b8 84 3e 95 0f 74 3d c1 76 d7 3e 35 58 bc 3d
       0.2592166 0.059585173 0.4208279 0.09196512
000010 ec 20 06 3e b3 68 c5 3e 9d 99 c8 3e f5 3a 57 bc
       0.13098496 0.38556442 0.39179698 -0.013136615
000020 20 6a 03 3c 3a 0c 80 3d 4c 46 c0 3e db a7 20 3b
       0.008020908 0.06252332 0.37553632 0.0024514112
000030 38 2c 29 be 53 cf 46 3e 80 a5 d0 3d 48 9c fd bd
       -0.16520774 0.19415025 0.101878166 -0.12383324
000040 4c fd 8a bd 23 40 83 3d 9c ee 75 3d ec af de 3d
       -0.06786594 0.064087175 0.06004201 0.10873398
000050 41 70 a9 bb 8b 60 0c 3e 22 1f 5a bd 5c da 9a bb
       -0.0051708524 0.13708703 -0.053252347 -0.0047257375
000060 be 91 82 bd f4 d8 37 be b9 d8 03 3e 5d 20 2c 3f
       -0.06375454 -0.17953855 0.12875642 0.6723688
000070 98 c3 d4 3d 3c 81 14 be 80 01 05 3e 31 45 82 3e
       0.10388869 -0.14502424 0.12988853 0.25443414

rnn.bias_hh_l0 f4 [32]
000000 c3 a2 9f 3d 23 1b 51 be ad 7e 0a 3e b3 e0 29 3f
       0.07794716 -0.20420508 0.13524885 0.6635849
000010 b8 c0 01 be 35 a3 ae 3e 6f a4 f7 bd 03 6c 79 bc
       -0.12671173 0.34108892 -0.1209191 -0.015223506
000020 0d f4 57 3e 12 c2 f8 bd 81 0a d0 3c e1 0c 61 bd
       0.21089192 -0.12146391 0.025395634 -0.054943923
000030 1c 65 67 be 3a 34 1f be 82 aa fe 3b a1 55 8a be
       -0.22597164 -0.15547267 0.007771791 -0.27018455
000040 83 aa da be 78 31 a8 bd 7a 87 a1 3e d9 3e 99 be
       -0.42708215 -0.082125604 0.31548673 -0.2993076
000050 0a 2e ee 3d 50 c9 3c be 0e d2 40 be 3b 11 71 3e
       0.11629875 -0.1843617 -0.1883013 0.23541729
000060 d4 cf 9c 3e cb 73 b3 be fe dc 3a 3e c8 ea 58 3e
       0.3062731 -0.3504928 0.18248364 0.21183312
000070 d3 68 87 3e 51 5a 9a 3e 1d af 7c be 22 fa f3 3e
       0.26447162 0.3014703 -0.24676175 0.47651774

rnn.weight_ih_l1 f4 [32, 8]
000000 f6 bd d0 3e 16 92 ed bd 2b 63 90 3e 94 b0 ca 3e
       0.4076993 -0.11600129 0.2820066 0.39587843
000010 ed 07 86 3e d1 92 d4 3e 79 94 c0 be f3 19 87 3e
       0.26177922 0.41518262 -0.37613276 0.26386985
000020 13 7d 6a be fb cb df be 1f b3 19 be 99 5f 4a 3e
       -0.22899275 -0.43710312 -0.15009736 0.1976303
000030 2b 72 09 3f 9a 87 53 3e 3b 7c 78 be c3 68 49 3e
       0.5368983 0.20657197 -0.2426614 0.1966887
000040 51 de 8d 3e d8 a1 c9 be 5d 95 19 be 4d 51 a3 3e
       0.27708676 -0.3938129 -0.14998384 0.31897965
000050 4e a8 fb 3e 3c fd 16 3e d0 35 59 3c ea d8 5f bc
       0.49151844 0.14745039 0.013257459 -0.013662556
000060 3f 0a 5b 3d cd 47 18 3d 00 ff 0c 3f 03 63 26 3f
       0.05347657 0.03717785 0.550766 0.6499483
000070 76 32 e9 3e ee e8 34 be 57 d1 74 bc 02 d7 0c 3f
       0.4554631 -0.1766698 -0.014942489 0.55015576
000080 3b f0 2f bd 99 bd fb bd 30 7c 04 3e 58 a9 06 be
       -0.04295371 -0.12292022 0.12937999 -0.13150537
000090 24 88 5c 3e df 37 da 3e 3a ee 81 be 7a de 3b 3e
       0.21536309 0.4262075 -0.25377065 0.18346587
0000a0 03 97 29 3e bc 13 69 3d 8c 1c d6 be e7 3f 81 3e
       0.16561513 0.056903586 -0.41818655 0.25244066
0000b0 45 09 04 3f 16 0b 88 bd 63 df f2 bb c0 ba 8c 3e
       0.51576644 -0.066427395 -0.0074118837 0.2748623
0000c0 50 3f b9 3e 0b 28 1f bd 68 5e 4b bc a5 47 35 3e
       0.36181116 -0.038856547 -0.012412645 0.17703111
0000d0 63 01 93 be 45 3c f7 3d fb af d3 3e 74 7e 72 3e
       -0.28711995 0.120720424 0.413452 0.2368105
0000e0 e4 23 5f 3e e5 9c 43 3e d3 74 68 be 23 7f f8 3e
       0.21791035 0.1910282 -0.22700815 0.48534498
0000f0 77 84 03 3f 67 1d 5a 3e 4d 2a 00 bf d5 da 0e bc
       0.51374 0.21300279 -0.50064546 -0.008719166
000100 55 53 0c 3e 85 e6 6d be 4e fa e0 be 5f e3 02 3f
       0.13703664 -0.23232467 -0.43940967 0.5112819
000110 66 e8 08 be 47 1f 31 3e ad 6e 1c 3e 50 9a cc be
       -0.13369903 0.17297088 0.15276594 -0.3996148
000120 0d 7f 9f 3e fd 9d 77 be 29 36 20 be dc 4a 30 3d
       0.3115162 -0.24181361 -0.1564566 0.04304014
000130 b5 b0 18 3d 81 d6 f6 3d 7b a8 65 be 5f 14 00 bf
       0.037277896 0.12052632 -0.22427551 -0.50031084
000140 31 89 1a 3f 50 23 7e be 5b 6e f0 3d b8 3e f0 3e
       0.6036559 -0.24818158 0.11739799 0.4692285
000150 1c 74 5b 3e a9 d7 9f 3e d1 0b 9e bd 47 f7 e9 3d
       0.21431011 0.31219223 -0.077170976 0.114241175
000160 5a 5a 17 be b4 21 65 3c f9 f3 70 3e d9 40 8c 3e
       -0.1478056 0.013985086 0.23530568 0.27393225
000170 67 c4 9e 3e 1d f4 17 be 4c 90 43 bd a3 3a 98 be
       0.31009218 -0.14839216 -0.047745034 -0.29732236
000180 ba 27 40 be 94 77 2d 3e 3f e3 7c bd 14 25 a6 3e
       -0.18765154 0.16940147 -0.061740156 0.32450163
000190 3f b2 a8 3e 64 99 49 be 7f 9b 77 3e 53 15 bb be
       0.3294849 -0.1968742 0.24180411 -0.36539707
0001a0 68 76 1a be 17 12 4c 3c 59 0a e6 be b2 50 a3 3e
       -0.15084231 0.012455485 -0.4492977 0.31897503
0001b0 17 35 df 3e b1 68 26 be c9 bf 38 3d e3 9d 3d 3e
       0.43595192 -0.16250874 0.045104776 0.1851726
0001c0 b1 7e 84 3e 41 98 95 bd d5 02 a0 be 2e f5 f0 bd
       0.25877908 -0.07304431 -0.3125216 -0.11765514
0001d0 9c 0b b5 be 34 ac 50 bd 6b d6 a3 3d aa 68 4f 3e
       -0.3536042 -0.050945476 0.07999881 0.2025477
0001e0 07 de cb 3d 55 2f 16 be 8e 07 f9 bc 94 94 0a 3f
       0.09954458 -0.14666493 -0.03039911 0.5413296
0001f0 6b 70 2c bd aa d3 54 be 7a cc 69 bc 49 94 ed bd
       -0.042099398 -0.20783868 -0.014269942 -0.11600549
000200 43 34 dc be fc 07 00 be 8a fc 89 3e 7d 36 37 bf
       -0.43008623 -0.12503046 0.26950485 -0.7156752
000210 28 37 48 be 87 80 01 bf 56 04 7f 3e ba 0a de 3e
       -0.1955229 -0.5058674 0.24903998 0.4336756
000220 72 de b5 bd 75 9c cc be ac 22 0d be a0 60 24 3f
       -0.08880319 -0.39963117 -0.13782758 0.6420994
000230 f6 30 d4 3e a0 70 af 3e f3 18 ec bd c7 65 a8 bd
       0.41443604 0.34265614 -0.11528196 -0.082225375
000240 34 d3 50 3e ce 41 35 3e 2c a6 1f 3e c8 d7 69 bc
       0.20393068 0.17700884 0.15590733 -0.014272638
000250 1a ac 2e 3e 6b 0e 4e 3d b6 4e e6 3c 61 6d 2f 3e
       0.17057839 0.05030672 0.028113704 0.17131568
000260 83 0c b9 3e 0f d3 fe bd 4e 6b 41 3e 8a 89 37 3f
       0.36142358 -0.124426 0.1888859 0.7169424
000270 55 e8 19 3f fc 70 eb 3e 33 d7 d2 be 2f ee be be
       0.60120136 0.45984638 -0.4117981 -0.37291095
000280 30 0c 94 bb 40 74 b4 3e a4 ad c4 3d 4f 47 8c be
       -0.0045180544 0.35244942 0.09603432 -0.27398154
000290 52 65 77 be 7e 17 43 3e 03 8c c7 3e 0e 09 86 3e
       -0.24159744 0.1905193 0.38974008 0.26178783
0002a0 c2 34 95 3c 94 29 79 3c e6 e2 f7 bd 30 a5 0e bc
       0.018213633 0.015207667 -0.12103824 -0.008706376
0002b0 fa 15 0f 3e 5c 10 af 3e ef 04 c9 be 9f 0d 59 bd
       0.13973227 0.3419217 -0.39261577 -0.052991506
0002c0 3c b6 4f 3c 9b 6f 81 be d3 ff 9c be 8c fe 99 3e
       0.012677725 -0.2528046 -0.30663928 0.30077016
0002d0 d5 1e 4a be 37 e9 6e 3e 05 6c ce be 5e d4 94 be
       -0.19738324 0.23331152 -0.40316787 -0.29068273
0002e0 48 46 1c 3e 8a 91 82 3d 32 a7 7e 3d 23 4c bc be
       0.15261185 0.063754156 0.06217117 -0.36776838
0002f0 17 ed 07 bf b7 3b 4c 3e 6e 2c c4 3d 01 68 2a be
       -0.53096145 0.19944654 0.09578787 -0.16641237
000300 46 67 86 3e eb 96 b1 bc 4a 71 a2 be 63 d0 59 3e
       0.26250666 -0.021678409 -0.31727058 0.212709
000310 d0 48 95 3e ca 55 d9 3e 4d b3 d3 3d 3b 75 c6 3a
       0.29157114 0.42448264 0.10336933 0.0015141139
000320 5a 8a fb 3e f2 c6 65 be ef e0 87 be d6 75 2b 3f
       0.4912899 -0.22439173 -0.26538798 0.6697668
000330 19 47 5c 3e 33 07 0c 3e 3f ff 07 be 63 e8 99 3e
       0.21511497 0.13674621 -0.13280962 0.3006011
000340 72 0e 1a 3e fc 3f a8 be 51 4b af 3d 4a 3f d8 3e
       0.15044573 -0.32861316 0.08559287 0.42235786
000350 91 de 81 3e a1 36 99 3e 81 17 17 be 0d 40 15 3e
       0.25365117 0.2992449 -0.1475506 0.14575215
000360 8c 99 64 3e a7 46 75 be c5 e5 15 be c4 06 94 3e
       0.22324198 -0.23952733 -0.14638431 0.28911412
000370 29 8f 14 3f 20 f3 c2 3d 15 51 7a 3e 71 b5 09 3e
       0.58030945 0.09519029 0.24444993 0.1344812
000380 48 1f 20 3e 96 c2 02 be 5d 8b bf be 44 e2 2a 3f
       0.15636933 -0.12769541 -0.37411013 0.66751504
000390 98 a2 e0 3e 63 f2 2f bd d7 b4 0e 3e b9 58 9b be
       0.4387405 -0.042955767 0.13936172 -0.30341128
0003a0 64 3f d2 3d 74 16 21 3e 3f f6 30 be 4d 98 a8 3d
       0.10265997 0.15731221 -0.17281435 0.08232174
0003b0 a3 b8 0a 3f 18 eb dd 3d e8 17 a7 be 65 65 77 3e
       0.54187983 0.10835856 -0.32635427 0.24159773
0003c0 22 fa 68 3e 85 20 89 bd f2 c1 e1 bc ee f8 9d be
       0.22751668 -0.06695656 -0.0275583 -0.3085398
0003d0 e1 c3 0e 3e 61 f7 16 3e 5f d8 09 be ca 47 e6 3d
       0.1394191 0.14742805 -0.13461445 0.112441614
0003e0 06 88 bd bd 0c 8b 75 3e 72 e7 a3 bd b1 bc 88 3e
       -0.0925446 0.23978823 -0.08003129 0.2670646
0003f0 d1 36 32 3f 6d 0d 98 bc b1 9a cb 3d dd 6d 74 3d
       0.69614893 -0.01856109 0.099416144 0.059675086

rnn.weight_hh_l1 f4 [32, 8]
000000 9a 05 35 be de 5e e6 bd 85 7d 63 3e eb 4a b7 be
       -0.17677918 -0.11248563 0.2221585 -0.35799345
000010 23 85 45 3d b5 88 9f 3e 46 2c 6d 3e 1e 1f 9c be
       0.048222672 0.31158987 0.2316142 -0.3049249
000020 f4 c1 f0 3a 00 62 6b 3e 2b cb 6a 3c 44 48 74 be
       0.0018368349 0.22986603 0.014330666 -0.23855692
000030 76 42 17 be 10 0b 9c 3e bb ab 12 be ed 72 7d 3e
       -0.14771447 0.3047719 -0.14323322 0.24750872
000040 84 df a8 3d cc 50 7f 3e 92 84 b4 3e 02 a5 ea bc
       0.08245757 0.24933165 0.35257393 -0.028643135
000050 15 de 9c be e8 d3 03 3e 17 52 dd bc a7 f5 03 3d
       -0.30638185 0.12873805 -0.027016683 0.032216694
000060 48 04 f5 3d 80 0f 8b be 36 27 a8 3e b0 41 a2 3e
       0.11963707 -0.27160263 0.32842416 0.3169074
000070 29 18 a7 be ed 9e 72 be ca 35 37 be 57 78 16 bd
       -0.3263562 -0.23693438 -0.17891613 -0.03673586
000080 64 c1 b4 3d 20 b1 62 bc 3b d1 97 3e d9 03 c8 be
       0.08825949 -0.013836175 0.29651818 -0.39065436
000090 af f4 92 3e a3 a9 51 3e 88 36 03 3e 73 2f 1e 3e
       0.28702304 0.20474868 0.12813771 0.15447788
0000a0 fa 5f 21 be 08 06 6e 3e 3e 84 70 be 0e 41 4a be
       -0.15759268 0.23244488 -0.23487946 -0.19751379
0000b0 ae d0 c7 bd fe a2 91 bd 39 38 ad 3c a3 e4 44 be
       -0.09756599 -0.071111664 0.021144973 -0.19227843
0000c0 9d 5a 86 3e d2 c8 71 be 7e 13 7b 3e 64 99 b3 3e
       0.26241007 -0.23611763 0.24519154 0.35077965
0000d0 e4 5f b8 3d b6 32 97 be 22 ee 4d be 8e 44 85 3d
       0.09002665 -0.29530877 -0.20110372 0.065072164
0000e0 2e c8 84 3e 1c 2f 0d 3e 22 b1 9c 3e 8a 18 ee be
       0.25933975 0.13787502 0.30603892 -0.46503097
0000f0 c4 1c a8 3c 49 92 04 bd a6 ea 9a bd 4b 4b 68 be
       0.020521529 -0.03236607 -0.07564287 -0.22684972
000100 12 aa b6 bd ca 73 a2 be a7 48 4b be bb e8 13 bd
       -0.08919157 -0.31728965 -0.19851933 -0.03611062
000110 41 be 19 bd 42 11 87 3d 43 47 ea be 7c e1 af 3e
       -0.037534956 0.065950885 -0.45757493 0.34351718
000120 7e 3d 70 be 74 08 fc bd 4f 95 22 3e 98 2e 38 be
       -0.23460957 -0.123063 0.15877269 -0.17986524
000130 ce 6d 4d 3e f2 15 29 3e d5 d9 66 be ba 1d eb 3d
       0.20061418 0.16512278 -0.22544034 0.11480279
000140 ca 5f 7e 3d d4 2f a5 3d e8 1f 6c 3e 64 9a 5a 3d
       0.06210307 0.08065763 0.23059046 0.053369895
000150 de 7a 94 bd c4 88 34 3e 73 b8 3c bd f9 b9 eb bd
       -0.072499976 0.17630297 -0.046074342 -0.11510081
000160 52 d5 1d 3e b1 27 75 bc 98 19 e1 3d f7 7f 6c 3d
       0.15413406 -0.014963076 0.1099121 0.057739224
000170 82 2e 66 3e 40 e8 5c be a9 b5 bb 3e 73 e7 79 3d
       0.22478679 -0.21572971 0.36662033 0.061011743
000180 24 90 62 3e 89 07 5a bd 07 4c 2a 3e 77 c7 8a bd
       0.22125298 -0.053229842 0.16630565 -0.06776326
000190 3c b7 05 be 5d b1 90 bd c3 60 27 3e 7c a0 83 3c
       -0.1305818 -0.07065079 0.16345505 0.016067736
0001a0 2b c5 e7 3d c0 4c 99 be 50 88 6e be a3 3a 4c bd
       0.11316904 -0.29941368 -0.23294187 -0.049860608
0001b0 e8 be 4d be 68 de 8b 3c cc 4b f8 bd cf a4 46 3e
       -0.20092356 0.017073825 -0.12123832 0.19398807
0001c0 da 18 df 3e c5 2b ef be bc 96 17 3e 3c 5f 9c 3e
       0.43573648 -0.4671308 0.14803594 0.30541408
0001d0 95 29 8f 3e d7 d4 5d 3d 50 f5 96 3c 30 f8 69 3e
       0.27961412 0.054158058 0.018427521 0.22848582
0001e0 ea f1 ba 3d e3 b2 2e 3e b2 8c d7 bc e1 a5 ad 3d
       0.09128173 0.17060427 -0.026312206 0.084789045
0001f0 6c 94 97 3e f3 ba 06 be 79 55 fc 3d 62 f9 7e 3e
       0.29605424 -0.13157253 0.1232099 0.2489982
000200 bb e4 5b 3e 06 ce b5 be 94 30 d3 3e 9b cd 21 be
       0.21473972 -0.35508746 0.41248 -0.15801089
000210 17 eb 89 3e ce b2 67 3e a6 51 b4 3e 02 76 68 3e
       0.26937172 0.22626802 0.35218543 0.22701266
000220 aa e3 79 bc b4 1d 19 3e e0 f6 a0 be 51 fb e6 be
       -0.015252033 0.14952737 -0.3143835 -0.45113614
000230 85 4a 6f be 3d cd bd 3e b9 5d 32 be ad 7f a2 3e
       -0.2336827 0.37070647 -0.17418565 0.31738034
000240 56 01 27 be ae 24 b8 3e a7 45 d1 3e 5c ae ad bd
       -0.16309103 0.35965484 0.40873453 -0.08480522
000250 b6 a4 b9 bd 0b 41 c4 3e e7 6a 36 3d 9a 53 d4 be
       -0.09064619 0.38330874 0.044535544 -0.41470033
000260 75 76 56 3e 64 18 39 be 66 48 8a 3e 0c ee 0b 3e
       0.20943625 -0.1807571 0.2700836 0.13665026
000270 8b bb b1 3c 1a bb 8c 3e ad 1a 93 be 30 3d df bd
       0.021695873 0.27486497 -0.2873129 -0.109003425
000280 0c 83 74 be 17 d9 12 be 51 8f 40 be 2d ed e5 3d
       -0.23878115 -0.14340626 -0.18804671 0.11226878
000290 e2 04 da 3e a4 25 17 be 67 c4 ab 3e 30 30 4c be
       0.4258185 -0.14760453 0.3354828 -0.19940257
0002a0 54 30 8d 3c 8f b4 5a 3e f6 73 93 3e de 9e 04 3e
       0.017234959 0.2135794 0.2879941 0.12951228
0002b0 9d 55 98 be 91 05 5c bd cc 44 5e bc 40 9b bb be
       -0.29752818 -0.053716246 -0.013566207 -0.36641884
0002c0 8a 22 9d be fb 78 b5 bd 3b 14 66 3e 63 75 c5 be
       -0.30690414 -0.08860966 0.22468655 -0.3856612
0002d0 b1 93 10 be 12 b6 30 3e 69 5d 57 3e b9 8d 7b bd
       -0.1411884 0.17256954 0.21031727 -0.061414454
0002e0 c8 ba 78 be ea 3d c8 3d c9 ae f3 bd 3c 73 e8 3e
       -0.24290001 0.09777434 -0.11898572 0.45400417
0002f0 fa 28 53 3e b2 04 90 be e5 af 1c 3d 77 60 91 3e
       0.206211 -0.28128582 0.038253684 0.2839391
000300 11 12 56 be 2b 7c a0 ba b8 1c 46 be ad 97 be 3c
       -0.2090533 -0.0012244036 -0.19346893 0.023265684
000310 1a 3d 59 3d 27 c4 1f 3e fd ce 53 3e 58 b9 dd be
       0.053036787 0.1560217 0.20684429 -0.4330547
000320 be 67 a5 3e ef 38 71 be 3d 19 3a 3e 0e ce b0 be
       0.32305712 -0.23556875 0.1817369 -0.34532207
000330 d8 22 88 be e5 20 bc bd 47 53 96 be 2b 4c 20 be
       -0.26589084 -0.09185962 -0.2936041 -0.15654056
000340 32 5d aa 3e 2c c1 62 3d 9a d4 6a be d3 cd 00 be
       0.33274227 0.055360004 -0.22932664 -0.12578516
000350 bf 40 41 bd 87 68 99 3e c3 a3 47 3e fd c7 7e be
       -0.047180887 0.2996256 0.19496064 -0.24880977
000360 f9 cd 80 3e 11 bf 74 3e af 97 3f 3f 3d 84 43 be
       0.25157145 0.23901011 0.74840826 -0.19093414
000370 e7 fe 64 be 9b 09 36 3e 6e c9 d7 3e 1b 1f e1 bd
       -0.22362863 0.17777102 0.42145866 -0.10992261
000380 6a b2 f3 3d 7f a5 87 3e 99 f4 86 be 63 fc a4 be
       0.11899264 0.2649345 -0.26358488 -0.32223806
000390 f1 0e 3c bc 20 fa e7 bd 89 5c 56 3e ba 75 b3 3e
       -0.011478172 -0.113270044 0.20933737 0.35050756
0003a0 a6 6a 2a be ad 4b 5c 3e f9 9f 12 3e af de 0b be
       -0.16642246 0.21513243 0.14318837 -0.13659166
0003b0 97 14 06 3e bb 28 c1 3e 37 07 b0 be 7a 3f 8f 3e
       0.13093792 0.37726387 -0.34380504 0.27978116
0003c0 a8 b1 62 3d 92 7f 4a 3e 94 00 c8 be 43 85 5c be
       0.055345207 0.19775227 -0.3906294 -0.2153521
0003d0 b0 51 62 3e a8 4f 48 be fb 12 38 3e 98 3e 0c 3e
       0.22101474 -0.19561636 0.1797599 0.13695753
0003e0 3f 7d 38 3e ab 63 f6 3c 8b e0 63 be 23 f2 06 be
       0.18016528 0.030076822 -0.22253625 -0.13178305
0003f0 33 6b 1d 3e 52 a1 eb 3d 5f eb 96 bd ae b7 95 3e
       0.15372925 0.11505379 -0.07369112 0.292417

rnn.bias_ih_l1 f4 [32]
000000 58 20 7c 3e 62 be a5 3e ce 6b 2d be 6c f3 60 bd
       0.24621713 0.32371813 -0.16935655 -0.054919645
000010 3a 64 62 be 94 7a 15 3e 1b 74 23 3e eb 4f e0 3d
       -0.22108546 0.14597541 0.1596226 0.10952743
000020 8f 4e 8d 3e 1a c4 a1 bd 16 34 1e be 38 4a 93 bc
       0.27598998 -0.078987315 -0.15449557 -0.017979726
000030 0e 95 d4 3e 33 33 ec 3d 37 01 af bd 46 a1 fa 3d
       0.4151997 0.11533203 -0.085451536 0.12237792
000040 0e 06 cb be 57 65 bb 3d ef 03 e8 3e d4 c1 5d be
       -0.39653057 0.091501884 0.453155 -0.21655971
000050 ef e1 a5 bb 48 b3 c1 3e a2 28 61 3e f2 3f 37 bd
       -0.005062334 0.37832093 0.21988156 -0.044738717
000060 08 c7 04 3e 24 0a 62 be 4d e3 22 be d9 e6 a9 be
       0.1296655 -0.22074181 -0.15907021 -0.33183935
000070 fe 4b a7 3e 9d 60 8a 3e 35 52 45 be 00 92 57 be
       0.32675165 0.27026835 -0.1926964 -0.21051788

rnn.bias_hh_l1 f4 [32]
000000 33 af 04 3e 72 46 e2 3e ef 34 3b 3d d8 eb 58 3d
       0.12957458 0.4419437 0.04570478 0.052959293
000010 c3 d8 b4 3d 17 6d d1 3d cb e5 93 be c6 57 7a 3e
       0.088304065 0.10225885 -0.28886256 0.24447545
000020 12 7a 9b be 04 7c 84 3e 99 40 be 3d 40 5d b7 3d
       -0.3036657 0.25875866 0.09289665 0.08953333
000030 7a 7c d7 3e 62 b8 10 3e 76 54 ad 3c d5 1c a2 be
       0.42087156 0.14132836 0.021158438 -0.31662622
000040 b4 74 11 3e 99 b4 f5 3d c9 08 33 be e5 f4 c7 3c
       0.14204675 0.11997337 -0.1748382 0.024408767
000050 f8 6a e6 be e8 99 9c 3e e1 4c 56 be 2a 68 84 be
       -0.45003486 0.3058617 -0.20927764 -0.2586072
000060 ab 6a b4 3e 7b f4 05 3d 21 7a 12 3e 97 9f a2 bd
       0.3523763 0.032703858 0.14304401 -0.079405956
000070 5e b8 79 bc 62 d8 6d bd c9 23 d0 be 4d 0e b4 3e
       -0.0152417105 -0.058067687 -0.40652302 0.3516716

reg.weight f4 [1, 8]
000000 b3 7d ea be fe 11 c1 3e 6e ee b6 3e 88 21 9e 3e
       -0.45799026 0.3770904 0.35728782 0.30884957
000010 e1 6a 40 be 4f 53 5d 3e 8f 44 65 3d f0 c9 da be
       -0.18790771 0.21613811 0.055973586 -0.4273219
