模型代码/LSTM/weights/123e.pth (torch_old, 15619 bytes, 13 tensors)

rnn.weight_ih_l0 f4 [48, 5]
0	0x3e604aba	0.21903506
1	0x3e9e6874	0.30939066
2	0x3e89f297	0.26942894
3	0x3ef11f51	0.47094205
4	0x3e69848e	0.22804472
5	0x3e41ba9f	0.18918847
6	0x3ebb25c5	0.36552253
7	0xbf226d18	-0.63447714
8	0x3ecbaec9	0.39781788
9	0x3f3472d5	0.7048772
10	0x3f14af8e	0.58080375
11	0x3f033823	0.5125753
12	0x3ea5b9e3	0.32368383
13	0x3ef2b3cb	0.47402796
14	0x3e5b7511	0.21431376
15	0x3f80c056	1.0058696
16	0x3ebb144c	0.36538923
17	0x3ef3d6be	0.47624773
18	0x3f239d58	0.6391196
19	0x3f5dac0c	0.8659065
20	0x3fb38561	1.4025079
21	0x3f52037d	0.8203657
22	0x3f27250c	0.65290904
23	0x3eec4b5b	0.46151242
24	0x3ede2c7b	0.4339331
25	0xbee06d2a	-0.43833286
26	0x3e3a3143	0.18182854
27	0x3e591126	0.21197948
28	0x3e58cecb	0.21172635
29	0x3e836da2	0.2566958
30	0x3e3b2d7b	0.18279068
31	0x3df4e2c7	0.11957317
32	0xbdb2c986	-0.08729844
33	0x3f27922d	0.6545742
34	0x3f5f2366	0.8716339
35	0xbe6ef5cd	-0.23335953
36	0x3d3e03d4	0.04639037
37	0xbe58a4b4	-0.2115658
38	0xbec39188	-0.3819697
39	0xbedd3b1f	-0.43209168
40	0x3ed0b451	0.4076257
41	0xbe78d8be	-0.2430143
42	0x3e8c6ed8	0.27428317
43	0x3e275e6f	0.16344617
44	0xbee70f33	-0.45128784
45	0x3f6eee7a	0.93332636
46	0x3f0006fb	0.5001065
47	0x3f139230	0.5764494
48	0x3f2396ad	0.6390179
49	0x3ed71d31	0.4201446
50	0x3e31903a	0.17340174
51	0x3eb7e04b	0.3591331
52	0x3e1826b5	0.14858516
53	0xbef9c1b6	-0.48780602
54	0xbf057c02	-0.52142346
55	0x3f91ca51	1.1389867
56	0x3f37a3b4	0.71734166
57	0x3ee89a38	0.4543016
58	0x3f627a25	0.8846763
59	0x3f4fb3a8	0.8113351
60	0x3ebefb7c	0.37301242
61	0xbac1585b	-0.0014751063
62	0x3e8d57a2	0.2760592
63	0x3d7e54ad	0.062092472
64	0xbb364169	-0.0027809984
65	0xbf65a83a	-0.8970982
66	0x3cbc6558	0.022997543
67	0x3dae6042	0.085144535
68	0x3e870424	0.26370347
69	0x3edd0919	0.43171003
70	0x3ea46263	0.32106313
71	0x3e2e1e68	0.17003787
72	0x3f008c5f	0.5021419
73	0xbc9c96a2	-0.019114796
74	0xbd06f646	-0.03294971
75	0x3e81a194	0.25318587
76	0x3f1a5f9c	0.6030214
77	0x3eb83b09	0.3598254
78	0x3f15f52a	0.58577216
79	0x3f62530c	0.8840797
80	0x3eb456be	0.3522243
81	0x3f49fe7e	0.7890395
82	0xbeaedcf3	-0.34152946
83	0x3c6b5c99	0.014365339
84	0xbcebb165	-0.028771112
85	0x3f24090d	0.6407631
86	0x3f5edede	0.8705882
87	0x3eb57809	0.35443142
88	0x3ead9cf2	0.33908802
89	0x3ecea9cf	0.4036393
90	0xbe9a4de0	-0.3013754
91	0xbebe83d9	-0.37209967
92	0xbe7f38e2	-0.24924043
93	0xbc1108d4	-0.008852202
94	0x3ce74a79	0.028233754
95	0xbd3f9a48	-0.046777993
96	0xbe3e4fee	-0.18585178
97	0xbdfa0802	-0.122085586
98	0xbec20c97	-0.3790023
99	0xbd200a5a	-0.039072372
100	0x3cca0965	0.024662683
101	0xbf0de6de	-0.554304
102	0xbda74afd	-0.081686
103	0xbeaeda4f	-0.3415093
104	0xbf245468	-0.64191294
105	0xbedbe053	-0.42944583
106	0xbe93eb11	-0.2889028
107	0xbf8445d3	-1.0333809
108	0xbe0c5665	-0.13704832
109	0xbe47e62f	-0.19521402
110	0xbe3ebd11	-0.1862681
111	0xbe964aed	-0.2935404
112	0xbdfa24ad	-0.122140266
113	0xbe9f1907	-0.31073782
114	0xbf0b9916	-0.54530466
115	0x3e7dead1	0.24796607
116	0xbdcdae32	-0.10042991
117	0x3ed4280a	0.41436797
118	0x3e714dec	0.23564881
119	0x3f888ddb	1.0668291
120	0xbefdad81	-0.49546435
121	0xbea7b8f7	-0.32758304
122	0xbefad5cb	-0.48991236
123	0xbee1ff8e	-0.44140285
124	0xbf0e5be9	-0.55608994
125	0x3e24c87b	0.16092102
126	0x3f575965	0.8412078
127	0x3e696822	0.2279363
128	0x3eb51e6b	0.3537477
129	0xbf08ec8d	-0.5348595
130	0x3dd62be8	0.10457593
131	0x3f025a10	0.50918674
132	0x3ef6460e	0.48100322
133	0x3ea7f54a	0.32804328
134	0xbdd43bae	-0.103629455
135	0x3f128faf	0.57250494
136	0x3e5210ed	0.20514269
137	0x3d53b4ba	0.051686026
138	0x3e964ea2	0.29356867
139	0x3f873f01	1.0566102
140	0xbccb2267	-0.024796678
141	0xbf0a601e	-0.54052913
142	0x3e888c4a	0.26669532
143	0x3f29f22c	0.6638515
144	0x3f4a6f02	0.79075634
145	0xbe96f6a3	-0.29485044
146	0x3ea7ef50	0.32799768
147	0x3e8c19cd	0.27363434
148	0xbd99d45b	-0.07511207
149	0x3ec8f429	0.3924878
150	0xbf16416f	-0.58693594
151	0x3c371ae8	0.011175849
152	0xbe433bd4	-0.19065791
153	0x3eebe4ac	0.460729
154	0x3f58412f	0.8447446
155	0x3e795c0c	0.2435152
156	0x3e2fbb85	0.17161377
157	0x3ea6b84b	0.3256248
158	0x3e85184f	0.25995108
159	0x3ec6af6f	0.3880572
160	0xbe6379ce	-0.22214434
161	0xbe0c3736	-0.13692936
162	0xbe1befeb	-0.1522824
163	0xbe4a94b3	-0.19783287
164	0xbf2fa7a6	-0.68615186
165	0x3dda293d	0.10652397
166	0x3ded6665	0.11591796
167	0x3e7e8cdc	0.24858421
168	0x3eb231cf	0.34803626
169	0x3f68a101	0.9087067
170	0x3e9cb7c0	0.3060894
171	0x3debe006	0.115173385
172	0x3e68007f	0.22656439
173	0x3edcb402	0.43106085
174	0xbed06578	-0.40702415
175	0xbe366fc3	-0.17816071
176	0xbd89f3e4	-0.067359716
177	0x3ee8d1f1	0.45472673
178	0x3ef3c06e	0.4760775
179	0x3f9f5e4b	1.2450651
180	0x3eb68537	0.3564851
181	0xbc7e1f7e	-0.015510438
182	0x3dbe7dc2	0.0930133
183	0xbc86fdf5	-0.016478518
184	0x3ebfdb35	0.3747193
185	0xbf070801	-0.5274659
186	0x3f5c0b7e	0.85955036
187	0xbf478198	-0.7793212
188	0x3f3462c5	0.7046321
189	0x3f3476aa	0.70493567
190	0xbeb86635	-0.36015478
191	0x3ef0b8c5	0.47015968
192	0xbea69a85	-0.32539764
193	0xbe1ed52c	-0.15511006
194	0xbf08c99e	-0.53432643
195	0x3ef33ed5	0.47508875
196	0x3f0372df	0.51347154
197	0x3f2c41af	0.67287725
198	0x3f273e63	0.6532957
199	0x3f3b3f5e	0.73143566
200	0xbd710eaa	-0.058851875
201	0x3fb2da38	1.3972845
202	0x3e121634	0.14266282
203	0x3fa78044	1.3086019
204	0x3f4ec60c	0.80770946
205	0x3f4fa74d	0.81114656
206	0x3f023243	0.50857943
207	0x3f7f0211	0.9961253
208	0x3ef11fca	0.47094566
209	0x3f7a99f9	0.97891194
210	0x3f41e8b8	0.75745726
211	0x3e0957bd	0.13412376
212	0xbe2ed673	-0.17073993
213	0x3f311e78	0.69187117
214	0x3f6b3d71	0.9189063
215	0xbeb47546	-0.35245723
216	0xbed083ae	-0.40725464
217	0xbe45166b	-0.19246833
218	0x3cc055f2	0.023478482
219	0xbde381f8	-0.11108774
220	0xbdc61483	-0.09671881
221	0x3ce719da	0.02821057
222	0x3d3a000e	0.04541021
223	0xbe8df11e	-0.2772302
224	0xbf0628de	-0.5240611
225	0x3f2fee87	0.6872334
226	0x3f22596d	0.634177
227	0x3eb2b9e1	0.3490744
228	0x3f3de7cd	0.74181825
229	0x3ebb46f9	0.36577585
230	0x3dc47799	0.09593124
231	0x3cb7fb93	0.022458827
232	0xbe7c58c7	-0.24643241
233	0xbf17ad62	-0.59248936
234	0xbf8a7753	-1.0817665
235	0x3fc97419	1.5738555
236	0x3e8933c5	0.2679731
237	0xbd75a914	-0.0599757
238	0x3f459e69	0.7719484
239	0x3f689869	0.9085756

rnn.weight_hh_l0 f4 [48, 12]
0	0xbd24613c	-0.040131792
1	0xbe028d53	-0.12749223
2	0xbd19e04b	-0.037567418
3	0xbde0a600	-0.10969162
4	0x3eca49d9	0.39509466
5	0x3e7a31b6	0.24433026
6	0x3e24fb67	0.16111527
7	0xbe5e720c	-0.21723193
8	0x3ea2e3d8	0.31814456
9	0xbe691e0a	-0.22765365
10	0x3e5e702c	0.21722478
11	0x3d9bf22e	0.076145515
12	0xbf4ce123	-0.8003103
13	0x3f9be6c8	1.2179804
14	0x3f889468	1.067029
15	0x3f225748	0.6341443
16	0xbf6103f5	-0.8789666
17	0x3f4fe222	0.81204426
18	0xbf79480b	-0.97375554
19	0x3f516f6f	0.8181066
20	0xbeea6b79	-0.4578512
21	0x3acf5cf0	0.0015820544
22	0x3e4ebd52	0.20189407
23	0xbef0633c	-0.4695071
24	0xbe2caae2	-0.16862062
25	0xbe84edc3	-0.25962648
26	0x3e915789	0.28387097
27	0x3e16bf4d	0.14721413
28	0x3eb4468f	0.35210082
29	0x3dc67c61	0.09691692
30	0x3ed8ab7c	0.42318332
31	0x3edf3b7f	0.4360008
32	0x3dd06876	0.10176174
33	0x3e639d5a	0.22227994
34	0x3eaabcc3	0.3334714
35	0x3ec9db87	0.394253
36	0xbefa86d5	-0.48930994
37	0x3dbb8381	0.09155942
38	0x3ebd1e40	0.3693714
39	0x3f1979ee	0.59951675
40	0x3d1da2df	0.038485404
41	0x3ec179df	0.37788293
42	0x3f271c89	0.65277916
43	0xbec3084f	-0.38092276
44	0x3c85a886	0.01631571
45	0x3e979854	0.29608405
46	0x3ec919fe	0.39277643
47	0x3f3eb16d	0.7448948
48	0xbf5a59b6	-0.8529314
49	0x3ce1beb2	0.02755675
50	0x3e281ff4	0.16418439
51	0x3ee0b9c9	0.43891743
52	0xbe847ab1	-0.25874856
53	0x3e973e72	0.2953983
54	0x3ece33c3	0.40273866
55	0x3ef2ae3e	0.4739856
56	0x3e081908	0.13290799
57	0x3e9d9b7f	0.30782697
58	0x3ecefaa0	0.40425587
59	0x3eb5a9a9	0.35481003
60	0x3eb3c147	0.35108396
61	0xbf1116fb	-0.5667569
62	0xbed49854	-0.41522467
63	0xbe5a1c84	-0.2129994
64	0xbe67021e	-0.22559401
65	0x3ebf7711	0.37395528
66	0x3ea52ea6	0.32262152
67	0x3e16784a	0.14694324
68	0xbded8235	-0.11597101
69	0x3e7672b2	0.2406719
70	0xbe99ef11	-0.30065206
71	0x3f163890	0.5868006
72	0xbf5200af	-0.82032293
73	0xbf318683	-0.69345874
74	0x3f59ba45	0.8504985
75	0x3fc9fac5	1.5779654
76	0x3e8ecb61	0.2788954
77	0x3f099328	0.5374017
78	0x3ea5995e	0.32343572
79	0x3f6afb75	0.9178994
80	0xbf12be7c	-0.57321906
81	0x3e5e65f5	0.21718581
82	0x3e13595b	0.14389555
83	0xbefcf00c	-0.4940189
84	0x3e51e8ec	0.20499009
85	0xbcf2ed95	-0.029654304
86	0x3ef1a1a6	0.4719364
87	0x3ea358e7	0.31903765
88	0xbebb4e68	-0.36583257
89	0xbc30d7bd	-0.0107936235
90	0xbf73ce0c	-0.9523628
91	0xbdda0b7e	-0.10646723
92	0x3e9c8caf	0.30576083
93	0xbe719b6a	-0.23594442
94	0x3efaab3d	0.4895877
95	0xbf8071eb	-1.0034765
96	0xbcc98f96	-0.0246046
97	0xbe610920	-0.21976137
98	0x3e97ff01	0.2968674
99	0xbea93ffe	-0.33056635
100	0xbda68820	-0.081314325
101	0xbe79bada	-0.24387684
102	0x3ee4693d	0.4461154
103	0x3e8018b1	0.25018838
104	0xbc7c07bb	-0.015382702
105	0x3e146676	0.14492211
106	0xbcc2bcf2	-0.023771737
107	0x3ee7e549	0.45292118
108	0x3d57f3f4	0.052722886
109	0xbf43aa4b	-0.7643172
110	0x3ccfc913	0.025364434
111	0x3ee9e93f	0.45685765
112	0x3f656dd0	0.89620686
113	0x3eb0f8a3	0.34564695
114	0x3f6f4b11	0.9347392
115	0xbdcd89de	-0.10036062
116	0xbe2fa027	-0.17150937
117	0xbce5cc59	-0.028051542
118	0xbc97d257	-0.018532915
119	0x3fbbc662	1.4669917
120	0x3e4284ec	0.18996018
121	0xbe6777d2	-0.22604302
122	0x3e15b5a6	0.14620075
123	0x3e986d80	0.29771042
124	0x3f199d76	0.6000589
125	0x3ee3504e	0.44397205
126	0x3e1fd979	0.15610303
127	0x3e4cec5b	0.20012037
128	0xbd5de919	-0.054177377
129	0xbe3ffc2f	-0.18748544
130	0x3eaec9f6	0.3413846
131	0x3e5d42de	0.21607539
132	0xbee42691	-0.44560674
133	0xbee34919	-0.44391707
134	0x3f2edaf5	0.6830285
135	0x3fa76f92	1.3080924
136	0xbed3ce86	-0.41368502
137	0x3f180f34	0.593982
138	0x3f05304e	0.5202683
139	0x3f3c59c0	0.7357445
140	0x3f0a89b4	0.5411637
141	0x3e973911	0.29535726
142	0x3efc1a40	0.49238777
143	0x3ea5f191	0.32410863
144	0xbec21b07	-0.37911245
145	0x3d935e2e	0.07195698
146	0xbb96f7e0	-0.0046071857
147	0xbe4b68a7	-0.1986414
148	0x3eb48d23	0.3526393
149	0x3e2a3df5	0.16625197
150	0xbe975e55	-0.29564157
151	0x3d5ea64e	0.05435782
152	0xbe6c4981	-0.23074915
153	0xbe20e44b	-0.15712087
154	0x3d1789b6	0.036996566
155	0xbd29b2e1	-0.041430358
156	0x3e862c01	0.26205447
157	0xbf13c6fa	-0.5772549
158	0xbd42bc6a	-0.047542967
159	0xbf8e526b	-1.1118902
160	0x3f431c6f	0.7621526
161	0x3e44ad13	0.19206648
162	0x3e8c9e1a	0.27464372
163	0x3f54f5a1	0.831873
164	0x3f1a9a44	0.6039164
165	0xbd9dd397	-0.07706373
166	0xbe476d45	-0.19475277
167	0x3edc5e0e	0.43040508
168	0xbe761f1b	-0.24035303
169	0xbe8aef18	-0.2713554
170	0x3a85b594	0.0010201209
171	0x3d255924	0.040368214
172	0x3e5ee88b	0.21768396
173	0x3e8cf373	0.27529487
174	0x3edae1f2	0.42750508
175	0x3f1c7e20	0.6112995
176	0xbe8b50a0	-0.2720995
177	0xbd2784c6	-0.040898107
178	0x3dae1bae	0.08501373
179	0x3ed0d855	0.40790048
180	0x3e547143	0.20746331
181	0xbe0ad6f0	-0.13558555
182	0x3e1ea844	0.15493876
183	0xbd011cf5	-0.031521756
184	0xbed72822	-0.42022806
185	0x3e192bc8	0.14958107
186	0x3e64a51a	0.22328606
187	0xbf24969b	-0.64292306
188	0xbe6c9668	-0.2310425
189	0x3e637716	0.22213396
190	0xbe273bcb	-0.16331403
191	0x3f19073a	0.5977665
192	0xbde88e4f	-0.11355268
193	0x3f444aaf	0.7667646
194	0x3e6bff0f	0.23046516
195	0x3f56222b	0.83645886
196	0x3dc1f873	0.09471216
197	0xbe9c70de	-0.3055486
198	0xbf14de8d	-0.58152086
199	0x3f12fb58	0.5741477
200	0xbf178e97	-0.5920195
201	0x3eb0b7ec	0.3451532
202	0x3e2a3631	0.16622235
203	0xbdd6526d	-0.1046494
204	0x3e368437	0.17823873
205	0x3e5fd1f4	0.21857435
206	0xbe236a4e	-0.15958521
207	0xbe10ceeb	-0.14141433
208	0x3f39004a	0.72266066
209	0xbea037ba	-0.31292516
210	0x3ecb55ba	0.39713842
211	0x3e6dd6b7	0.23226438
212	0xbf0ef045	-0.5583537
213	0x3f8d8d2a	1.1058705
214	0xbe5c34b5	-0.21504481
215	0x3f618f1f	0.8810901
216	0x3f3889b9	0.7208515
217	0x3f27a986	0.6549305
218	0xbe9d0ec7	-0.30675337
219	0xbf5ce07c	-0.86280036
220	0xbf12a0ae	-0.5727643
221	0xbe63c82e	-0.22244331
222	0x3cf3e2ad	0.029771173
223	0x3f6811c8	0.9065213
224	0xbf257f8a	-0.64647734
225	0x3d9f9cc0	0.077935696
226	0xbf299d4a	-0.6625563
227	0x3d0306c2	0.031988867
228	0xbe0fbd78	-0.1403712
229	0xbe2d53d4	-0.16926509
230	0x3ea2f8c5	0.3183042
231	0x3e3cc632	0.1843498
232	0x3ec21749	0.3790839
233	0x3e1d881c	0.15383953
234	0xbf16c974	-0.58901143
235	0xbe48e23e	-0.19617555
236	0x3e3221c7	0.17395698
237	0xbd73c9c5	-0.059518594
238	0x3e92dff1	0.2868648
239	0xbf7b5c92	-0.98188126
240	0x3ec98140	0.39356422
241	0xbe8bcf38	-0.27306533
242	0x3d7169e9	0.058938894
243	0x3dae4012	0.08508314
244	0x3e68f489	0.22749533
245	0x3d646a5b	0.05576549
246	0x3d00d20d	0.03145032
247	0xbae88a26	-0.0017741367
248	0xbe324ca3	-0.17412047
249	0xbe4d740f	-0.20063804
250	0xbe64941f	-0.22322129
251	0x3e697325	0.2279783
252	0x3f4eb0ef	0.8073873
253	0x3e00e1a4	0.12586075
254	0xbe5d98e8	-0.2164036
255	0xbec41f9a	-0.3830536

rnn.bias_ih_l0 f4 [48]
0	0x3e193b34	0.1496399
1	0xbe0d079d	-0.13772435
2	0x3d84ddee	0.06487642
3	0x3e8a966e	0.27067894
4	0x3f019268	0.50614023
5	0xbe9e0b45	-0.30867973
6	0x3d819e94	0.063290745
7	0x3dd3d1ca	0.103427485
8	0x3eb1740a	0.34658843
9	0x3e445688	0.19173634
10	0x3eb653b9	0.3561075
11	0x3d3e6427	0.04648223
12	0x3d5d307c	0.054001316
13	0xbed80d90	-0.42197847
14	0x3e26b5a7	0.16280232
15	0xbe948f00	-0.2901535
16	0x3de32e1d	0.1109278
17	0x3e09c9b9	0.13455857
18	0xbf4b6d67	-0.7946381
19	0x3ec83f03	0.39110574
20	0xbe29ed88	-0.16594517
21	0xbe048f8c	-0.12945384
22	0x3e3e6cc5	0.1859618
23	0xbe85fc57	-0.26169083
24	0xbe505907	-0.20346461
25	0x3de004e7	0.10938435
26	0xbe064622	-0.13112691
27	0x3e0c9269	0.13727726
28	0x3d6d188f	0.05788475
29	0xbe3458ed	-0.17612047
30	0x3e495f3d	0.19665237
31	0xbda8bfa8	-0.082396805
32	0x3dad0603	0.08448412
33	0xbdd69997	-0.10478514
34	0x3eac81d0	0.3369279
35	0x3d80f3ed	0.06296525
36	0xbd9bd2c1	-0.076085575
37	0xbc8b2fbb	-0.016990533
38	0xbe9c9113	-0.30579433
39	0x3dfd1d02	0.123590484
40	0x3f478a06	0.7794498
41	0x3e5e15cd	0.21688004
42	0x3e7d2259	0.24720134
43	0x3f03eb71	0.5153113
44	0x3e9c419e	0.30518812
45	0xbe06bf5c	-0.13158935
46	0x3d1d3719	0.038382623
47	0xbd684d63	-0.056714427

rnn.bias_hh_l0 f4 [48]
0	0x3e8deb9a	0.27718812
1	0x3da7b04e	0.08187924
2	0xbc3cd190	-0.011524573
3	0x3c2ee1ef	0.010673984
4	0x3e1a6002	0.15075687
5	0xbf07b54b	-0.53011006
6	0x3ede4a4f	0.43416068
7	0x3dfa992a	0.12236245
8	0x3eb60ee5	0.3555824
9	0x3ede3e74	0.43407023
10	0x3e0a5b9d	0.1351151
11	0x3e10e44c	0.14149588
12	0x3e762d6c	0.24040765
13	0xbc893324	-0.016748019
14	0x3e7138ef	0.23556875
15	0x3e475a83	0.19468121
16	0xbda4ff3c	-0.080564946
17	0x3e684af2	0.2268484
18	0xbf503b4e	-0.8134049
19	0x3dbdc377	0.092657976
20	0xbe5849a2	-0.21121839
21	0xbe4ba443	-0.1988688
22	0xbe9270bb	-0.28601632
23	0xbe829d5a	-0.25510675
24	0x3e511923	0.20419745
25	0xbde4071d	-0.11134169
26	0x3e2d6bd5	0.16935666
27	0xbdba5e8d	-0.091000654
28	0x3e55d62b	0.2088248
29	0x3cf54b14	0.029943027
30	0x3e381dcb	0.17980115
31	0xbe0e4113	-0.13892011
32	0x3eced81b	0.4039925
33	0xbe62457e	-0.22096822
34	0x3ca242d5	0.019807259
35	0xbcf46b0f	-0.029836206
36	0x3e92fbb9	0.28707674
37	0x3e36a453	0.17836122
38	0x3e1b82d3	0.15186624
39	0x3e97ec4b	0.29672465
40	0x3f71a464	0.94391465
41	0x3e80195a	0.25019342
42	0x3dbec5fc	0.09315106
43	0x3e12ad28	0.14323866
44	0x3e5b6c58	0.21428049
45	0x3de6ccf1	0.11269558
46	0xbe35108f	-0.17682098
47	0xbd535723	-0.051596772

rnn.weight_ih_l1 f4 [48, 12]
0	0xbe878834	-0.26471102
1	0x3ecdf620	0.4022684
2	0x3e5a8b3f	0.2134218
3	0xbeff77e1	-0.49896148
4	0xbeaf47dd	-0.34234515
5	0xbcecdad2	-0.028912935
6	0xbf2cddc0	-0.67525864
7	0x3ed9a768	0.42510533
8	0x3ee0e61e	0.43925565
9	0xbf488cc3	-0.78339785
10	0x3e88993c	0.2667941
11	0xbf0468e3	-0.51722544
12	0x3e99984e	0.29999012
13	0x3e9a7110	0.30164385
14	0x3e85c27a	0.26124936
15	0x3e1b8cd3	0.15190439
16	0xbf43745b	-0.7634942
17	0xbe90ab40	-0.28255653
18	0x3e43417c	0.19067949
19	0xbe4834a9	-0.19551338
20	0x3ec1ad6a	0.37827617
21	0xbe435d1f	-0.19078492
22	0x3e5ceaae	0.21573898
23	0x3e1318fc	0.14365
24	0xbe468515	-0.19386704
25	0xbf0ae948	-0.5426221
26	0xbe8aeaf6	-0.27132386
27	0xbd0db160	-0.034592986
28	0xbeed869d	-0.46391764
29	0xbf9b8767	-1.2150697
30	0xbe333de0	-0.17504072
31	0x3d767a57	0.060175266
32	0xbe10e263	-0.1414886
33	0x3f063e21	0.5243855
34	0xbd18fadb	-0.03734861
35	0x3d840009	0.06445319
36	0x3e70d820	0.23519945
37	0xbe835c57	-0.25656387
38	0xbe35223c	-0.1768884
39	0x3eadf9aa	0.3397954
40	0xbe8e187b	-0.27753052
41	0x3e787f26	0.24267253
42	0x3f06bfad	0.52636224
43	0x3c686170	0.014183387
44	0xbd80a216	-0.062809154
45	0x3de3425f	0.11096644
46	0x3e30a30e	0.172497
47	0xbd283e5e	-0.041075103
48	0xbec5a0b7	-0.38599178
49	0x3df6c2ec	0.12048897
50	0x3e85f50f	0.26163527
51	0x3d3fb048	0.046798974
52	0xbd2b1c2e	-0.04177492
53	0x3ed667dd	0.41876116
54	0x3e490339	0.19630136
55	0x3e9a3661	0.30119613
56	0xbe3796aa	-0.17928568
57	0x3f3e0f44	0.74242043
58	0x3e043b2d	0.12913199
59	0x3f1e0e01	0.6174012
60	0xbefb04f6	-0.49027222
61	0xbf4cb388	-0.7996144
62	0x3d8e33ff	0.06943511
63	0x3faff2df	1.3745993
64	0x3f3c7d4d	0.73628694
65	0x3f856803	1.0422367
66	0x3fb512fa	1.4146416
67	0xbecd25fb	-0.4006804
68	0xbe329180	-0.17438316
69	0x3f1cfad1	0.61320215
70	0x3eb40d34	0.35166323
71	0x3f8838a0	1.064228
72	0xbed913e4	-0.42397988
73	0xbe554dee	-0.20830509
74	0x3dc1c93d	0.09462211
75	0xbd899346	-0.06717543
76	0xbda61abf	-0.0811057
77	0xbe56b673	-0.20968036
78	0xbd8415de	-0.06449483
79	0x3e8d22ec	0.27565706
80	0x3e412d5d	0.18864961
81	0x3e5af8c0	0.21383953
82	0x3ecab6a5	0.39592472
83	0x3cf05d87	0.029341472
84	0xbf3e1c7d	-0.7426222
85	0xbead1e74	-0.33812296
86	0x3f1bec89	0.609078
87	0x3d81b00e	0.06332408
88	0xbd8530a6	-0.065034196
89	0x3ef76185	0.4831659
90	0xbe8ceada	-0.27522928
91	0x3ea4b8e8	0.32172322
92	0x3de420e9	0.111390896
93	0xbc927764	-0.017879196
94	0x3f12296a	0.5709444
95	0x3e5ef23a	0.2177209
96	0xbe86721f	-0.26258942
97	0xbeb5cd4d	-0.35508195
98	0x3e0fb44a	0.14033619
99	0x3f034e32	0.5129119
100	0xbc63643a	-0.013878876
101	0x3ec508d6	0.38483304
102	0x3ea54bf8	0.32284522
103	0xbd80024e	-0.062504396
104	0xbd3d65d3	-0.046239685
105	0x3efa7968	0.4892075
106	0x3d0d8642	0.034551866
107	0x3ea599f2	0.32344013
108	0xbf0c7e70	-0.5488043
109	0xbea856d4	-0.32878745
110	0xbe9e1d4d	-0.3088173
111	0x3caf9733	0.021434402
112	0x3e8db415	0.27676454
113	0xbe978428	-0.29593015
114	0xbd4da249	-0.050203595
115	0x3e55af7e	0.20867726
116	0xbeb93c2c	-0.3617872
117	0x3ea50607	0.3223116
118	0x3edd7b00	0.43257904
119	0x3e818d3c	0.25303066
120	0xbf0abb11	-0.5419169
121	0xbe223e9d	-0.15844198
122	0x3f0f2ba0	0.5592594
123	0x3f865e6d	1.0497566
124	0x3ee6ae9a	0.45055085
125	0xbd313a6b	-0.043268602
126	0x3f6829b8	0.9068866
127	0xbe3fedd6	-0.18743071
128	0x3d8eb2a0	0.06967664
129	0x3edce2bf	0.43141744
130	0x3e840e9c	0.25792396
131	0x3f6d835f	0.9277858
132	0xbd2708fd	-0.040780056
133	0xbc8a6940	-0.01689589
134	0x3ebecfec	0.37268007
135	0x3e9468cc	0.28986204
136	0x3eb7a9fc	0.35871875
137	0x3f4dc3ae	0.8037671
138	0x3f29cc94	0.66327786
139	0xbe7a1a9c	-0.24424213
140	0xbc13042e	-0.0089731645
141	0xbdbbdfb7	-0.091735296
142	0x3dee6898	0.116410434
143	0x3d50253d	0.050816763
144	0x3e20a835	0.15689166
145	0x3f64dc9c	0.89399123
146	0x3ea4190f	0.32050368
147	0xbe66f244	-0.22553355
148	0xbf3683f0	-0.7129507
149	0xbe9de526	-0.3083889
150	0xbf89ddc4	-1.0770802
151	0xbe031f8a	-0.12805
152	0x3dc5e8fe	0.0966358
153	0xbdb9343f	-0.09043168
154	0x3e9f2922	0.3108607
155	0xbe9a95d9	-0.3019245
156	0x3e3f1049	0.18658556
157	0x3f839576	1.0279987
158	0x3e0f227e	0.13978001
159	0xbf21bf7a	-0.63182795
160	0xbf2a0f6a	-0.6642977
161	0xbdec6004	-0.11541751
162	0x3e9bceb2	0.30431134
163	0xbec8bcfc	-0.39206684
164	0x3d81202c	0.063049644
165	0xbf02451a	-0.5088669
166	0x3ee25833	0.44207916
167	0xbe24bdea	-0.16088071
168	0x3e0cf672	0.13765886
169	0xbcbdff91	-0.023193153
170	0xbe1cbc02	-0.15306094
171	0x3e1d800a	0.15380874
172	0xbdcafe56	-0.09911792
173	0xbeaba644	-0.33525288
174	0x3ee9c453	0.45657596
175	0x3e72440a	0.23658767
176	0xbf13cd40	-0.5773506
177	0x3f3fb67a	0.7488781
178	0x3e9d911a	0.30774766
179	0x3e4ab8d9	0.19797076
180	0x3ec47f1e	0.38378233
181	0x3ebc55c8	0.36784196
182	0xbe522ce4	-0.20524937
183	0x3e37745c	0.17915481
184	0xbefea9fa	-0.49739057
185	0x3d4d0437	0.050052848
186	0x3c4f76dd	0.012662617
187	0x3e25f88a	0.16208091
188	0x3bde2db4	0.0067803506
189	0x3bfe7748	0.0077656843
190	0x3ec0e48c	0.37674367
191	0xbe40d5fe	-0.18831632
192	0xbebf4859	-0.37359884
193	0xbdbddce3	-0.092706464
194	0xbb298e78	-0.0025872272
195	0xbe60681f	-0.21914719
196	0x3e924dbe	0.28574938
197	0x3ed8b840	0.42328072
198	0x3f227df7	0.6347346
199	0x3e953462	0.29141527
200	0x3d9ca72a	0.076490715
201	0x3eb42fc3	0.3519269
202	0x3ed1677e	0.4089927
203	0x3d25034c	0.040286347
204	0x3e98d205	0.29847732
205	0x3deffd91	0.11718286
206	0xbf8e2062	-1.1103632
207	0x3e888506	0.2666399
208	0x3c9703d0	0.018434435
209	0xbf6507af	-0.8946485
210	0x3e29d211	0.1658404
211	0x3d6c82bb	0.05774186
212	0xbee581ce	-0.44825596
213	0x3d0aff56	0.033934914
214	0xbefed830	-0.49774313
215	0x3f3ad83d	0.72986203
216	0x3c1c9d81	0.009559036
217	0x3e826e5a	0.25474817
218	0x3e138843	0.14407448
219	0xbc669b4f	-0.014075114
220	0xbd8322f8	-0.06403154
221	0x3e0d3272	0.13788775
222	0xbe42ae23	-0.1901174
223	0x3f0437e0	0.5164776
224	0xbe8902ef	-0.2676005
225	0x3e9ed230	0.31019735
226	0x3d40ce9c	0.047072038
227	0xbd8c7fac	-0.06860289
228	0xbec2f01b	-0.3807381
229	0x3ddc68b0	0.10762155
230	0x3e5af19c	0.21381229
231	0x3ef42c1e	0.4768991
232	0xbe5437a0	-0.20724344
233	0x3ea35ff8	0.31909156
234	0x3edbb791	0.42913488
235	0x3da601a6	0.08105783
236	0xbe2f14e6	-0.17097816
237	0x3f1bd784	0.60875726
238	0x3d278ec4	0.040907636
239	0x3ee0437e	0.43801492
240	0xbde0ad6e	-0.10970579
241	0xbe262012	-0.16223171
242	0xbde350ad	-0.11099372
243	0x3e856598	0.26054072
244	0x3e5bfc6d	0.21483012
245	0x3ea53aa9	0.32271317
246	0xbd33bfa6	-0.043883942
247	0x3d89e76d	0.06733594
248	0xbd3c2ac7	-0.045939233
249	0x3e21681a	0.15762368
250	0xbec8dd0a	-0.3923114
251	0x3e053e9d	0.13012166
252	0x3e7be79d	0.24600072
253	0x3e13c351	0.14429976
254	0xbee67fb2	-0.450193
255	0xbe3816ec	-0.17977494

rnn.weight_hh_l1 f4 [48, 12]
0	0xbefa0cc9	-0.4883788
1	0x3eccb32b	0.39980444
2	0xbebe32ca	-0.37148124
3	0xbf0a2ab7	-0.5397143
4	0x3de28b96	0.1106178
5	0xbf994532	-1.1974242
6	0xbe1ae82f	-0.15127634
7	0xbec93089	-0.39294842
8	0xbdc422be	-0.09576939
9	0x3f1b8333	0.6074707
10	0x3eb7be2e	0.35887283
11	0xbf21b579	-0.6316753
12	0xbe247ebc	-0.1606397
13	0x3e7b223c	0.24524778
14	0xbf1ee055	-0.62061054
15	0x3d793dc4	0.06084992
16	0xbd2dfdb0	-0.042478263
17	0xbf5ef424	-0.8709128
18	0xbe3524f7	-0.17689882
19	0x3d2f1bbc	0.04275106
20	0x3e3699fa	0.17832175
21	0x3f439fa8	0.7641549
22	0x3f0db30f	0.55351347
23	0xbeb17a13	-0.34663448
24	0xbe676478	-0.2259692
25	0xbef66131	-0.48121026
26	0x3e8a4c78	0.27011466
27	0x3f25ebcc	0.6481292
28	0xbee128c6	-0.4397642
29	0xbe860e21	-0.26182655
30	0xbe97a321	-0.29616645
31	0xbf2a75f6	-0.66586244
32	0x3f22de11	0.63620096
33	0x3eae2c40	0.34018135
34	0xbe823910	-0.2543416
35	0xbed24a43	-0.41072282
36	0x3ed6af17	0.41930458
37	0xbeba8519	-0.3642967
38	0xbe626e48	-0.22112381
39	0x3f00b026	0.5026878
40	0x3e58b1b1	0.21161534
41	0x3e14bc60	0.14524984
42	0xbcba63d9	-0.02275269
43	0x3f54f852	0.83191407
44	0x3de6cdba	0.11269708
45	0x3d847c64	0.06469038
46	0x3e6d4029	0.23169006
47	0x3e031e4d	0.12804528
48	0x3e32f78b	0.17477243
49	0x3dc089dd	0.09401295
50	0xbd8e3075	-0.06942836
51	0xbc62d9da	-0.013845885
52	0x3da08004	0.07836917
53	0x3ea4b622	0.32170206
54	0x3ec7b0d3	0.39002094
55	0xbd87cf35	-0.066313185
56	0xbea10ead	-0.3145651
57	0xbd334163	-0.04376353
58	0x3eed2cab	0.4632314
59	0xbe04db18	-0.12974203
60	0x3d29988f	0.041405257
61	0xbfa57e09	-1.2929088
62	0x3eeb2124	0.45923722
63	0xbf0f8fc4	-0.56078744
64	0x3e7f5193	0.24933462
65	0x3f66572d	0.8997677
66	0x3daff624	0.085918695
67	0x3fbaac3e	1.4583814
68	0xbee342b2	-0.44386822
69	0xbe994a9d	-0.29939738
70	0x3e8cd96b	0.27509627
71	0xbf45bfa7	-0.77245563
72	0xbc1cfc86	-0.009581691
73	0x3d5bb056	0.053634964
74	0xbda27daa	-0.07934125
75	0x3d5109a0	0.05103457
76	0x3e1521e8	0.14563715
77	0xbd66567c	-0.05623482
78	0x3e2a372a	0.16622606
79	0x3e10e128	0.1414839
80	0x3eb08c81	0.34482196
81	0x3eb82a6e	0.3596987
82	0xbe0d4249	-0.13794817
83	0xbf111a82	-0.5668107
84	0xbe9ba85f	-0.30401894
85	0x3c252491	0.010079519
86	0x3d84de09	0.06487662
87	0xbeed0b13	-0.4629751
88	0x3e7e5277	0.24836145
89	0xbf2ccc7f	-0.67499536
90	0x3ee58224	0.44825852
91	0x3e82e380	0.25564194
92	0xbd5055a6	-0.05086293
93	0x3f015414	0.5051892
94	0x3e9b46c2	0.3032742
95	0xbe83bd8a	-0.25730544
96	0xbdb166d6	-0.086621925
97	0x3d147d57	0.036252346
98	0xbe25fa69	-0.16208805
99	0x3e04c8b3	0.12967186
100	0x3d8d6e4d	0.06905804
101	0xbf1f4307	-0.6221165
102	0xbd4cb61a	-0.049978353
103	0xbdb6acba	-0.08919664
104	0xbe1b21ee	-0.15149662
105	0x3e2e9282	0.17048076
106	0xbde5039d	-0.1118233
107	0x3da0002b	0.07812532
108	0xbdb74af5	-0.08949844
109	0x3ee01b15	0.43770662
110	0x3e427cec	0.18992966
111	0xbf1ff1a5	-0.62478095
112	0x3eafa924	0.34308732
113	0xbf23604d	-0.6381882
114	0x3e8e15bd	0.2775096
115	0x3e3ef561	0.18648292
116	0xbe3bfa87	-0.18357287
117	0xbe0f2a9a	-0.13981095
118	0x3e23bf63	0.15990977
119	0x3d7bb318	0.061450094
120	0xbf015675	-0.5052255
121	0x3e4e7468	0.20161593
122	0x3d32f2be	0.04368853
123	0x3da6d212	0.081455365
124	0x3bd38899	0.0064554927
125	0xbc144ee7	-0.009052015
126	0x3e433353	0.19062547
127	0xbe333c8d	-0.17503567
128	0xbea4d45f	-0.32193276
129	0x3f2caadf	0.6744823
130	0x3d8be15d	0.06830094
131	0xbf3a42e4	-0.72758317
132	0xbefefff1	-0.49804643
133	0xbea8d91c	-0.3297814
134	0xbf00f2cd	-0.50370485
135	0xbf1261fc	-0.5718076
136	0x3ef38005	0.4755861
137	0x3e8143c4	0.25247014
138	0xbdbe20e0	-0.09283614
139	0xbdb779c3	-0.08958771
140	0xbe42c00e	-0.19018576
141	0xbdb1b134	-0.08676377
142	0x3ead5cde	0.33859915
143	0xbed2da3e	-0.4118213
144	0x3ecd811d	0.40137568
145	0xbf236b2e	-0.6383542
146	0x3d08344c	0.033253
147	0xbbb014f6	-0.0053735925
148	0xbe20ece3	-0.15715365
149	0xbead77c0	-0.33880424
150	0xbf34e65c	-0.70664
151	0xbe39c1af	-0.1814029
152	0x3f011c20	0.5043354
153	0x3da14100	0.07873726
154	0xbebdd264	-0.37074578
155	0xbee5c385	-0.44875732
156	0xbe0b090c	-0.1357767
157	0x3f51016b	0.8164279
158	0x3d10f246	0.0353873
159	0x3e522248	0.2052089
160	0x3e7c0cae	0.24614212
161	0xbf960ae3	-1.1722072
162	0x3df388c5	0.11891321
163	0x3e866420	0.26248264
164	0x3ddad592	0.106852666
165	0x3f23dd32	0.6400939
166	0x3dd0ab5b	0.101889335
167	0xbf207e83	-0.6269304
168	0x3eca3814	0.3949591
169	0xbc0591a2	-0.008152397
170	0x3eb52577	0.35380146
171	0xbd9abc16	-0.07555406
172	0x3e6a5918	0.22885549
173	0x3f5c8056	0.86133325
174	0xbe8c7d4e	-0.2743935
175	0xbe90f000	-0.28308105
176	0x3efcf827	0.49408075
177	0xbda65bbe	-0.08122967
178	0x3eff7281	0.49892047
179	0x3e666a25	0.22501428
180	0x3e9faefa	0.31188184
181	0xbd87bdc0	-0.06627989
182	0xbe892c42	-0.2679158
183	0x3f10cc04	0.56561303
184	0xbd4a1930	-0.049340427
185	0x3e3a1230	0.18171
186	0x3d1f6d80	0.038922787
187	0x3e96cef1	0.2945476
188	0x3ecd24c4	0.40067112
189	0x3b74a90f	0.0037332212
190	0xbe0c2546	-0.13686094
191	0xbe871231	-0.26381066
192	0xbe1221eb	-0.14270751
193	0x3ef4e28f	0.478291
194	0xbea36996	-0.31916493
195	0xbf04f63e	-0.51938236
196	0x3ec259da	0.37959176
197	0xbf1a7052	-0.6032764
198	0xbc43796d	-0.011930806
199	0x3df2ec9f	0.11861538
200	0xbec021e1	-0.37525848
201	0x3efe6df2	0.49693257
202	0x3f0401c1	0.51565176
203	0xbe90dc60	-0.28293133
204	0x3f770ebd	0.96506864
205	0xbf04b052	-0.51831543
206	0xbd86ca5f	-0.06581568
207	0x3e5aee1e	0.21379897
208	0xbec238f3	-0.37934074
209	0xbd48be3d	-0.04900955
210	0xbf15355e	-0.58284557
211	0xbe91bfcc	-0.28466642
212	0x3f0a4b56	0.54021204
213	0xbd0487fe	-0.032356255
214	0xbe2d446c	-0.16920632
215	0xbf00e099	-0.5034271
216	0x3e4cc456	0.19996771
217	0x3e8dfd12	0.2773214
218	0x3e175103	0.14776997
219	0x3e944cc9	0.28964832
220	0x3e77c3d4	0.24195796
221	0xbf0c22ce	-0.5474061
222	0xbcd0b605	-0.025477419
223	0xbd4d0859	-0.05005679
224	0x3d932f5c	0.071867675
225	0x3ed2baf3	0.41158256
226	0x3d89bbc8	0.067252696
227	0xbea375f4	-0.3192593
228	0xbe7a1ddc	-0.24425453
229	0xbf261fc8	-0.64892244
230	0x3e41e207	0.18933879
231	0xbe896872	-0.26837498
232	0x3e56ef22	0.2098966
233	0x3c7e2cd1	0.015513615
234	0x3e493279	0.1964816
235	0x3ea3cb12	0.31990868
236	0xbed9d64c	-0.42546308
237	0x3b4c6c7b	0.003119259
238	0x3dddbbb0	0.10826814
239	0xbdb3ea34	-0.08784905
240	0x3e2fb022	0.17157033
241	0x3e7aea4a	0.24503437
242	0x3e76dba5	0.24107225
243	0xbe70c88b	-0.23514001
244	0x3dd98204	0.10620502
245	0xbea1512e	-0.31507248
246	0xbdb56c0d	-0.088585
247	0xbe14e850	-0.14541745
248	0x3e88c926	0.26715964
249	0xbd36dda9	-0.044644985
250	0x3de03a2f	0.10948598
251	0xbe900c48	-0.2813437
252	0xbda63d6e	-0.081171855
253	0x3ec662aa	0.3874715
254	0x3da98647	0.082775645
255	0xbe121925	-0.14267404

rnn.bias_ih_l1 f4 [48]
0	0xbe2662d9	-0.16248645
1	0xbea3d35d	-0.31997195
2	0xbd91ef15	-0.071256794
3	0xbe1c913d	-0.15289779
4	0x3eadc559	0.33939627
5	0x3ed56207	0.4167635
6	0x3d88e7ae	0.066848144
7	0x3ef5be0b	0.47996554
8	0x3ea1951d	0.31559077
9	0xbd653c94	-0.055965975
10	0x3ecd3934	0.40082705
11	0x3ed6ac0f	0.41928145
12	0xbf180a03	-0.59390277
13	0x3d098ba6	0.033580445
14	0xbd8d6d63	-0.069056295
15	0xbe91e300	-0.284935
16	0x3e32e240	0.1746912
17	0xbf1847b5	-0.59484416
18	0xbea3abce	-0.31967014
19	0xbd81da5c	-0.06340477
20	0x3e69ec77	0.2284411
21	0xbdc9105a	-0.09817572
22	0x3ed16ead	0.4090475
23	0xbd7de65e	-0.061987273
24	0x3e002de6	0.12517509
25	0xbdd0b8b6	-0.10191481
26	0x3db5ec0e	0.088829145
27	0xbe52d5d1	-0.20589377
28	0x3d00efb5	0.031478602
29	0xbdcfab69	-0.10140116
30	0x3e85e67a	0.26152402
31	0x3e26f8eb	0.16305892
32	0xbe2b0a3d	-0.16703124
33	0xbe5a2edf	-0.21306942
34	0x3e22eb2c	0.15910023
35	0xbd50c598	-0.05096969
36	0xbe44c685	-0.19216354
37	0x3e9ec5cd	0.31010285
38	0xbdaec019	-0.085327335
39	0xbe422028	-0.18957579
40	0xbdf268a1	-0.11836363
41	0x3ed247c2	0.41070372
42	0xbe2b1207	-0.16706096
43	0x3db78313	0.08960547
44	0x3e80f1f8	0.25184608
45	0xbd53f05c	-0.051742896
46	0x3efe5403	0.4967347
47	0x3e2867a7	0.1644579

rnn.bias_hh_l1 f4 [48]
0	0x3ea10064	0.3144561
1	0x3de6c160	0.11267352
2	0xbd871ccd	-0.0659729
3	0x3dc77d8d	0.09740744
4	0xbdd13614	-0.10215393
5	0x3eb512aa	0.35365802
6	0xbbc21d94	-0.005923936
7	0x3ee3e127	0.44507715
8	0xbe188522	-0.14894536
9	0x3ee852e8	0.45375752
10	0x3e13a6a2	0.14419034
11	0x3e8664bd	0.26248732
12	0xbdf56b4e	-0.11983357
13	0xbe0647a4	-0.13113266
14	0xbe1ea6dd	-0.15493341
15	0xbe7006d8	-0.2344011
16	0x3eb5525b	0.35414395
17	0xbf051026	-0.51977766
18	0x3e30c900	0.17264175
19	0x3edf9a71	0.43672517
20	0xbda3bd66	-0.07995109
21	0x3c6e4deb	0.014544944
22	0xbd58e792	-0.052955218
23	0xbdac013e	-0.083986744
24	0x3ea06c31	0.31332543
25	0x3dd5542f	0.10416447
26	0xbc47d76e	-0.0121973585
27	0xbe5079f5	-0.20359023
28	0x3e70fd5b	0.23534147
29	0xbdf15be0	-0.11785102
30	0x3e797ef1	0.2436483
31	0x3ebabc1e	0.36471647
32	0xbe853ee9	-0.2602456
33	0x3d40668b	0.046972793
34	0xbd721bf8	-0.059108704
35	0xbe4f5bbc	-0.20249838
36	0x3dee5fa5	0.116393365
37	0x3e1e9073	0.1548479
38	0xbe363ad0	-0.17795873
39	0xbd38044c	-0.044925973
40	0x3dcbd88a	0.09953411
41	0x3e7fff3d	0.2499971
42	0xbde7329b	-0.11288949
43	0x3eb7eefe	0.35924524
44	0x3e67dfd9	0.22643985
45	0x3e73e5b7	0.23818098
46	0x3e9c5461	0.30533126
47	0x3ee2100b	0.44152865

rnn.weight_ih_l2 f4 [48, 12]
0	0xbef2f5e5	-0.47453228
1	0x3e53c83f	0.20681857
2	0x3dde5563	0.1085613
3	0xbf13a969	-0.57680374
4	0x3ec1602f	0.37768695
5	0x3de22962	0.110430494
6	0x3d253953	0.04033787
7	0xbe1c2c66	-0.15251312
8	0xbbf59ae0	-0.007495269
9	0xbbbbdf89	-0.0057334346
10	0x3e649fe0	0.22326612
11	0x3e838454	0.25686896
12	0x3ea73e6c	0.32664812
13	0x3dcd242b	0.10016664
14	0xbcb60a2f	-0.022221653
15	0x3d924385	0.071417846
16	0xbe4bc5c2	-0.19899657
17	0x3e80cc4d	0.2515587
18	0xbdac5ae1	-0.08415771
19	0xbdee76d4	-0.116437584
20	0xbd943ff4	-0.072387606
21	0x3dddefe8	0.10836774
22	0x3d7b4f8c	0.06135516
23	0xbe9d552b	-0.3072904
24	0x3dd23eba	0.102658704
25	0xbe4c374b	-0.19942968
26	0xbcc78f79	-0.024360405
27	0x3e935c01	0.2878113
28	0xbd5a9c35	-0.053371627
29	0x3f71ecba	0.9450184
30	0x3e1ce953	0.15323381
31	0xbe4ac87b	-0.1980304
32	0x3e309fae	0.17248413
33	0xbea6f973	-0.3261219
34	0x3f071a66	0.52774656
35	0xbd931e7d	-0.071835496
36	0xbe79462e	-0.24343178
37	0xbeb26a41	-0.3484669
38	0xbec07946	-0.37592524
39	0x3d9d218b	0.076724134
40	0x3cb7420b	0.022370359
41	0x3e392159	0.18079127
42	0xbebad83c	-0.364931
43	0xbe97e861	-0.2966948
44	0x3eb8eac6	0.36116618
45	0xbd1d6a3e	-0.0384314
46	0xbe1d6bf7	-0.15373217
47	0x3e2ddea3	0.1697946
48	0x3dd4d2ef	0.10391795
49	0xbe805891	-0.2506757
50	0xbd15acf6	-0.0365419
51	0x3e57ef73	0.21087436
52	0x3eb6b053	0.356814
53	0x3f933ce7	1.1502961
54	0x3e4384a3	0.19093566
55	0xbe493778	-0.19650066
56	0x3ddacf04	0.10684016
57	0xbe8e5109	-0.277962
58	0x3e32ca0f	0.17459892
59	0xbd370622	-0.044683583
60	0xbe06379a	-0.13107148
61	0xbd3be9d1	-0.04587728
62	0xbdf11c16	-0.11772935
63	0x3e875d3a	0.26438314
64	0x3e709eb1	0.23498036
65	0x3f5799d4	0.842191
66	0x3eeb0aee	0.45906776
67	0xbde7fe85	-0.113278426
68	0xbeab949a	-0.33511811
69	0x3d22a6e1	0.03970993
70	0x3f84756d	1.0348336
71	0xbd5f5b27	-0.05453029
72	0xbdb3d15b	-0.08780166
73	0xbe1f62ab	-0.15564983
74	0xbdc2cf03	-0.095121406
75	0x3ea6b956	0.32563275
76	0x3ddf361a	0.10898991
77	0x3f33f758	0.7029929
78	0xbd8d7870	-0.06907737
79	0x3dc8fd09	0.098138876
80	0xbe4f2ad7	-0.20231186
81	0xbd03cdc6	-0.032178663
82	0x3cb7d6cd	0.022441292
83	0x3e8c7404	0.27432263
84	0x3eb07cd1	0.34470227
85	0xbe810044	-0.25195515
86	0xbc282782	-0.010263326
87	0x3e736b0e	0.23771307
88	0x3e2ea632	0.17055586
89	0x3effc27e	0.49953073
90	0x3eb2e9d4	0.34944022
91	0xbe7758d3	-0.24154978
92	0x3e3782ce	0.17920992
93	0xbd647a1f	-0.055780526
94	0xbcbf568b	-0.023356697
95	0x3ea2913c	0.3175143
96	0xbec709f6	-0.38874787
97	0x3e18617f	0.14880942
98	0xbe9b4c3e	-0.30331606
99	0x3d5194d9	0.051167343
100	0xbcd2992e	-0.025707807
101	0xbe45a6f8	-0.19301975
102	0xbea298a8	-0.31757092
103	0xbee1c644	-0.44096577
104	0x3d22629e	0.03964483
105	0x3e565efc	0.20934671
106	0x3ee5a542	0.44852644
107	0xbeff4262	-0.49855334
108	0xbf114884	-0.56751275
109	0x3d7e35c6	0.062063
110	0x3e7abb64	0.24485546
111	0x3ee959bf	0.45576283
112	0x3eec29fd	0.46125785
113	0x3f83c0a5	1.0293165
114	0x3df2aec7	0.118497424
115	0x3ee4128a	0.44545394
116	0xbf0c593b	-0.54823655
117	0xbf0414b6	-0.515941
118	0x3f9a0063	1.2031368
119	0x3dac54f6	0.084146425
120	0x3e8c2db2	0.27378613
121	0xbe715b04	-0.23569876
122	0x3e93727a	0.28798276
123	0x3d8ec8ca	0.06971891
124	0xbd376448	-0.04477337
125	0x3f144da2	0.5793096
126	0xbe810367	-0.25197908
127	0xbd2fe4c8	-0.042942792
128	0x3df6dc24	0.12053707
129	0xbe5506d4	-0.20803386
130	0x3bfa06b5	0.007630194
131	0xbe837e22	-0.2568217
132	0x3e50ef6f	0.20403837
133	0xbd8e7f9b	-0.069579326
134	0x3dd10aa4	0.10207108
135	0x3e23b065	0.15985258
136	0x3eb01de7	0.34397814
137	0x3f08d427	0.5344872
138	0x3e76630f	0.24061225
139	0xbdb2c6ec	-0.087293476
140	0xbe8273a2	-0.25478846
141	0xbea398de	-0.31952566
142	0x3f0a6b25	0.5406974
143	0x3e0c5968	0.13705981
144	0x3df07702	0.11741449
145	0x3e62c7fd	0.22146602
146	0xbe303fca	-0.17211834
147	0x3ddddaef	0.10832774
148	0xbeca6bd8	-0.39535403
149	0xbd7c6b8a	-0.061625995
150	0xbe982d51	-0.29722074
151	0xbdcc8878	-0.09986967
152	0x3dec7267	0.11545258
153	0x3e25953f	0.16170214
154	0xbd03dcc7	-0.03219297
155	0x3d3ffb2b	0.04687039
156	0x3d086ef6	0.033308946
157	0xbe3f02a9	-0.18653359
158	0xbd877c9a	-0.06615563
159	0x3e2622f0	0.16224265
160	0x3d83acc6	0.06429438
161	0x3ed6e840	0.41974068
162	0xbe2e8712	-0.17043713
163	0xbe0c4509	-0.1369821
164	0x3e32271c	0.17397732
165	0xbddbb84b	-0.107285105
166	0x3de13486	0.10996346
167	0x3e172f6d	0.14764185
168	0x3e961ff5	0.29321256
169	0xbe7cc1f8	-0.24683368
170	0xbe394e36	-0.18096241
171	0x3e1fa4ec	0.15590256
172	0xbcba9274	-0.022774912
173	0x3f5b2054	0.85596204
174	0x3cbbad1c	0.022909693
175	0x3d08d34f	0.033404645
176	0x3e0f19a4	0.13974625
177	0xbe84bb84	-0.25924313
178	0xbdc29e90	-0.095029
179	0x3d2e89d1	0.0426119
180	0xbe94a934	-0.29035342
181	0xbeb02fab	-0.34411368
182	0x3e05641b	0.13026468
183	0xbe1aef4c	-0.15130347
184	0x3d3f55de	0.04671275
185	0x3f00d558	0.50325537
186	0xbeb208c6	-0.3477232
187	0xbf0bef17	-0.546617
188	0x3ed6f27a	0.4198187
189	0x3e07f3dc	0.13276619
190	0xbef79f40	-0.48363686
191	0x3cc56a07	0.02409841
192	0xbe2dbbe1	-0.16966201
193	0xbe8e5ad2	-0.27803665
194	0x3e746f8e	0.2387068
195	0x3eaa8e03	0.3331147
196	0xbe97081a	-0.29498369
197	0x3eeac88c	0.4585613
198	0xbbffbbb0	-0.0078043565
199	0xbe66e604	-0.22548681
200	0x3d307926	0.043084286
201	0xbdf367fb	-0.11885067
202	0xbe931e0e	-0.28733867
203	0x3e4313c9	0.19050516
204	0xbe0207bb	-0.12698261
205	0xbe71b6b2	-0.23604849
206	0x3e027034	0.12738115
207	0x3e2872de	0.16450068
208	0xbea8f5c9	-0.3300002
209	0x3e6e8d42	0.23296073
210	0xbd35066c	-0.044195578
211	0xbea49ca5	-0.3215076
212	0x3d9ab290	0.07553589
213	0x371d8680	9.389245e-06
214	0xbbbf7a3b	-0.0058434284
215	0x3d2d9e49	0.04238728
216	0x3eb8917d	0.360485
217	0xbe8c5527	-0.27408716
218	0xbe2f6bc4	-0.17130953
219	0xbdcd9576	-0.10038273
220	0xbe53e837	-0.20694052
221	0x3f463151	0.77419
222	0xbe474b47	-0.1946231
223	0xbe6be3a6	-0.2303606
224	0xbe545fbc	-0.20739645
225	0xbd928ba3	-0.0715554
226	0xbe4d91c4	-0.20075136
227	0xbe209d18	-0.15684927
228	0x3e95e506	0.29276294
229	0xbe25ccbe	-0.16191384
230	0x3e156b4b	0.1459171
231	0x3e921168	0.28528905
232	0x3db2a9e6	0.08723812
233	0x3dddd16b	0.10830959
234	0x3e6c0712	0.23049572
235	0xbe134ec3	-0.14385514
236	0x3da2a652	0.07941879
237	0xbbb36f3c	-0.0054759067
238	0xbdc00c5f	-0.093773596
239	0xbdedc743	-0.11610272
240	0xbdbcc91a	-0.092180446
241	0xbd60d844	-0.054893747
242	0xbf2508ff	-0.6446685
243	0x3dfae8ea	0.12251456
244	0x3b51e429	0.0032026863
245	0x3ec662e1	0.38747314
246	0xbe88e186	-0.2673456
247	0xbe1885cf	-0.14894794
248	0x3dcd0f12	0.1001264
249	0xbda4f581	-0.08054639
250	0x3e866913	0.2625204
251	0xbe433a88	-0.19065297
252	0xbdb8616b	-0.09002956
253	0xbefb316f	-0.49061152
254	0x3bad9744	0.0052975733
255	0x3d90e2d8	0.07074517

rnn.weight_hh_l2 f4 [48, 12]
0	0x3ce3f562	0.027826969
1	0x3ddc5499	0.10758323
2	0xbea07fc9	-0.31347492
3	0xbef69973	-0.48163947
4	0x3de8f8bc	0.11375567
5	0xbe0d62be	-0.13807198
6	0x3de7df3e	0.11321877
7	0x3d8ac664	0.06776121
8	0xba1710c3	-0.00057626906
9	0xbe5b34ef	-0.21406911
10	0x3da51771	0.08061112
11	0xbc983fdf	-0.018585144
12	0xbed14641	-0.40873912
13	0xbe604bfc	-0.21903986
14	0x3ebd024b	0.36915812
15	0xbf026ca9	-0.5094705
16	0x3e65df0b	0.22448365
17	0x3ec3f7a0	0.3827486
18	0xbb24ef08	-0.0025166888
19	0x3a98fe84	0.0011672531
20	0x3e832cc7	0.256201
21	0xbf0ac359	-0.54204327
22	0x3df4ea79	0.119587846
23	0x3e2b4b51	0.1672795
24	0xbd317691	-0.043325964
25	0x3e7224ae	0.23646805
26	0xbc5b5949	-0.013387986
27	0x3ca7140b	0.0203953
28	0xbe0747f2	-0.13211039
29	0x3f0d2cd1	0.5514651
30	0xbe225d42	-0.15855888
31	0x3dab5813	0.08366408
32	0xbdcfa094	-0.1013805
33	0xbea1a1a3	-0.31568632
34	0xbe1f529f	-0.15558861
35	0xbe4ce7df	-0.20010327
36	0xbd8da805	-0.06916813
37	0xbe1665ab	-0.14687221
38	0xbe3a61fa	-0.18201438
39	0x3c2e0f4f	0.010623767
40	0x3e155abc	0.14585394
41	0xbe63425f	-0.22193287
42	0x3de97163	0.1139858
43	0x3d62b450	0.05534774
44	0xbcb62a6f	-0.02223703
45	0x3e75d0f1	0.24005486
46	0xbf052510	-0.5200968
47	0xbd86cdf6	-0.06582253
48	0xbe870e4a	-0.2637809
49	0xbe2e8af9	-0.17045201
50	0xbddc9f2e	-0.107725486
51	0xbe97d076	-0.2965123
52	0xbb79d9ff	-0.003812432
53	0x3dcbe956	0.09956615
54	0xbe5a5680	-0.2132206
55	0xbdfe90fd	-0.12429998
56	0x3d427fae	0.047485046
57	0xbeecdc39	-0.46261767
58	0xbd202860	-0.039101005
59	0xbe4aeddb	-0.19817297
60	0xbeb3bee9	-0.3510659
61	0x3d030be5	0.031993765
62	0xbdb11f63	-0.08648565
63	0x3ea60606	0.3242647
64	0x3e13555e	0.14388034
65	0xbe34185c	-0.17587417
66	0x3dd505a3	0.10401466
67	0xbeac002e	-0.33593887
68	0xbd9be7ba	-0.07612558
69	0x3e744f03	0.23858266
70	0xbdc8500a	-0.09780891
71	0xbd6c31ca	-0.05766467
72	0xbe3764d9	-0.17909564
73	0xbdb5aef1	-0.08871258
74	0x3ea1dc49	0.31613377
75	0xbec578da	-0.38568765
76	0x3e9b947b	0.3038672
77	0x3f03625e	0.5132197
78	0x3ea1859e	0.31547254
79	0xbdacf334	-0.08444825
80	0x3e8bb20b	0.27284274
81	0xbda1752a	-0.078836754
82	0xbdc0ed89	-0.09420306
83	0x3e7ff6de	0.24996516
84	0xbf06e1e1	-0.52688414
85	0xbdf2cdc2	-0.118556514
86	0xbd294d14	-0.041333273
87	0xbe5947ef	-0.21218847
88	0x3eb77f12	0.35839134
89	0x3ef889f7	0.4854276
90	0xbe5e241f	-0.21693467
91	0xbe33f657	-0.1757444
92	0x3d95c5dc	0.07313129
93	0xbf2257e3	-0.63415354
94	0xbe0c9ddf	-0.13732098
95	0xbe0b7532	-0.13618925
96	0xbe2ebe80	-0.17064857
97	0xbecfb060	-0.4056425
98	0x3ea8960f	0.32926986
99	0xbe316967	-0.17325364
100	0x3e874844	0.26422322
101	0x3e2bb856	0.16769537
102	0x3c497b8c	0.012297522
103	0x3e8b0b76	0.27157182
104	0xbd92b403	-0.07163241
105	0x3e543a22	0.20725301
106	0xbf105b4c	-0.5638931
107	0x3e7f8092	0.2495139
108	0xbf21c49e	-0.6319064
109	0x3eca5fa5	0.39526096
110	0xbf0ac619	-0.54208523
111	0x3d501d71	0.050809328
112	0x3d3d8352	0.046267815
113	0xbe7d253d	-0.24721237
114	0xbec33e2f	-0.3813338
115	0x3c090f52	0.008365469
116	0xbe13476d	-0.14382716
117	0x3ec8312c	0.39100015
118	0xbbd75736	-0.0065716757
119	0xbddb32d2	-0.107030526
120	0xbe649cde	-0.22325465
121	0xbe7ab6eb	-0.2448384
122	0x3dea707c	0.11447236
123	0x3dad0042	0.08447315
124	0x3eb530a1	0.35388663
125	0x3ed1b75c	0.40960205
126	0x3e69cb92	0.22831562
127	0x3e1b5efd	0.15172954
128	0x3ecd5483	0.4010354
129	0xbf2c2375	-0.67241603
130	0xbcf92823	-0.030414646
131	0x3e5d84b8	0.2163266
132	0x3d9c6d2b	0.0763801
133	0x3e5bf057	0.21478401
134	0xbe41584a	-0.18881336
135	0x3bc68d65	0.006059336
136	0x3d90857c	0.0705671
137	0x3e3cecec	0.18449754
138	0x3de396bc	0.11112735
139	0xbe9b1de0	-0.3029623
140	0xbe3f39de	-0.18674418
141	0xbeb63989	-0.3559077
142	0xbdda4b4c	-0.10658893
143	0xbe94eb0a	-0.2908557
144	0x3db2cd6e	0.08730589
145	0xbba74597	-0.0051047313
146	0x3e886300	0.2663803
147	0x3cec2acf	0.028829006
148	0x3e026309	0.12733091
149	0x3e96ecdb	0.2947758
150	0x3ec879b3	0.3915535
151	0x3e2d55cd	0.16927262
152	0xbdfa0170	-0.122073054
153	0xbe39c8d4	-0.18143016
154	0x3e68d0af	0.22735856
155	0xbd673e87	-0.056456115
156	0xbe63957c	-0.22224993
157	0xbda5c6b2	-0.08094539
158	0x3ec630d5	0.3870913
159	0xbd935163	-0.07193258
160	0x3ece3b89	0.40279797
161	0x3f09d02d	0.53833276
162	0x3e1e55f2	0.15462473
163	0x3dc5ce86	0.09658532
164	0x3de97178	0.113985956
165	0xbe85b3c8	-0.26113725
166	0xbe788e4f	-0.24273036
167	0x3e72ceec	0.23711747
168	0xbe367d81	-0.17821313
169	0xbc8866eb	-0.016650638
170	0x3eb9938a	0.36245376
171	0xbcc4c5ae	-0.024020042
172	0xbcfbc154	-0.030731834
173	0x3ecdb7a1	0.4017916
174	0xbe404e15	-0.18779786
175	0xbd9e7be4	-0.07738474
176	0x3dfa9150	0.122347474
177	0xbea07bde	-0.31344503
178	0xbe974239	-0.2954271
179	0x3eb6ee9c	0.3572892
180	0xbe2a547d	-0.16633792
181	0x3d542bc0	0.051799536
182	0x3ead03c7	0.33791944
183	0x3e12a9ae	0.1432254
184	0xbd96510f	-0.073396794
185	0xbdd31fb5	-0.10308782
186	0x3ef9edc6	0.4881422
187	0x3e6eaf08	0.23308957
188	0x3e2e3365	0.17011793
189	0xbe8eb6c1	-0.27873805
190	0xbeaf0da8	-0.34190106
191	0x3ec3db6d	0.38253346
192	0x3dbd7ec3	0.092526935
193	0xbea0fba3	-0.31441984
194	0x3ea1c40c	0.31594884
195	0xbe6131a2	-0.2199159
196	0x3e915455	0.28384653
197	0x3ecccdd5	0.40000787
198	0x3d919be9	0.071098156
199	0x3eaf7975	0.34272352
200	0xbd211868	-0.039329916
201	0xbe8a698a	-0.27033645
202	0xbe59681a	-0.21231118
203	0x3de04896	0.10951345
204	0x3e81ac1c	0.25326622
205	0xbec6e56a	-0.38846904
206	0x3ef839b9	0.4848154
207	0x3e28841e	0.16456649
208	0x3ea29f37	0.31762096
209	0x3e4c2930	0.19937587
210	0x3ec3df66	0.38256377
211	0x3d8e9bc8	0.06963307
212	0x3e00f001	0.12591554
213	0xbdc6973a	-0.09696813
214	0x3e9a091c	0.30085075
215	0x3e57e73c	0.21084303
216	0xbebb5d47	-0.36594602
217	0xbe2c93ac	-0.16853207
218	0x3c94002e	0.018066492
219	0xbe8cad8a	-0.2747615
220	0xbbf466ca	-0.0074585425
221	0x3ecc8a96	0.39949483
222	0xbcf737bf	-0.030177949
223	0x3e935aef	0.28780314
224	0xbe73b4e9	-0.2379948
225	0xbd2c5b7d	-0.042079438
226	0x3e99aec9	0.30016163
227	0xbd507226	-0.05089011
228	0xbc6499d6	-0.013952693
229	0xbd62c574	-0.055364087
230	0x3ec49a85	0.3839914
231	0xbde27e1b	-0.11059209
232	0x3ccc8aad	0.02496847
233	0x3e434ba3	0.19071822
234	0xbd8c5741	-0.0685258
235	0xbda050c9	-0.078279085
236	0xbe60418e	-0.21900007
237	0xbf1b44b6	-0.6065172
238	0x3e0b95f1	0.13631417
239	0x3e65a8b1	0.22427632
240	0x3ce8bd84	0.02841068
241	0xbd93cf55	-0.0721728
242	0x3e10ba19	0.1413349
243	0xbe048265	-0.12940367
244	0x3ef78f55	0.4835154
245	0x3dcbe78b	0.09956273
246	0x3ec1a381	0.37820056
247	0x3e6eb0a4	0.2330957
248	0xbe9be43c	-0.30447567
249	0xbad11e22	-0.0015954415
250	0xbf07ea0b	-0.53091496
251	0x3ef89518	0.4855125
252	0x3d1e831a	0.038699247
253	0xbda99f64	-0.082823545
254	0x3e0c225c	0.13684982
255	0xbe21d115	-0.15802415

rnn.bias_ih_l2 f4 [48]
0	0x3e671fbd	0.22570701
1	0x3e3bcdb0	0.18340182
2	0xbd22d6f2	-0.03975577
3	0xbea92b4d	-0.33040848
4	0xbe41cba6	-0.18925342
5	0x3e754dc8	0.23955452
6	0xbe0e9733	-0.13924865
7	0xbd717c67	-0.05895653
8	0xbd198be8	-0.03748694
9	0x3e01b983	0.12668423
10	0xbe8cc951	-0.27497342
11	0x3d617e08	0.055051833
12	0x3de7cd8b	0.11318501
13	0xbe81b55b	-0.25333676
14	0xbe9b559f	-0.3033876
15	0x3d452d50	0.048138916
16	0xbd651826	-0.055931233
17	0xbeb2af40	-0.3489933
18	0xbd702e55	-0.058637936
19	0x3e02b8ee	0.12765858
20	0xbc5c7ee9	-0.013457992
21	0xbe57dd6b	-0.21080558
22	0x3e299004	0.16558844
23	0x3dc2332e	0.09482418
24	0xbdb8f125	-0.0903037
25	0x3d4917d9	0.04909501
26	0xbe833cb4	-0.2563225
27	0xbe5c2cdb	-0.21501486
28	0xbe7f3a71	-0.24924637
29	0x3e34803e	0.17627046
30	0x3d33b802	0.043876655
31	0xbd8052eb	-0.06265815
32	0xbc8534ae	-0.016260471
33	0x3dc26cc2	0.094934
34	0xbc1bd2b1	-0.009510682
35	0xbeb7b96c	-0.35883653
36	0xbc48d679	-0.0122581655
37	0xbdb654b4	-0.089028746
38	0x3e8d0b47	0.27547666
39	0x3dd4e171	0.10394562
40	0x3d064945	0.03278472
41	0x3ea0e77e	0.31426615
42	0xbe6b750e	-0.22993872
43	0x3e6c4cd3	0.23076181
44	0xbebd1d3e	-0.36936373
45	0x3df42482	0.11921026
46	0xbe419d29	-0.18907608
47	0x3e708b4e	0.2349064

rnn.bias_hh_l2 f4 [48]
0	0x3c94b3d7	0.01815216
1	0xbcb194e9	-0.021677451
2	0x3e5cb6e2	0.2155414
3	0xbe1cf3d9	-0.15327395
4	0x3e6cc0f9	0.23120488
5	0x3e44035e	0.1914191
6	0x3e3cc53a	0.18434611
7	0x3d8ddaa3	0.06926467
8	0xbea81c26	-0.32833976
9	0x3e192ac0	0.14957714
10	0x3dee4fb7	0.11636298
11	0xbe293819	-0.16525306
12	0xbe95a6a7	-0.29228708
13	0xbe06577c	-0.1311931
14	0xbe83eb2c	-0.2576536
15	0x3dcc5aa0	0.09978223
16	0xbea0e0b6	-0.3142144
17	0xbe86eabc	-0.26350963
18	0xbea1d5f9	-0.3160856
19	0xbd7078b3	-0.058708858
20	0xbedf25f1	-0.43583634
21	0xbe9bc38e	-0.30422634
22	0xbe2f6642	-0.17128852
23	0xbd8bcfc4	-0.068267375
24	0x3e5387e6	0.2065731
25	0x3e2223f3	0.15834026
26	0xbea1d7d3	-0.31609973
27	0xbd45fcce	-0.048336796
28	0xbd87c6bc	-0.066297024
29	0xbc89557f	-0.0167644
30	0xbe55b7fe	-0.20870969
31	0xbe967266	-0.29384154
32	0xbc84f85c	-0.016231708
33	0xbe60be4f	-0.21947597
34	0xbbe51a90	-0.006991692
35	0xbeb15337	-0.346338
36	0x3c1e852e	0.009675307
37	0x3e24fe6a	0.16112676
38	0xbe675cd3	-0.22594003
39	0x3d5964be	0.05307459
40	0xbe973da0	-0.29539204
41	0xbe19aff6	-0.1500853
42	0xbe056a0f	-0.1302874
43	0xbe32adc7	-0.17449103
44	0x3dfd4871	0.12367333
45	0x3d91cfaf	0.071196906
46	0x3d6fe6bc	0.058569655
47	0xbe6b22bf	-0.22962473

reg.weight f4 [1, 12]
0	0x3db5cb4b	0.08876666
1	0x3e08dc9c	0.13365406
2	0xbeaf3e65	-0.3422729
3	0x3de4768b	0.11155423
4	0xbd910283	-0.07080557
5	0xbe59fc97	-0.21287762
6	0xbe952231	-0.29127648
7	0xbe128b76	-0.14311013
8	0x3dcf187d	0.10112093
9	0x3e97ba26	0.29634207
10	0x3dc420f5	0.095765986
11	0xbe60f7e5	-0.21969564
