模型代码/LSTM/weights/123e.pth (torch_old, 15619 bytes, 13 tensors)

rnn.weight_ih_l0 f4 [48, 5]
000000 35 f3 b6 be 12 f5 c7 be a3 1b 2e bd 6b 59 57 bc
       -0.35732427 -0.3905416 -0.042506825 -0.0131438775
000010 3c c9 1e 3e 1c 20 8f 3e 3d 90 c3 3d 03 a4 c3 3e
       0.15506452 0.27954185 0.09548996 0.3821107
000020 6b 76 bb 3e 4f 68 35 be 4e 7c 03 3f 68 c3 92 3e
       0.36613783 -0.17715572 0.5136155 0.28664708
000030 5f d7 f4 3e c7 89 05 3f 73 d5 75 3f dc 6b 2c 3f
       0.47820565 0.52163357 0.9602882 0.6735208
000040 fe 0b 0b 3f 4a b6 d4 3e d4 bb ea 3e 17 6b 05 3f
       0.54315174 0.41545326 0.45846426 0.5211653
000050 7f 42 d2 3d e6 c9 7d 3e 31 9d a7 bd a7 5e 8a 3e
       0.102665894 0.2478405 -0.08184279 0.2702534
000060 c2 3a cb be dc 4e 0e be f1 4e 13 3e 03 2e c0 bd
       -0.39693266 -0.1389727 0.14385583 -0.09383776
000070 a9 38 3b 3e 9a 33 29 be 79 6c 93 3e 07 3b ae 3e
       0.18283333 -0.1652359 0.28793696 0.3402941
000080 0b b9 28 3f c8 88 41 3e 3d 03 96 3e c2 3b b8 3e
       0.65907353 0.18899834 0.29299346 0.35983092
000090 6c d5 a7 3e 40 01 3d 3e de 2d 1a 3f fd 6f 58 3f
       0.32780015 0.18457508 0.6022624 0.8454588
0000a0 3b 72 cb 3c 0c 23 03 3e 32 66 82 3e bb 2a 8a 3e
       0.024834743 0.12806338 0.25468594 0.26985726
0000b0 f7 1b 01 3f 8c 36 cc 3d c8 3c 29 3f ee 4d 2a 3f
       0.50433296 0.099713415 0.6610837 0.6652516
0000c0 89 3b bf 3e 55 3c 43 3f 5f 42 c3 bd ca 6a 74 be
       0.3735011 0.76263934 -0.09534144 -0.23868862
0000d0 55 80 82 be 5b 3d 73 be 27 32 a7 bd 19 6a 14 3f
       -0.25488535 -0.23753874 -0.08163863 0.5797439
0000e0 bc 2c 6f 3e 91 e0 04 3e 58 e1 03 3f 7a 41 e1 3d
       0.23356909 0.1297629 0.5151572 0.10998817
0000f0 57 1e 69 be b2 60 cf be 88 72 19 be 30 cd 37 bd
       -0.2276548 -0.4050346 -0.14985096 -0.044873416
000100 a8 f8 a6 bc 99 28 d0 bd 68 d4 e0 3e 6d 26 39 3e
       -0.02038224 -0.101639934 0.43912053 0.18081065
000110 cf 70 2d 3e 67 9c 7d be 0b 1a 94 3d d1 ee a4 be
       0.16937564 -0.24766694 0.0723153 -0.32213452
000120 b8 ca 3d 3e 29 65 11 bd 22 a4 40 3f 10 5c e3 be
       0.18534362 -0.035496864 0.75250447 -0.44406176
000130 51 a2 4f 3c ba 24 5e be 0c f5 12 be d8 59 ae be
       0.012672977 -0.21693698 -0.1435129 -0.3405292
000140 14 3c 05 3e 3c bd fb bc d8 67 c0 3e 36 4b e7 bd
       0.13011199 -0.030729882 0.37579226 -0.11293642
000150 3c 4f c1 3d 00 e6 5c 3d b1 aa 39 be 53 ae a1 3e
       0.09438941 0.053930283 -0.1813152 0.3157831
000160 46 54 b9 3c c1 13 74 3e 68 e1 5b 3d e6 24 30 bd
       0.022623193 0.2383566 0.05368176 -0.04300394
000170 43 48 0d 3f ce 82 5b 3e 5e ca 09 be 5e 90 6a 3d
       0.5518839 0.21436617 -0.13456103 0.057266586
000180 60 e4 ca 3e 68 17 e3 3e de 2e 98 3e cd 96 ee 3e
       0.3962736 0.44353795 0.29723257 0.46599427
000190 c0 6e 90 bd eb 8b 9b 3b 89 3b ef bd 21 26 54 3d
       -0.07052374 0.004746904 -0.11681277 0.051794175
0001a0 a7 81 1d 3f 32 5f 33 be a7 ec 40 be 09 76 65 3d
       0.6152596 -0.17516783 -0.18840276 0.05602077
0001b0 a5 fa d5 bd 06 29 82 bc 1d b3 6a be 49 8d 82 bd
       -0.10448197 -0.015888702 -0.22919889 -0.06374604
0001c0 2b 6a e4 be 08 bb 2e be 19 74 08 bf 25 45 66 be
       -0.4461225 -0.17063534 -0.5330215 -0.22487314
0001d0 2f bb 0b bb 39 8e 66 bc 13 1c b8 3d 33 68 19 bf
       -0.0021321287 -0.014071994 0.0898973 -0.5992462
0001e0 33 39 c6 be 26 5d 83 be 07 c8 b3 be 2c 64 fd be
       -0.38715515 -0.25657004 -0.35113546 -0.49490488
0001f0 c3 81 2d bf 89 3e b2 be 02 09 0b be 16 f5 34 3d
       -0.67776126 -0.34813336 -0.13577655 0.044179045
000200 fe 45 eb 3d 09 d5 16 3e 45 07 58 3e 81 42 0d be
       0.11487959 0.14729704 0.21096523 -0.137949
000210 f5 e2 36 be d2 a1 8b be 61 a2 70 bf c0 21 6b be
       -0.17860015 -0.27271897 -0.9399777 -0.22962093
000220 c2 29 f6 bd 73 f6 3e be ba 5a e5 be 88 79 85 bf
       -0.120196834 -0.186487 -0.4479578 -1.0427713
000230 0c 54 9a be b5 a9 a2 be 6c 68 89 be 7c 22 84 3c
       -0.30142248 -0.317701 -0.2683748 0.016129725
000240 64 e3 9b 3e df db f0 bd c3 81 6a 3d 9b 60 fa 3e
       0.30446923 -0.11760687 0.057252657 0.4890183
000250 1f 37 31 3e 20 ca 1d be 91 06 5a bd 7a db b3 3e
       0.17306183 -0.15409136 -0.05322892 0.35128385
000260 d5 42 fc 3e 09 b3 7a bd 1d a8 11 bd e4 ce a4 3c
       0.4926974 -0.061205897 -0.035560716 0.020118184
000270 18 36 4a 3e 65 94 79 bd 0b 75 ee 3d 20 c8 66 3f
       0.19747198 -0.060932536 0.11643418 0.90149117
000280 88 22 86 bc f0 92 56 3e 37 76 8e 3e 96 dc a9 3c
       -0.016373888 0.2095449 0.27824566 0.020735066
000290 f1 63 ce 3e 0a ed b2 3d 99 b7 f3 3d 97 f6 8e be
       0.40310624 0.08736618 0.11900253 -0.27922508
0002a0 2c 0d 1a bf a6 cb 48 bf 91 f8 ba 3d f7 91 a4 3c
       -0.6017635 -0.7843574 0.091294415 0.020089133
0002b0 e5 72 67 bc 11 72 2a be 1b d7 40 3d 3a 6d 80 be
       -0.014126514 -0.16645075 0.04708014 -0.25083333
0002c0 53 eb 40 be 47 80 0b 3d b5 ec bd be bc 94 24 3f
       -0.18839769 0.03405788 -0.37094656 0.6428945
0002d0 d3 55 14 be d4 dc db be 29 34 81 be 72 ad 0d be
       -0.14485864 -0.42941916 -0.25235108 -0.13835695
0002e0 ce 26 80 3e c3 ec dc 3e 65 52 04 3f 91 84 9e 3d
       0.25029606 0.43149385 0.51688224 0.07740129
0002f0 50 da 23 3d a8 f1 d6 be 31 54 03 3f e2 7a e1 3e
       0.04000312 -0.41981244 0.5130034 0.44039065
000300 14 bc 11 3f df ee cb 3e 89 2d 53 3f e8 9f 11 3f
       0.5692761 0.39830682 0.82491356 0.5688462
000310 34 27 47 3f a7 d0 63 3f 41 dc 5c 3f 7a 08 5f 3f
       0.77794194 0.88990253 0.8627358 0.8712231
000320 b4 e2 a0 3e af 23 41 bd ab 5e d1 3e c1 ca 39 be
       0.3142296 -0.04715317 0.40892538 -0.1814375
000330 d3 43 bc be 83 5d 25 bd 61 e9 ef bc 62 8c 99 3e
       -0.36770496 -0.040372383 -0.029286088 0.29989916
000340 ef 35 85 ba 4c 0e fe 3c 9c 84 ab be cd 42 e1 bd
       -0.0010163168 0.031012677 -0.3349961 -0.10999069
000350 7d 93 7b 3c eb ad 59 be 37 15 6e bf 01 9c 0c 3e
       0.015354988 -0.2125775 -0.9300112 0.13731386
000360 ba 21 0a 3e 7b 2f b6 3e 0e a1 1d 3f ce 11 2d 3f
       0.13489428 0.355831 0.61573875 0.6760529
000370 c0 4a 2f be a5 76 a9 bd 82 04 8b bd 70 3d ee bd
       -0.17118359 -0.08274583 -0.06787969 -0.11632812
000380 00 3a b0 3e 21 83 18 be 3d 4d 48 3e b4 9f e7 3e
       0.3441925 -0.14893772 0.19560714 0.4523903
000390 a9 d2 97 3e f4 5c 5c 3f 5b 0f 6b bd 17 d8 2c 3d
       0.29652908 0.86079335 -0.05738769 0.042198267
0003a0 a0 3d b4 bd 99 3b 60 bb a1 3a 5a be a5 f2 3e 3f
       -0.088008165 -0.003421521 -0.21311428 0.74588996
0003b0 38 9c 44 3e 57 9d 18 3f 1f a7 6e 3d ba ae 91 3e
       0.19200218 0.5961508 0.058264848 0.28453618

rnn.weight_hh_l0 f4 [48, 12]
000000 b5 1c 88 bd f2 5c dc 3e cf b2 37 bd 6a 6e e3 3e
       -0.066461004 0.43039662 -0.04484826 0.44420177
000010 98 b5 b6 bb 8d 7e 18 be 57 7c 71 3d 5a 35 ff be
       -0.005575847 -0.14892025 0.05895647 -0.49845392
000020 2b e9 4c 3e c4 ea b7 3e 85 b0 c8 3d 16 df ed 3e
       0.20010822 0.359213 0.097992934 0.46459264
000030 10 a9 af 3d 9d 8d 49 be 6e fc da 3d 15 fe 13 bc
       0.08577168 -0.19682927 0.106926784 -0.009032746
000040 81 1a 6d 3c 25 b1 6d be 28 a5 e3 bd 80 03 7c be
       0.014471651 -0.23212107 -0.111154854 -0.2461071
000050 ca c5 89 3a 52 ad b7 bd da 4a 45 3d c7 94 fd 3d
       0.0010511216 -0.08968605 0.048167087 0.12381893
000060 32 ed 82 be 7b b9 33 be e9 6c 54 be e1 8a df 3e
       -0.2557159 -0.17551224 -0.20744671 0.43660644
000070 31 c6 ac 3d 2f 6c c0 3c 7a 30 dc 3e ca 37 f8 bd
       0.084362395 0.023489086 0.43005735 -0.12120016
000080 83 70 f9 bb ea e9 56 3e 6f 00 34 be 23 1a d8 be
       -0.0076122894 0.20987669 -0.1757829 -0.4220744
000090 b2 39 33 be b0 1a 98 be 58 30 01 bf 7d f1 15 3d
       -0.17502478 -0.2970786 -0.5046439 0.036607254
0000a0 88 ba 21 bf 51 9f f6 3e 16 33 63 3f 39 ab 68 3f
       -0.6317525 0.48168424 0.88749826 0.90886265
0000b0 03 06 76 3f e2 fc 84 be a9 05 5f 3e f7 ba ae be
       0.96102923 -0.25974184 0.21779503 -0.34127018
0000c0 7e 6a b5 3d e0 b8 5e 3d 8e ce c3 be b9 17 a0 be
       0.088582024 0.05437553 -0.38243526 -0.312681
0000d0 69 bc 17 3d 0e 5f 2e 3d 38 fc 58 3e 2f 06 9e be
       0.037044916 0.04257112 0.21189964 -0.30864093
0000e0 cc 10 2e 3e 55 dd e8 bd 30 f4 95 be a9 2c 87 3e
       0.16998595 -0.11370341 -0.29287863 0.2640126
0000f0 f3 7c 5b 3d e9 8d 03 3e 54 0d 4d be 09 e8 4f be
       0.053585958 0.12847103 -0.20024616 -0.20303358
000100 5c dd 3d bc 26 54 ca bd 82 23 29 3e 82 9c 46 bd
       -0.011588421 -0.09879331 0.16517451 -0.0484891
000110 4c 80 72 be 2b 82 aa 3d f6 dc 79 be a5 4a e5 3c
       -0.23681754 0.08325609 -0.24400696 0.027989695
000120 fe 25 8a be 25 65 91 be 9e 62 41 be 31 92 ef be
       -0.2698211 -0.2839748 -0.18885276 -0.46791223
000130 8f 4e 39 be ef e2 c8 3d a6 3e a5 bd 9a 36 e6 3e
       -0.18096374 0.09808909 -0.0806859 0.44963533
000140 7c f9 6e 3e 85 51 ba be 01 32 1b be 3b b1 5c be
       0.23337358 -0.3639032 -0.15155794 -0.21551983
000150 5e 25 ec bd 41 a0 a4 3d 72 50 c0 be 50 aa b5 be
       -0.11530565 0.080383785 -0.37561375 -0.354815
000160 49 11 83 be cc 1d 83 3e 5c ac a5 3e b4 27 8a 3e
       -0.25599125 0.2560867 0.32358062 0.26983416
000170 dc cf 0d 3f 03 63 dc be b9 05 64 3d eb 53 8a 3e
       0.55395293 -0.4304429 0.05566952 0.2701715
000180 31 2b 86 be 80 89 2f be d6 cd d1 be c4 42 af be
       -0.26204827 -0.17142296 -0.40977353 -0.34230626
000190 97 d7 b9 be 3f 20 0a 3f ba 0b 91 3e cf 83 53 3e
       -0.36297294 0.53955454 0.2832926 0.2065575
0001a0 1d 5c 62 3e ba 5f da bb 94 5a 8b be 14 48 27 be
       0.22105451 -0.0066642435 -0.27217543 -0.1633609
0001b0 74 9b 1b be 73 eb 72 be c9 10 08 be a3 b8 26 be
       -0.1519602 -0.23722629 -0.13287653 -0.16281371
0001c0 1a e4 0f be 66 5f 03 3f 7e e6 34 3f 33 3e 49 3c
       -0.14051858 0.5131744 0.70664203 0.012282896
0001d0 4d 4a 88 3f 09 52 12 be 00 16 2b 3d fa 57 2f be
       1.0647675 -0.14289106 0.041769028 -0.17123404
0001e0 0f 04 b5 be cf e4 0d 3f 0d ce 0b 3f d5 9a 6d 3e
       -0.3535466 0.5542726 0.54611284 0.23203595
0001f0 5f 66 a5 3e 61 88 be bd a4 c0 12 be 35 38 18 bd
       0.32304665 -0.09303356 -0.14331299 -0.03716298
000200 a6 f4 b2 be fd b2 99 3d b5 d6 6e bd e8 d6 84 3e
       -0.34952277 0.075048424 -0.05831023 0.2594521
000210 17 00 c0 be 19 03 95 be 3a bf ac be 46 37 fc 3d
       -0.3750007 -0.29103926 -0.33739644 0.1231523
000220 75 4e 2a bf 08 48 ec 3e d4 70 25 3f f1 95 c7 3e
       -0.66525966 0.46148705 0.6462529 0.38981584
000230 d1 13 6e 3f b3 bb d4 be c6 02 93 3d 0b e3 22 be
       0.9299899 -0.41549453 0.07178263 -0.15906923
000240 be 98 88 3d 52 ff 91 3e d1 b3 a2 bc ba 10 e7 3d
       0.06669758 0.28515106 -0.019861134 0.11282487
000250 16 2a 92 3e a0 e5 b3 3b d5 76 ed bd de bd ef 3d
       0.28547734 0.00549002 -0.11594931 0.11706136
000260 3e b0 1d be 6c 11 a6 3e 67 29 65 3e 05 32 a5 3e
       -0.15399262 0.32435167 0.22379075 0.32264724
000270 d4 ce 33 3d c3 73 f4 3b 42 65 14 bd 26 8d 06 bf
       0.04389842 0.007460089 -0.03622938 -0.52559125
000280 51 53 3d be f0 bc 9e bd 7c 27 6a bd 14 62 25 3e
       -0.18488814 -0.07750881 -0.05716656 0.16150695
000290 7c dd d0 be eb 25 33 3d fd 24 7d 3e 85 6d e6 3e
       -0.4079398 0.043737333 0.24721141 0.45005432
0002a0 4f 66 60 3e 73 2f 84 3e 0c 9a 8f 3e 84 10 21 3d
       0.21914028 0.2581745 0.28047216 0.03932239
0002b0 22 cf 9f 3e 8a 37 ac be 52 c8 bd be 9b 1b 58 be
       0.31212717 -0.33636123 -0.37066895 -0.2110428
0002c0 f0 7b 0c bf e1 2d 71 3e 8c 72 aa bd 14 b8 9a be
       -0.54876614 0.23552658 -0.08322629 -0.30218565
0002d0 eb ac 0d 3f 41 a7 e0 3e 5b 33 a4 3e 35 b0 87 3e
       0.55341977 0.43877605 0.3207043 0.26501623
0002e0 34 c9 ff 3c 3e d9 7e be 2f 9a f3 be 79 8a 11 be
       0.03122387 -0.24887559 -0.4757857 -0.1421298
0002f0 66 c9 01 bf 37 e7 a8 bd 44 f4 fa 3d 52 4d d5 3e
       -0.50697935 -0.08247226 0.12253621 0.41660553
000300 e2 3d 70 3d dc da 8b 3d 1c 7c 97 be d9 b2 41 bf
       0.058652766 0.068288535 -0.29586875 -0.75663525
000310 b5 9c c3 3b cd c5 4c bd 98 b4 a0 be 0e c2 07 be
       0.0059696087 -0.049993325 -0.31387782 -0.1325762
000320 ae 04 b3 be 17 4d 20 be 00 85 6c 3e 10 d5 0b 3f
       -0.34964508 -0.15654407 0.2309761 0.5462198
000330 82 11 6d bc 7f a6 a7 3e db 0d f0 3d 4a fe e3 be
       -0.014469506 0.32744214 0.11721393 -0.44529945
000340 07 05 c4 bd 34 51 1d be 71 3d 1c 3c 16 8d be 3d
       -0.095712714 -0.15363008 0.009536133 0.09304254
000350 73 a6 49 be 25 52 5f be 89 f1 96 bd 3b ed aa 3d
       -0.19692402 -0.2180868 -0.07370288 0.08346029
000360 a8 b0 7e bd 53 4a 58 3e f8 f7 ea be 6d ca 08 be
       -0.06218019 0.21122102 -0.4589231 -0.1335847
000370 0b 97 6b 3e bc 2f c3 bd b6 f2 2d be 45 e5 d6 3e
       0.23006837 -0.09530589 -0.16987118 0.41971794
000380 eb 5d 3e 3e a6 fc c4 3b 83 1f 04 3e 5f 06 87 3d
       0.18590514 0.0060115634 0.12902646 0.06593012
000390 ee cd 8b bd 93 f6 92 3e 18 72 29 be 64 28 10 bf
       -0.06826387 0.28703746 -0.1654743 -0.5631163
0003a0 f8 83 57 be 1e cf 9a 3d 04 87 0f bd d1 db 73 be
       -0.21046436 0.07559036 -0.03504087 -0.23814322
0003b0 8d ab 09 3d 14 7f 45 be ef 52 6a 3e bb 3e 1d 3d
       0.03361087 -0.19286758 0.22883199 0.038389903
0003c0 64 e5 d7 3d 95 2d 7b be 35 7a a8 bd 7e 53 bf be
       0.105418 -0.24529107 -0.08226434 -0.37368387
0003d0 c7 84 0a be 43 06 5e 3d 6a 4b c7 3e 79 06 d0 3e
       -0.13527213 0.05420519 0.38924724 0.40629938
0003e0 0e ba ba 3e 59 8c dc bd 74 b2 17 be 96 47 ce be
       0.36470073 -0.10768957 -0.14814168 -0.4028899
0003f0 1e a2 a4 be 35 67 80 3e ba 74 95 bd a6 9b 4e be
       -0.32154936 0.2507874 -0.072976544 -0.20176563

rnn.bias_ih_l0 f4 [48]
000000 e6 67 2c bd 3c a6 a1 3e 4a 65 81 bd 15 7c 22 3f
       -0.042091273 0.3157214 -0.063181475 0.63470584
000010 82 36 31 be ef 38 87 3e 4f 11 90 3d 1b a1 6c 3e
       -0.1730595 0.26410624 0.07034551 0.23108332
000020 5d a5 01 3f 3d bd fc 3e 9a cb 8f be 3b 4b 1a 3f
       0.5064295 0.49363127 -0.28085023 0.6027104
000030 2b f8 4c 3e 49 52 70 3e 70 8f 87 3d c2 bd c9 bb
       0.20016544 0.2346889 0.066191554 -0.006156654
000040 d5 73 6e 3e 26 e7 4a 3e 25 92 25 be 05 55 b6 be
       0.23286374 0.19814739 -0.16169031 -0.3561174
000050 52 b1 14 3d 8d 54 6d be ca f7 e2 bb 40 fe bf be
       0.03630192 -0.23176785 -0.0069265114 -0.37498665
000060 cd e2 e1 bd bc 04 98 be 81 14 3d be 92 db 19 3e
       -0.11029587 -0.29691112 -0.18464853 0.15025166
000070 99 df b5 be 48 11 a9 3e 0d 24 49 3e d9 10 8a be
       -0.35522154 0.33020997 0.19642659 -0.2696598
000080 44 39 84 3b a4 af 88 3e 29 4e 57 be c5 9e 94 bd
       0.004035147 0.26696503 -0.2102591 -0.072568454
000090 01 c7 88 bd 17 6c 38 3e 54 77 50 3e 57 b5 25 3f
       -0.06678582 0.18009983 0.2035802 0.6472983
0000a0 13 e2 d9 3d d1 19 5c be c8 45 7f 3d 61 40 80 3e
       0.10638823 -0.21494223 0.062322408 0.25049117
0000b0 fc cd c3 3e df ff 10 3f ef 60 f6 bd 1d 89 50 3f
       0.3824309 0.5664043 -0.12030207 0.8145922

rnn.bias_hh_l0 f4 [48]
000000 68 ee 7f 3e ea 8d 02 3e dc b2 06 3e a6 3a b9 3e
       0.24993289 0.12749448 0.13154167 0.36177558
000010 0f ac e1 bd 80 7e 6f be bc 1f a2 3e fd 62 16 bd
       -0.11019146 -0.233881 0.31664836 -0.036715496
000020 e4 1f 7e 3e c0 03 54 3e db 19 ad bd bf f2 c9 3e
       0.24816853 0.20704556 -0.08452197 0.39443013
000030 ee e1 85 be ca e6 f0 bb 19 a8 4d be 4d ab c4 be
       -0.26148933 -0.007351731 -0.20083655 -0.38411942
000040 ad ed 81 be 6e 12 d8 bd 00 9a 92 3e e0 88 8d 3b
       -0.25376645 -0.1055039 0.28633118 0.0043192953
000050 ac 64 7a 3e 92 32 56 be 6c 88 51 be 85 27 3a be
       0.24452466 -0.20917729 -0.20462197 -0.18179138
000060 62 94 99 bd 56 6e 8d be 76 08 80 be 8b 34 85 3e
       -0.07499005 -0.27623242 -0.25006455 0.2601665
000070 87 39 49 3d 44 3c a6 3e 3b 0d ce 3e 9c a4 74 3d
       0.049127128 0.32467854 0.4024447 0.059727296
000080 e5 10 62 3e 81 79 ca bb b4 92 27 3e 01 17 67 be
       0.22076757 -0.006179035 0.16364557 -0.22567369
000090 3c 35 c0 3c c9 56 46 be 81 d3 a0 3e f0 bc 82 3e
       0.023462884 -0.19369043 0.31411365 0.25534773
0000a0 13 15 79 3e 0c a8 e3 3d f1 3a 67 3e 87 ac 8e 3e
       0.24324445 0.11116037 0.22581078 0.27866003
0000b0 11 58 13 3e 81 26 b9 3e 66 87 08 bf c3 5f a5 3e
       0.14389063 0.3616219 -0.533316 0.32299623

rnn.weight_ih_l1 f4 [48, 12]
000000 ef fb 48 3d 9f 85 20 3e 78 f8 83 be c4 26 c4 be
       0.049068388 0.15675972 -0.25775504 -0.38310826
000010 82 3d c1 bd b2 dd 26 be d2 e4 af be f8 12 0b 3c
       -0.0943556 -0.16295508 -0.34354264 0.008488409
000020 8e 1a 7c be 8f 58 02 3d d7 c2 b4 bd cc 59 43 3e
       -0.24619505 0.031822737 -0.08826225 0.19077224
000030 59 0a c4 bd 97 5f 91 3e 35 7c 99 3e ed 2e c1 3e
       -0.09572286 0.28393242 0.29977575 0.37731114
000040 ca 22 17 3e 69 2e 5a 3e 11 6b 82 3d 4c 9d 9d bd
       0.14759365 0.21306767 0.063680775 -0.076960176
000050 ef 19 88 3d ad c6 d1 3e 51 cc cb 3d e1 7c 5a 3e
       0.066455714 0.4097189 0.0995108 0.213367
000060 fd 9d 95 be 98 d8 ef bd c1 e7 b4 be 40 4f 2a bf
       -0.29222098 -0.11711234 -0.35333064 -0.66527176
000070 45 39 87 3e 9c 5d 8f 3d 5f 31 58 3e 1a b8 a0 3e
       0.2641088 0.070002764 0.21112584 0.31390458
000080 6e b4 01 3f 96 0b 2f be e5 3e 8b 3e f1 14 d8 3e
       0.5066594 -0.17094263 0.27196422 0.42203477
000090 00 15 1a 3d f6 d5 29 3e 9a 7c c5 be 44 4f 7f be
       0.037617683 0.16585526 -0.38571626 -0.24932581
0000a0 3b cc f9 bd 6f 8a dc bd 16 af 1e 3e 08 d3 aa 3c
       -0.12197157 -0.107685916 0.15496477 0.02085258
0000b0 04 8d 5a 3e b6 83 03 bf 3e 2d dd bd e6 cf 14 3f
       0.21342856 -0.5137285 -0.10799645 0.5812973
0000c0 dd b8 a9 bb 8f 06 64 3e 38 e9 24 be 98 34 00 bd
       -0.005179508 0.22268127 -0.16104591 -0.031300157
0000d0 1f 60 70 3e 8c 01 c3 be 27 17 8e be ec 5d 54 3e
       0.23474167 -0.38087118 -0.2775204 0.20738953
0000e0 e3 9e 0e be 6f 17 cb bd 43 12 fc 3d d1 88 b2 3e
       -0.13927798 -0.09916579 0.12308171 0.34870008
0000f0 be 8a ff be df bb 5d be 76 bf 34 bf e9 3c 5a bf
       -0.4991054 -0.21653698 -0.70604646 -0.8524919
000100 75 7d ed be 48 ff 28 3f 54 6b 23 3e b5 33 03 3f
       -0.4638478 0.6601453 0.15958911 0.51250774
000110 20 1e 6e 3f 88 ec 23 bf 9e b0 16 be 9e c4 90 bd
       0.9301472 -0.64032793 -0.14715812 -0.07068752
000120 7e 14 03 be 73 74 13 bf 42 81 ec 3c b3 bd 66 3e
       -0.12800786 -0.5759956 0.028870229 0.22533302
000130 d6 1e 10 bf aa 85 5a 3e 33 db 83 3e 7b f1 b9 3e
       -0.5629705 0.21340051 0.25753173 0.36317047
000140 7d 77 94 3e 64 21 c2 bd 32 05 cf 3c 93 00 09 bf
       0.28997412 -0.09479025 0.025271032 -0.535165
000150 4e 6a 05 be 8e b0 6c bd 68 53 9e be 24 64 d9 be
       -0.13028833 -0.057785563 -0.3092301 -0.42459214
000160 87 09 da 3d 59 45 d6 bb 86 58 65 3e 9d c1 bc 3d
       0.106463484 -0.0065390286 0.2239705 0.09216616
000170 47 5e 83 3f d4 0d e2 bd 8f 80 a8 3c 26 96 91 bc
       1.0263146 -0.11037794 0.020569114 -0.017771792
000180 31 64 2b be 69 7d e9 3d d2 5f 7d 3e 32 7a 39 be
       -0.16737439 0.11400873 0.24743584 -0.1811302
000190 98 3d bc 3b d8 31 9f be 67 47 56 be 63 35 09 be
       0.0057446472 -0.31092715 -0.20925675 -0.13399272
0001a0 6c 92 2a 3d 5a 2a 35 be d8 49 af be a9 9a 38 3e
       0.041643545 -0.17691937 -0.34236026 0.18027748
0001b0 f3 49 f3 be 3f af 74 bd 6e af 4e be a9 53 2c bf
       -0.47517356 -0.05973744 -0.20184109 -0.67315155
0001c0 81 ef 0a 3e c7 91 9e bd 61 9e 5d 3e 24 26 ab 3e
       0.13567926 -0.077426486 0.21642448 0.33427536
0001d0 77 21 ef 3d a4 ed 5a be d0 7e bd be 0a 37 bf 3d
       0.11676305 -0.21379715 -0.37010813 0.0933667
0001e0 47 a2 a0 be bb e5 0a bf 7a b1 f5 be 55 2d 05 bf
       -0.31373808 -0.5425679 -0.47986966 -0.52022296
0001f0 a8 e6 4a bf 48 12 92 3e ed ee 0c 3f 75 fd be 3e
       -0.79258204 0.28529572 0.5505207 0.37302747
000200 c2 8e 7c 3f d5 2f aa be f6 78 0c 3e 79 94 11 bf
       0.9865533 -0.33239618 0.13718018 -0.56867176
000210 60 1a 6c be b9 bf 0c 3e 2e 16 ff be e4 35 12 bf
       -0.23056936 0.13745011 -0.4982161 -0.5711348
000220 8a 3f 38 3e 8b 17 2a be cf 25 c9 3d 05 df cd 3e
       0.17992988 -0.16610543 0.098216645 0.40209213
000230 b5 51 6b bd 34 d6 04 bf c9 5a 3d 3e 1f db 99 3d
       -0.05745097 -0.5188935 0.18491663 0.07512497
000240 66 fd 03 ba 75 6f a1 3d 65 43 70 3e 0a 81 96 bd
       -0.0005035013 0.07882587 0.23463209 -0.07348831
000250 81 86 8c 3e 39 40 8b 3d 86 f1 3a be 0b d9 5a 3e
       0.27446368 0.06799359 -0.18256196 0.21371858
000260 8d db f5 3b fe 6b cb bd c1 01 3f be ad 74 85 3c
       0.007502979 -0.09932707 -0.18653013 0.016290987
000270 4e 7f 96 be 9a a2 1b 3d 7e f6 db 3e 86 d3 8a bc
       -0.29394 0.037996866 0.42961496 -0.016946565
000280 47 c7 a1 3d 45 54 fa bd 64 03 a9 be e5 6d c1 be
       0.07899337 -0.122231044 -0.330104 -0.37779155
000290 26 51 45 bd 89 a0 9b 3e b1 10 39 3d 90 72 7c 3e
       -0.048173092 0.30395916 0.045181934 0.24653077
0002a0 d0 dc 34 3e a0 c2 06 be ec 15 f2 be be 9e ff be
       0.17662358 -0.13160181 -0.4728235 -0.49925798
0002b0 b4 54 1a be f6 51 01 be d2 43 bd b7 80 21 4e 3e
       -0.15071374 -0.12628922 -2.2562137e-05 0.20129967
0002c0 96 7f b9 3e ac d9 a5 bd 5b 32 39 3e 93 20 d2 3e
       0.36230153 -0.08098158 0.18085615 0.41040477
0002d0 a8 cb a0 be af b4 88 3e 88 69 55 be d7 15 11 bf
       -0.31405377 0.2670035 -0.20841038 -0.5667395
0002e0 88 f1 e2 3c 24 75 e0 be 9b cf a3 bd 57 b5 b8 3c
       0.027703062 -0.4383937 -0.07998582 0.022547407
0002f0 ff ab 90 be dd cc 49 be 73 1f 89 3e 03 f9 89 3e
       -0.28256223 -0.19707055 0.26781806 0.26947793
000300 88 ff bf be 08 27 24 be c0 40 6f 3e 47 8f 8a bd
       -0.37499642 -0.16030514 0.23364544 -0.06765609
000310 b8 96 5d 3e 91 11 cd bb 29 e1 9e 3d 5f c7 c3 be
       0.21639526 -0.0062581976 0.0775779 -0.38238046
000320 d0 08 6c 3e 83 bd 99 bd 16 32 07 3e 07 7a 51 3d
       0.23050237 -0.075068496 0.132027 0.051141765
000330 43 2a 0b be bb 36 a8 3e 16 77 0b 3d 69 7a e8 be
       -0.1359034 0.32854256 0.034049116 -0.45405892
000340 9f 02 35 3f b9 09 24 be de 56 8b be 45 54 9c 3d
       0.70707124 -0.16019334 -0.27214712 0.07633261
000350 de e6 fd be 4a 01 19 bf 4e b0 b4 3d 77 50 97 3e
       -0.495902 -0.5976759 0.0882269 0.29553577
000360 e5 92 94 3e 9c 3e 5b be 1f 18 35 3e 58 18 a0 3c
       0.29018322 -0.21410602 0.17684983 0.019542858
000370 24 7c 75 bd 48 a7 65 be 6c b7 08 3e 8e 1b 24 be
       -0.059932843 -0.22427094 0.1335122 -0.16026136
000380 ca 74 81 bd 47 e2 5f 3e 81 ef 33 3e 12 a4 47 bf
       -0.06321104 0.21863662 0.17571832 -0.77984726
000390 3b 5c 3b 3d 7a 62 1c 3e a7 81 ea 3d 09 b3 16 bf
       0.045742255 0.15271941 0.114505105 -0.58866936
0003a0 c9 54 79 3e 62 bf a1 be ca a6 37 be 24 f8 89 bc
       0.24348749 -0.31591326 -0.17934719 -0.016841955
0003b0 93 57 a5 be 37 bd 56 be d9 62 8a bb 9f 43 34 3e
       -0.32293376 -0.20970617 -0.0042232093 0.1760392
0003c0 4c 6e 35 3e 7f bb 9a bd 7b ba 01 bd b3 e0 07 3c
       0.17717856 -0.07555293 -0.031671982 0.008293319
0003d0 bf 37 8b 3e 4f b9 67 be 10 d2 41 bc c9 03 fc 3a
       0.27190968 -0.22629283 -0.011829868 0.0019227202
0003e0 6f 1c 43 be d0 71 97 3e ab a4 49 be 9e 2e 10 3e
       -0.19053815 0.2957902 -0.19691722 0.14080283
0003f0 cf 49 77 be 7a 46 a1 3b 9d ab 58 bd b1 fe fc be
       -0.2414925 0.0049217315 -0.05289804 -0.49413064

rnn.weight_hh_l1 f4 [48, 12]
000000 d3 be 47 be 0c 4f db 3e a8 b8 0f 3e aa a2 8e 3d
       -0.19506387 0.42833745 0.14035285 0.069646195
000010 61 98 42 be bf 6c 66 be af 4b 00 be e8 15 80 3e
       -0.1900344 -0.22502421 -0.12528871 0.25016713
000020 33 58 2a be 0c 26 b9 be 1d a0 0b be 78 79 fd 3d
       -0.16635208 -0.3616184 -0.13635297 0.12376684
000030 06 bf a6 be 9c e9 c6 3e 02 10 7d be 59 87 3b 3d
       -0.32567614 0.38850105 -0.24713138 0.045783374
000040 13 87 61 3e eb c1 0d bf 94 a7 04 3f 35 d0 50 3e
       0.22024183 -0.5537402 0.51818204 0.20391925
000050 c4 47 ba bd 19 02 4f 3d e5 b3 91 3d 6e 87 e0 3b
       -0.090957195 0.05053911 0.0711439 0.006852082
000060 6f c1 97 bd 89 d0 73 3e 33 bf 81 be 2f 33 ed bd
       -0.074099414 0.23810019 -0.25341186 -0.11582028
000070 fe 60 63 be cf ca 50 be d6 03 d2 3d 9e 44 7b 3c
       -0.22204968 -0.20389865 0.10254638 0.015336184
000080 6f 22 40 be 0f 56 51 be 02 10 e2 bd f8 dc 32 3e
       -0.18763135 -0.20442985 -0.110382095 0.17467105
000090 80 44 8e be f3 b3 7d 3e 15 9a 0f be ac 6e 71 3e
       -0.27786636 0.24775676 -0.14023621 0.23577374
0000a0 0d 30 a8 be a8 2d ca be 34 5e b2 3e 11 07 d6 bd
       -0.3284916 -0.39487958 0.34837496 -0.104505666
0000b0 47 33 f4 3d 1d a7 5b be 5d 73 43 be ae b1 5d 3d
       0.11923843 -0.21450467 -0.19086976 0.054124527
0000c0 24 f0 81 bd 63 0d 80 be 5e a1 24 be 22 47 e1 3d
       -0.06344631 -0.25010213 -0.16077182 0.10999896
0000d0 1d 66 b8 3e 94 07 15 3d 19 cf b9 3e 7b 46 f4 bc
       0.36015406 0.03638418 0.36290815 -0.029818764
0000e0 2e 50 d3 3d 96 a2 11 3c 8d b7 f8 bd b3 b2 b0 be
       0.103180274 0.008888861 -0.121443845 -0.34511337
0000f0 c9 cf fd 3d 8d 3f 83 bf 31 9a 40 be 6a 8e c1 3e
       0.123931475 -1.0253769 -0.1880882 0.37803966
000100 ab c9 8f bd ea dc ff 3e 01 cb 04 be 38 42 ff 3c
       -0.07020887 0.49973232 -0.12968065 0.031159505
000110 a3 22 4b 3e 8b a9 7e 3f 5c b8 40 3f e6 59 86 3e
       0.19837432 0.9947745 0.7528131 0.26240462
000120 31 3c 88 bc fa e2 ad be e9 9e 2b 3e 24 a3 27 3b
       -0.016630264 -0.33962232 0.16759838 0.0025579417
000130 ad 08 d1 3b b7 b0 f8 3e 1a 8a 19 3e d6 f4 cb bc
       0.006379208 0.48572323 0.14994088 -0.02489702
000140 dd e2 95 3e 4a 66 2f 3f 7b f1 7a bf c5 40 93 3e
       0.29274645 0.68515456 -0.9802472 0.28760353
000150 8f 5b 44 3e 69 91 3b be 00 ef 57 be 06 a6 6e bd
       0.19175552 -0.18317188 -0.21087265 -0.0582638
000160 3d 24 e3 bd 0a 8a 1f 3f 61 b5 91 3e a1 3b 82 be
       -0.11090896 0.62320006 0.28458694 -0.25436118
000170 6c 8c 49 be 64 bd 08 3f 7f 9e 04 be 15 61 6e bd
       -0.19682473 0.5341399 -0.12951086 -0.058198053
000180 a4 8d fe 3d e7 a7 8f 3c 3d d7 56 3e 04 22 b5 be
       0.124293596 0.017536117 0.20980544 -0.35377514
000190 1b c2 a3 3e 8d 27 7b bd f5 a3 c7 3e dd d9 79 3e
       0.31984028 -0.061317015 0.38992277 0.24399514
0001a0 23 ae cc bc b4 bf 48 3d de 08 3f be 04 e7 76 be
       -0.024985379 0.049010947 -0.18655726 -0.24111563
0001b0 0d 21 b3 bd c7 13 6f be b8 db f9 bd 01 01 e7 bc
       -0.08746538 -0.23347388 -0.12200111 -0.02819872
0001c0 c3 d6 12 be 3a b2 3e 3e 3b bf eb 3e 14 58 57 3e
       -0.14339738 0.18622676 0.46044335 0.21029693
0001d0 ce bc 0b 3d ba d1 06 3e 29 f4 39 bf 1d 47 b4 3d
       0.034115605 0.13165942 -0.72638184 0.08802626
0001e0 dc 68 2a 3f 0c 43 e5 be e4 c5 db be 46 b8 b0 3e
       0.6656625 -0.44777715 -0.42924416 0.3451559
0001f0 3d 63 d4 bd 5b 37 76 3e 48 15 9d 3e 38 7a a8 bd
       -0.10370491 0.24044554 0.306803 -0.082264364
000200 23 31 2f bd f8 15 55 3f e4 55 0b be 86 4a f6 3e
       -0.04277147 0.83236647 -0.13606983 0.48103732
000210 e1 84 0b 3e d4 cb 39 3d 44 b7 f9 3d a8 c6 34 3e
       0.13624908 0.0453604 0.12193158 0.17653906
000220 27 cb 56 3e 56 60 4c 3e 99 b4 78 be 43 96 82 be
       0.20975934 0.19958624 -0.24287643 -0.25505266
000230 18 01 51 bc 6a 6d 5d 3e c5 71 42 3d 3d d6 30 3e
       -0.012756608 0.2162377 0.04747178 0.17269225
000240 5d f5 07 3d 54 47 df bd 60 20 7b 3e ad da a8 3d
       0.03319298 -0.10902277 0.24524069 0.08244834
000250 6e 3f d6 3d 80 5d fc 3d 97 8f 1b 3e 74 71 ae 3d
       0.10461317 0.12322521 0.15191494 0.08517733
000260 43 54 c7 bd e6 14 43 3e c8 6a 05 3d 36 86 73 3e
       -0.097328685 0.19050941 0.032572538 0.23781666
000270 3c 86 5b be 62 9a 8a 3c 8a 19 4d be 32 4c ff bd
       -0.21437925 0.016919319 -0.20029274 -0.12465705
000280 8b f5 57 3e d5 2d 3b be 89 3d 0f be fd 94 7d 3e
       0.21089761 -0.18279202 -0.13988318 0.24763866
000290 cf 56 21 3e 82 cd ee bd e7 93 25 3e 04 8b 00 3e
       0.15755771 -0.11660291 0.16169702 0.1255303
0002a0 72 67 90 be b5 d8 bf 3c 12 69 8c 3c 42 fd 57 be
       -0.28203923 0.023418764 0.017139945 -0.21092704
0002b0 6a b7 a0 be ee dc af 3d a8 4b 87 3e a7 9d 86 3d
       -0.31389934 0.08587061 0.2642491 0.065730385
0002c0 ee 42 7a 3d 94 ff 35 3e 45 05 6d 3e 8b a0 3f be
       0.061098985 0.17773277 0.23146541 -0.18713586
0002d0 e4 74 49 bd 0b eb 5b bd e2 0a c5 3d 96 50 4f be
       -0.04918374 -0.05369095 0.09621216 -0.20245585
0002e0 99 9d 97 be 6a b6 bd be 8a 8f 58 be 0c fd 83 bd
       -0.29612425 -0.37053233 -0.21148506 -0.06444749
0002f0 fa da 91 3d 21 2e 92 be 6a 8b b2 3e 28 6d c0 be
       0.071218446 -0.2855082 0.3487199 -0.3758328
000300 b5 67 19 be 36 b2 9e bd 31 4f 1b 3e 6b 16 38 3e
       -0.14980967 -0.07748835 0.15166928 0.17977302
000310 9f f0 de bd 28 19 67 be 20 10 d2 3e 58 f0 09 3e
       -0.108857386 -0.2256819 0.41027927 0.1347059
000320 e2 e7 d8 bd 2e 67 15 be 2e 1b 35 be 02 8f e8 3d
       -0.10591103 -0.14590141 -0.1768615 0.113554016
000330 75 fb 03 bf 9c 0a 32 3e e2 00 81 3e d0 9e 86 bd
       -0.5155557 0.1738686 0.25195986 -0.0657326
000340 9c 61 88 bd c7 78 05 3e 9f 66 2e bf 7a 0a 61 be
       -0.066592425 0.13034354 -0.6812534 -0.21976653
000350 43 d9 7d be 98 1c 87 be e0 27 ea 3e ae 80 0c be
       -0.2478991 -0.26389003 0.45733547 -0.13720962
000360 6a 7a 1d 3e 01 df 2b be a4 6c fb 3e d6 69 cc bd
       0.15378729 -0.16784288 0.49106324 -0.09981124
000370 f5 72 74 3e 31 45 8e 3e 08 2c 0c be 68 d0 96 be
       0.23871978 0.27787164 -0.13688672 -0.29455876
000380 38 94 15 be ce c9 b3 bc f8 03 d2 be 43 aa 95 bd
       -0.14607322 -0.021946814 -0.41018653 -0.073078655
000390 b7 9c 21 be 35 db ec bc da 3a 1c be a9 f1 84 3d
       -0.15782438 -0.02891312 -0.15256825 0.064914055
0003a0 1f ac e1 bd fa 55 08 3d f0 f5 60 be fd 2b 22 be
       -0.110191576 0.03328512 -0.21968818 -0.15837093
0003b0 d8 4b 49 3d 57 c2 a9 3d 0c ea b9 3e fb 3c 11 be
       0.049144596 0.082890205 0.36311376 -0.14183418
0003c0 23 d6 ca be 52 c3 5e 3c ac e3 89 3e e7 42 fc bd
       -0.39616498 0.013596373 0.26931512 -0.12317448
0003d0 17 99 28 3e de 4a 2b bd 4f 29 98 3e f2 2e 1a be
       0.16464649 -0.041819446 0.29719016 -0.1505697
0003e0 86 3e 0a 3d e9 59 8c 3e c6 c6 30 be 57 c4 94 be
       0.033751033 0.27412346 -0.17263326 -0.29056045
0003f0 6a 0f 64 be 3f c0 e6 bd 7b d5 28 3e 6f f2 2e be
       -0.22271505 -0.11267137 0.16487686 -0.17084669

rnn.bias_ih_l1 f4 [48]
000000 c5 da 7e be fa 89 92 be ea 7f 31 bd 11 f2 b0 3e
       -0.24888141 -0.28620893 -0.04333488 0.34559682
000010 7e 1b 9a bd 8a 3f 07 3f ae ed 98 3d c3 53 6a 3e
       -0.07524775 0.5283133 0.07467209 0.22883515
000020 f5 5b d3 3d cc 36 d5 bd 9b 63 10 3f 11 79 64 3d
       0.10320274 -0.10410842 0.56401986 0.05577952
000030 98 be 41 be a6 47 af be 8c c8 dd bc e4 c8 c9 3d
       -0.18920362 -0.3423435 -0.027073167 0.0985277
000040 b6 3b f2 3d 5a fd d2 be 6a 2a 26 3d 92 a4 92 bd
       0.11827795 -0.41208917 0.040567793 -0.071602955
000050 fa 00 f9 3a 4e 87 74 bd 01 22 f8 bd 5b 6c 0c 3e
       0.0018997483 -0.05969935 -0.12115861 0.1371321
000060 69 0f 70 bd aa b5 d4 bd 51 1f a6 be 99 8e 83 3e
       -0.058608446 -0.10386212 -0.32445768 0.2569473
000070 9b 83 59 be 1d 56 89 3e c6 f0 16 bd c9 64 4b bd
       -0.2124161 0.26823512 -0.036850713 -0.049656663
000080 f2 7d 9a bd d3 86 48 3d 13 31 f0 3d bd 37 b0 bd
       -0.075435534 0.048956703 0.1172811 -0.08604381
000090 0d 04 99 be bb 8e 03 bd cc 9f 0b be fa 6b 1c bc
       -0.29885903 -0.03211854 -0.13635176 -0.009547228
0000a0 d5 b2 b1 3d f7 d1 c6 3e dc c8 04 3f 00 14 fb bc
       0.08676688 0.38832065 0.5186899 -0.030649185
0000b0 a6 ff a1 be 67 0c 89 3e 98 ee f7 3e 84 70 4f be
       -0.31640357 0.26767275 0.4842422 -0.20257765

rnn.bias_hh_l1 f4 [48]
000000 5b 3b 04 3e e3 4a 73 bd 9a 12 eb 3b cd 87 50 bd
       0.12913267 -0.05939759 0.0071738483 -0.05091076
000010 9a 2d 50 be 95 06 b3 3e 74 f5 8d 3d 67 8d 33 3e
       -0.20329896 0.3496596 0.06931582 0.1753441
000020 c4 bb e3 3c 47 6a 9b 3e 4d 1e d0 3e a1 83 c2 bd
       0.027799495 0.3035452 0.40648118 -0.094977625
000030 60 45 71 3e 01 48 94 ba f9 49 95 3d c7 6b 4c 3c
       0.2356162 -0.0011312963 0.072895 0.012476868
000040 78 1a 7b be 3e fd df be 67 45 d5 bb 11 44 42 3e
       -0.24521816 -0.43747896 -0.0065085175 0.18971278
000050 b0 b5 ce bd 0c ef ca be a2 a1 86 be 05 33 00 3e
       -0.10093248 -0.39635503 -0.2629519 0.12519462
000060 cb 47 9c 3e be 84 19 3e e7 23 55 be 8d 44 26 3d
       0.30523524 0.14992043 -0.20814477 0.04059272
000070 32 2e 47 bd c6 c7 c9 bd e0 03 08 3e f4 20 c8 3c
       -0.04862804 -0.09852557 0.13282728 0.024429776
000080 39 b4 fa 3d 77 9a 5b 3d 02 92 16 be ac ae e6 3d
       0.12241406 0.053614106 -0.14704135 0.11263785
000090 5b 4b 74 3c 2b 01 5f 3e aa f9 1b 3e 2b 9a d8 bc
       0.014910544 0.2177779 0.15231958 -0.0264407
0000a0 78 d1 49 be 14 a9 06 3f 73 65 b9 3e 29 26 15 bd
       -0.19708812 0.5260174 0.36210212 -0.036413345
0000b0 76 64 50 be bb 5e 3c 3d 14 ea 06 3f 26 2d 96 3e
       -0.20350823 0.04598878 0.52700925 0.2933132

rnn.weight_ih_l2 f4 [48, 12]
000000 ae 7e 4c be 41 c1 0c be 80 fe 75 be 4b 5e 80 3e
       -0.199702 -0.13745596 -0.24022865 0.2507194
000010 55 66 ce 3d b0 21 c2 3e 46 ea 86 bc 0e 28 a9 be
       0.10078112 0.37916327 -0.016469132 -0.33038372
000020 17 3a 80 3e d4 ae 81 3e f9 ed 1e 3e 3d da 6c 3a
       0.2504432 0.25328696 0.15520467 0.00090352056
000030 35 df 6f be 88 84 ab 3c 9b 02 5c 3d fd 96 b0 3e
       -0.2342499 0.02093722 0.053713422 0.34490195
000040 d0 fd 5d be a5 2c f1 3e 3e c8 ab 3e ea 35 73 bd
       -0.21678853 0.47104374 0.3355121 -0.05937759
000050 85 84 a7 3e c3 28 42 3e af e5 30 3f d7 9e ac 3e
       0.32718292 0.18960862 0.6910047 0.33714935
000060 32 90 0d be 6e dc 90 3e 2f 7b 6d bd cd 82 b6 3e
       -0.13824537 0.28293175 -0.057978805 0.35646668
000070 3b cf 0b be ff 93 17 3e 90 c2 c1 3c 49 56 5e bc
       -0.13653271 0.1480255 0.023652345 -0.013570377
000080 3b 12 38 3d b5 20 f4 3e c3 e9 4f 3e 98 03 d7 3e
       0.04493926 0.47681203 0.20304017 0.4199493
000090 13 86 67 3e 8a 2c a1 bd 22 52 d2 bd 43 49 d8 3e
       0.22609739 -0.07869823 -0.10269572 0.42243394
0000a0 2f fe a8 3d a4 df c6 3e f7 2c ab be 36 22 ac be
       0.08251607 0.388425 -0.33432743 -0.3361985
0000b0 d5 e0 a5 3e 61 f4 6c 3f 16 df 56 3f 76 a5 9f 3e
       0.32398096 0.9256039 0.8393415 0.31180924
0000c0 4a df 8a 3e 14 df 7a be f2 21 fb bc 82 8f 0b be
       0.2712348 -0.2449916 -0.030655835 -0.13628963
0000d0 8b 12 86 3e 00 44 e8 3e f0 cb 06 3f 28 ea 7c 3e
       0.26186022 0.4536438 0.52654934 0.24698699
0000e0 b2 a4 96 be c1 d8 db 3e ba f0 ab 3e 18 59 58 be
       -0.29422528 0.42938808 0.33582097 -0.21127737
0000f0 67 54 54 3e 98 d6 40 3d 00 66 c9 bd 7e 14 15 be
       0.20735322 0.047079653 -0.09833908 -0.14558598
000100 56 21 bd bd f7 96 e1 3e 89 43 41 3d c9 39 5e bc
       -0.09234874 0.4406049 0.047183547 -0.013563582
000110 6f 7b 12 3e 3a 80 51 3e 7a e7 1e 3f 0a 7b 85 3e
       0.14304899 0.20459071 0.62071955 0.26070434
000120 56 07 47 3e cd 90 8f 3d 12 0c 93 3e 7e 9b 26 3e
       0.19436392 0.070100404 0.28720146 0.16270253
000130 fa 98 fe bd e8 f0 92 3c 3e f4 e3 3d a2 ea 83 3e
       -0.12431522 0.017937139 0.1113057 0.25764948
000140 10 29 70 be e5 95 ae 3e e9 9c ee 3e 77 cb f3 bd
       -0.23453164 0.34098735 0.46604088 -0.11904042
000150 e5 71 2f 3e 6c 2a 15 3e ab 13 46 3e 9b fa b3 3c
       0.17133291 0.14566964 0.1934344 0.021970084
000160 e7 83 57 3e 19 a3 ff 3e 46 24 bd bd 0c 9e 8a 3e
       0.2104641 0.4992912 -0.09235434 0.27073705
000170 77 ef 82 be 26 c5 d8 3e 04 3c f9 3e 08 b9 86 3c
       -0.25573322 0.42337912 0.486786 0.016445652
000180 ab be c6 bd b1 da 1b 3e 7e f0 dc be 80 bb 74 3e
       -0.09704336 0.15220143 -0.4315223 0.2389965
000190 9b 6d 7e be f9 b0 1d 3f 27 71 62 be 3c 9d 06 be
       -0.24846499 0.61598164 -0.22113477 -0.13145918
0001a0 97 a4 a8 3e 9d c3 dc 3e 60 d3 31 3f f8 c9 07 3d
       0.32938072 0.4311799 0.6946316 0.033151597
0001b0 cc 11 36 3e 0f 76 1f 3e 06 52 92 be eb 6b 47 be
       0.17780226 0.1557238 -0.28578204 -0.19474761
0001c0 53 7a 22 3e 20 a2 0c 3f 4b 1e 93 bd 8c d4 94 be
       0.15866975 0.54934883 -0.07183512 -0.2906841
0001d0 64 7c 8f 3e 38 c3 c8 3e 30 b6 b7 3e 3c c7 bc 3e
       0.2802459 0.3921144 0.35881186 0.36870754
0001e0 da 76 dc 3d 42 a5 1e be 01 aa d5 3d 12 d6 c2 3e
       0.10764857 -0.15492728 0.10432816 0.38053948
0001f0 e2 fa 02 3d 42 a5 19 3f 3d 97 d7 bd f9 7b 98 be
       0.03197754 0.6001779 -0.10526893 -0.29782084
000200 2c 4b 2e bd 6b ae 33 3f 28 ad 47 3f 59 01 4f 3e
       -0.04255216 0.70188016 0.7799859 0.20215358
000210 4c c1 cf 38 0a 04 3c be 5e 7b 13 3d ea 4d a0 3d
       9.9065335e-05 -0.18360916 0.036006324 0.07827361
000220 18 5c 98 be fc 09 84 3e 22 ea 92 3e 2e 3e 06 3d
       -0.29757762 0.25788867 0.28694254 0.032774143
000230 48 15 20 bc 25 59 16 3f 58 6f 5d 3e 08 47 21 3e
       -0.009770699 0.58729774 0.21624506 0.15749753
000240 2b e4 de 3d 9b 01 09 3e 35 66 53 3e 6d e6 8d 3e
       0.10883363 0.13379519 0.20644458 0.27714863
000250 d6 f2 1d bd 41 11 48 3c 85 4d b5 be d6 d1 65 bd
       -0.038561665 0.012211145 -0.35410705 -0.05610832
000260 10 a9 d5 bd d0 f3 ac 3d ac 7f 09 3f 5b e0 4e 3d
       -0.10432637 0.08444941 0.53710437 0.05050693
000270 d0 cb 62 3e ce 35 6a 3e ed 33 d1 3d cc 0e 0a 3e
       0.22148061 0.22872087 0.10214982 0.13482207
000280 4f eb 89 3e 4d 0e 9e bd 24 62 5f be ed a6 1c 3c
       0.2693734 -0.077175714 -0.21814781 0.009561283
000290 3d e5 85 3d 95 df 97 be 57 6f 65 3f 19 9f 08 3e
       0.06537864 -0.29662767 0.89623016 0.13341941
0002a0 8e 53 0a be 06 bf 9c 3e 90 49 31 be a9 3b 28 be
       -0.13508436 0.3061449 -0.17313218 -0.16429009
0002b0 68 f2 23 3e 3b 4f 6b bb 7e 97 98 be 29 ec be be
       0.1601044 -0.003590538 -0.2980308 -0.3728955
0002c0 b8 db 0c 3e c8 15 54 3e e8 3f 23 3f 21 da 66 3e
       0.13755691 0.20711434 0.6376939 0.22544147
0002d0 72 32 a5 3d 9b 4f ac be 29 5c aa 3d 9d 51 72 be
       0.08066262 -0.33654484 0.083183594 -0.23663945
0002e0 d0 09 8a 3e 39 49 e1 3e 5a 3a 94 be 85 34 a9 be
       0.2696061 0.44001177 -0.2895077 -0.33047882
0002f0 22 08 3f 3e 28 a0 92 3e b1 fb 0a 3f e3 cf 71 bd
       0.18655446 0.28637815 0.542903 -0.059036147
000300 bc d3 cc bb 30 4e 57 be 7e ba 37 be db c2 b5 3e
       -0.0062508266 -0.2102592 -0.17942235 0.35500225
000310 c4 22 56 be c3 63 fe 3e c5 09 94 3d f3 a4 12 be
       -0.209117 0.49685487 0.07228426 -0.14320736
000320 63 ab 40 be 68 67 32 3f d1 85 39 3f ca 4a b0 3c
       -0.18815379 0.69689035 0.7246981 0.021520037
000330 67 f5 fa bd 21 0a a5 bd ba 14 8a 3e b7 14 d0 bc
       -0.12253838 -0.080585726 0.26968938 -0.025400503
000340 6f 66 88 3d b1 89 ad 3d a0 05 a2 be 8a 4f 7d be
       0.06660163 0.08473528 -0.31644917 -0.24737373
000350 38 84 91 bd 5e 37 c0 3e 63 72 11 3f 85 f7 1e 3d
       -0.07105297 0.37542242 0.56815165 0.03881027
000360 a1 f6 2f be 5b 51 6b 3e a8 ed 1f be df fb aa bd
       -0.17183925 0.22980253 -0.15618002 -0.08348822
000370 a7 04 94 3e e0 69 7c 3e 36 94 67 bc 06 f2 94 bd
       0.289098 0.24649763 -0.014134457 -0.07272725
000380 91 3d 28 3e 19 dd c0 3e cd 5e 76 3e 7f 46 f8 bc
       0.16429736 0.37668684 0.24059601 -0.030307053
000390 d5 2d 70 3d 6f 4e a8 3d 1a 43 93 3d fc 20 80 3e
       0.05863746 0.08218085 0.07190533 0.25025165
0003a0 bf 61 75 3d 4a dc 7b 3c 52 c7 34 be fb fe 92 bb
       0.05990767 0.015372345 -0.1765416 -0.0044859624
0003b0 0b 95 0e 3e bd 17 f4 3b 69 ff 7a 3e 19 0c 2d 3e
       0.13924043 0.007449119 0.24511494 0.16899146
0003c0 7b 6a a9 3d fe f8 07 bd 17 88 05 be 9f 8a ca bb
       0.08272263 -0.03319644 -0.13040195 -0.0061810757
0003d0 64 98 91 3e c4 8b d4 3e bd b4 49 bd e3 d0 8f be
       0.28436577 0.41512883 -0.04924463 -0.28089055
0003e0 df 2d 87 bd de 23 f9 bd 9b 02 ff 3e bc 84 ca 3d
       -0.06600546 -0.12165044 0.49806675 0.09888598
0003f0 b4 1e 21 3e 2d 6b ed bd 5d 5c f9 bd 2a 6c b3 bd
       0.15734369 -0.11592708 -0.1217582 -0.08760865

rnn.weight_hh_l2 f4 [48, 12]
000000 7c 9e c5 bd fb 94 a6 3c 64 14 29 3c 40 40 cf 3c
       -0.09649369 0.020334711 0.010319803 0.025299191
000010 15 22 33 be 95 b8 19 3e 59 87 06 3d 95 9e 7e 3d
       -0.1749347 0.15011819 0.03284392 0.062162954
000020 e2 41 c4 bc 96 c6 0e be 1c 38 d7 3d 50 a6 8f bd
       -0.023957197 -0.13942942 0.10508749 -0.070141435
000030 f8 a7 09 3e 8e af 3a be 13 a7 7e 3e 56 e9 25 be
       0.13442981 -0.18231031 0.24868421 -0.16202292
000040 c2 f8 ae be e4 25 1e 3e 31 22 33 be 59 c4 74 bd
       -0.34174162 0.15444142 -0.17493512 -0.059757564
000050 86 56 93 be 51 68 7d bd 55 25 e8 3d af 8c 93 be
       -0.2877695 -0.061867062 0.113352455 -0.2881827
000060 b1 dc 5a 3e 46 fa 94 3e 9e cc af bd 6c c1 21 3e
       0.2137325 0.29097193 -0.085839495 0.15796441
000070 f1 19 97 be f0 14 f0 3d 77 e1 ac bd e6 87 0b 3e
       -0.2951198 0.117227435 -0.084414415 0.1362606
000080 8e 97 9a 3d d6 b5 91 3e 46 cc fe 3d 43 1d b9 bd
       0.07548438 0.28459042 0.12441306 -0.09038784
000090 b1 fc 00 be 9a 64 af bb 17 e8 b3 3d 66 e0 f5 bc
       -0.12596394 -0.005352569 0.08784502 -0.030014228
0000a0 42 c8 cf bc d0 62 00 3e d9 b3 25 3e 4a 66 4c be
       -0.025364045 0.12537694 0.16181888 -0.19960895
0000b0 6a f4 08 3e 3d 1b 92 3e b6 32 0f 3e c6 79 43 bc
       0.13374487 0.28536406 0.13984188 -0.0119308885
0000c0 02 ae b4 3e cb a0 f2 bd f2 d4 15 bd be 54 f4 3d
       0.35289007 -0.11847075 -0.036580034 0.11930226
0000d0 d5 64 8c 3e b1 37 a8 3e e9 4f b9 3e db ab 77 3e
       0.2742068 0.3285499 0.3619378 0.24186651
0000e0 82 a7 80 ba e4 10 39 3e e3 6c 81 be a2 03 27 bd
       -0.0009815546 0.1807285 -0.25278386 -0.04077495
0000f0 d4 c5 c9 3d f6 39 ec 3d a2 ae 54 3c 09 c5 18 bd
       0.09852186 0.11534493 0.012981089 -0.037297282
000100 05 d8 28 3e eb b4 72 3c 0b 1f 67 3e e1 b0 00 be
       0.16488655 0.014813642 0.22570436 -0.12567474
000110 4b 4f 70 3d 20 b6 12 be 9f e8 d1 3d af 3b cd bd
       0.05866937 -0.14327288 0.10249447 -0.10021149
000120 48 88 33 3d 6e 70 bf ba a2 a9 e9 bc d2 2c 13 3d
       0.04383114 -0.001460565 -0.02852327 0.035931416
000130 6d 93 49 3e fa 24 7d 3c f9 86 a6 3e 57 52 2f 3e
       0.19685145 0.01545071 0.3252485 0.17121254
000140 29 36 2a 3e 76 76 d5 bd 92 8f 88 be bb 97 0a be
       0.16622223 -0.10422985 -0.26672035 -0.13534443
000150 77 9b 62 3e d7 34 2c 3e 3e 06 02 bc c5 e4 65 bd
       0.22129618 0.16817032 -0.007936059 -0.056126375
000160 8e 3f 78 3e 73 5d 06 be 22 40 a3 bd a7 7e ce bd
       0.24242994 -0.13121586 -0.07971217 -0.10082751
000170 5c 60 26 be 4f 1b 63 3d 1c f3 41 3e b6 a6 9c 3c
       -0.16247696 0.055445965 0.18940395 0.019122463
000180 80 6e dc bd a4 7b fa 3c 7e 0c 97 bd 63 ae 8a be
       -0.10763264 0.030576535 -0.073754296 -0.27086172
000190 da d4 a2 3d 16 4e 12 be 4d 64 8d be 55 12 51 be
       0.079507545 -0.142876 -0.27615586 -0.2041715
0001a0 93 30 3a 3e f1 3a 07 3e 39 22 f0 3c ef 79 20 3e
       0.18182592 0.13206078 0.029313194 0.15671514
0001b0 32 72 7c bd 22 3d 08 3d 97 92 3d be 79 97 e3 3d
       -0.061632343 0.033261426 -0.18512951 0.111128755
0001c0 05 96 8d be 09 3d 87 bc ba 02 6d 3d ba 99 22 be
       -0.27653518 -0.016508596 0.05786393 -0.15878955
0001d0 06 a0 4f be 7c 26 5d 3d 17 40 6a be 18 de d2 3d
       -0.20275888 0.05399178 -0.22876011 0.10296267
0001e0 c9 f2 02 be 3d db 8c be 3d d0 a4 be ea 8b c9 bd
       -0.12787928 -0.27511016 -0.32190123 -0.098411396
0001f0 08 87 36 3e cd 3e bc bd 56 8f dc bc 3c b0 3f 3e
       0.17824948 -0.09191666 -0.026923817 0.18719572
000200 fb c6 03 3e f4 bd ed bd be cd 89 3e 3b bd 28 3e
       0.12868874 -0.11608496 0.2691478 0.16478436
000210 0f 75 37 be 99 ab a5 bc e5 fe 9a be 5b 95 82 3e
       -0.17915748 -0.020223426 -0.30272594 0.25504574
000220 0f 88 95 3c 64 04 2a bd bd 8d 0a be e3 81 f0 3d
       0.018253354 -0.041508093 -0.13530631 0.11743524
000230 c9 dc e5 3d 11 98 05 bd 4c 3f ca 37 6a 04 3f bd
       0.11223752 -0.032615725 2.4109751e-05 -0.04663507
000240 fa f3 c1 bd 4f da 7f bd c6 85 31 be c9 79 9a 3d
       -0.09470363 -0.062464055 -0.17336187 0.0754276
000250 54 e0 ac bc 79 b3 3d 3e 87 1c 8b 3d c0 ca 93 be
       -0.021103062 0.18525495 0.067925505 -0.28865623
000260 06 2e 1f 3d 6b 0a 5d bd 26 8e 87 be f9 9a a1 3c
       0.03886225 -0.053965013 -0.26475638 0.019727217
000270 e3 29 82 3e 61 9a ae be 55 d0 ac bd b7 6d 8e be
       0.25422582 -0.34102157 -0.08438174 -0.2781808
000280 64 7d 3e be 2a 1e 8b 3e 41 61 d1 bd 29 a0 a6 be
       -0.1860252 0.2717145 -0.10223628 -0.32544068
000290 cf 90 01 bd 08 54 d0 bd f5 5a 9a be e2 aa 1a 3c
       -0.03163224 -0.10172278 -0.3014752 0.009440156
0002a0 6b 17 75 be 4d 60 87 be d8 15 89 3e e7 62 8c 3d
       -0.23934714 -0.2644066 0.26774478 0.068548016
0002b0 22 85 db bd 90 9e f4 3d 67 cf fb bd c5 c9 c9 be
       -0.107187524 0.11944306 -0.12295418 -0.3941175
0002c0 12 ff a9 3c 3f b4 34 be 32 8b c2 bd 49 4f 54 be
       0.02075151 -0.17646883 -0.09499206 -0.2073337
0002d0 f2 c5 83 3e 5b 35 19 3e 03 99 9e 3e ac 95 1b be
       0.25736958 0.1496176 0.30976114 -0.15193814
0002e0 72 0d 42 3d 69 64 01 3e 6e ac ad 3d fc 91 70 be
       0.047376104 0.1263596 0.08480154 -0.23493189
0002f0 50 0f c7 3a c3 a5 3f 3e 0d e1 d6 3c 5b e9 d0 bd
       0.0015187059 0.18715577 0.02623036 -0.10200759
000300 5e ee 59 3e 8c 28 22 3e e0 da 12 3b 94 00 87 3d
       0.21282336 0.1583578 0.0022408292 0.06591907
000310 89 cf 27 3e 76 4c 27 3e 95 81 cd 3e 10 28 2b 3e
       0.16387762 0.16337761 0.40137926 0.16714501
000320 9b ef 2d be 3a bd 24 3d 52 8a 6f bd 79 a9 9f 3e
       -0.16985933 0.040219523 -0.058481522 0.31183985
000330 0b 03 91 3e 76 eb 32 bc a9 14 41 be 12 d0 09 bc
       0.28322634 -0.010920396 -0.18855537 -0.008411424
000340 b2 eb 59 3d 32 61 6d 3d 83 6b 3d be 39 ac 10 3d
       0.053203292 0.05795402 -0.18498044 0.035320494
000350 f0 ed 59 3e e5 71 14 be 8c 0e 61 be a6 58 9a bc
       0.21282172 -0.14496572 -0.21978205 -0.018841099
000360 40 86 dd bc ad 76 fa 3d de f2 f8 bc 74 b6 58 3e
       -0.027041554 0.12229667 -0.030389246 0.2116335
000370 86 cd 4e 3e 14 ec 15 bb b8 56 90 3e eb 92 cf bd
       0.20195588 -0.002287631 0.2819116 -0.10135444
000380 09 ea 54 bd c2 e8 00 3d 88 13 5e 3e 35 72 f7 bc
       -0.051981006 0.031471975 0.21687138 -0.030205825
000390 36 af a0 3e 89 df e0 bd c7 ff 9f bb 80 2f df 3d
       0.31383675 -0.10980136 -0.004882786 0.10897732
0003a0 ae 17 8b 3c 2d 63 5c 3e c0 a2 8c bd d1 5c 96 3d
       0.016979065 0.21522208 -0.068669796 0.07341922
0003b0 3a f7 cd bd 65 26 b4 bd 3a fa 51 be 06 8a b1 be
       -0.1005692 -0.08796386 -0.2050561 -0.34675616
0003c0 8c 8e c2 3d c7 45 a6 3c 55 df d9 3d a4 ff 93 be
       0.09499845 0.020296944 0.106383 -0.28905976
0003d0 64 46 cc be b2 87 98 3e 7e 48 57 3e b7 c6 7b be
       -0.39897454 0.29791027 0.21023747 -0.24587522
0003e0 d6 f8 75 3e 16 ac 85 be f6 3d 80 be d6 6e cb be
       0.24020705 -0.26107854 -0.25047272 -0.39733
0003f0 91 0e 93 3e 00 a6 8b be 05 bb 17 be 10 43 f2 bb
       0.2872205 -0.27275085 -0.14817436 -0.0073932484

rnn.bias_ih_l2 f4 [48]
000000 29 63 28 be cc 85 c9 bd 99 c1 02 3e 2d 24 93 3e
       -0.16444077 -0.09839973 0.12769164 0.28738537
000010 63 c2 78 be 6f 3e c8 3d 85 87 fd 3d cc ea a1 be
       -0.24292903 0.09777533 0.12379364 -0.31624448
000020 62 15 16 bd 20 40 08 3d 88 23 42 bd 98 ec 9b 3e
       -0.036641486 0.03326428 -0.047397166 0.30453944
000030 29 28 91 bb 71 70 9f be 2a 7d 9c bd 16 4e ad be
       -0.0044298363 -0.31140473 -0.07641061 -0.33848637
000040 27 b6 90 3d 20 b7 0f 3e 81 7f f3 bd be ef 17 3e
       0.07065993 0.140347 -0.11889554 0.14837548
000050 6f 40 7a 3d e4 8e 72 3e 29 5c 87 be 05 06 41 be
       0.061096605 0.23687321 -0.264375 -0.18849953
000060 55 9b 45 3e 4f 18 99 3d 0d d9 38 be 5e a1 84 3d
       0.19297536 0.074753396 -0.18051548 0.06476091
000070 f1 a4 9f 3e 8a d5 d0 3d 13 cb 30 be e7 3e 16 3e
       0.31180528 0.10196979 -0.17264967 0.14672433
000080 e8 30 50 be 6c cd cf 3b a8 53 ae 3d 0c 12 99 3e
       -0.20331156 0.006341627 0.0851205 0.2989658
000090 33 8a a9 bd 62 0d e0 3d d3 b6 87 3b d7 d8 68 3c
       -0.082783125 0.109400526 0.0041416674 0.014211855
0000a0 26 e7 00 3e a3 61 0c 3c 51 95 89 bd 22 ba 70 bd
       0.12588176 0.0085682 -0.06717933 -0.05877126
0000b0 eb 2a 84 3d 9f 40 5b be 4f 37 b6 3d 41 d3 84 3e
       0.064534985 -0.2141137 0.08897268 0.25942424

rnn.bias_hh_l2 f4 [48]
000000 7b 7f f9 3b 60 16 27 be b1 28 88 3e de be 8b 3e
       0.007614074 -0.16317129 0.26593545 0.27294058
000010 b4 36 11 3d 74 9e d2 3d be 2d 54 3e 3a a3 ee 3c
       0.03545256 0.10284129 0.20720574 0.029130567
000020 4a 1e 8d 3e 88 91 b9 bd 25 50 4d 3e 00 8d 4f bd
       0.2756217 -0.09060961 0.20050104 -0.050671577
000030 fc 90 59 be df dd 42 be 51 78 b1 bd 3f 8f d9 bd
       -0.21246713 -0.1902995 -0.08665527 -0.10623025
000040 1c f7 35 be 02 80 e9 3d a3 9b 05 3e 84 96 37 be
       -0.17770046 0.11401369 0.13047652 -0.17928511
000050 27 e8 b6 bd 10 f1 82 bd cf ed 8f 3d 14 6c cd bc
       -0.08930998 -0.06393635 0.0702778 -0.02507595
000060 df a1 a0 be 19 c5 53 3e 02 a5 5f bd a6 8c 87 3d
       -0.31373498 0.20680656 -0.054600723 0.066186234
000070 18 40 02 be 6b fb 67 be 3b 95 8d 3e 38 64 40 be
       -0.12719762 -0.22654502 0.27652916 -0.1878823
000080 1f 5c 8e be 63 c9 83 3e e9 2c 06 3e f6 cc 7f bd
       -0.27804658 0.25739583 0.1310307 -0.062451325
000090 6a ec a5 3e 5f 6a 8c bd 69 25 a6 3e 39 9c 98 3d
       0.32406932 -0.06856226 0.32450417 0.07451672
0000a0 25 63 d8 3d 7a 66 85 bd 6e 97 85 bc 16 fa 18 be
       0.10565785 -0.065136865 -0.016307559 -0.1493915
0000b0 e9 f6 ac bd 1e ef fd 3c 3b b3 04 be 1f df 58 3e
       -0.08445532 0.030997809 -0.12958996 0.21178864

reg.weight f4 [1, 12]
000000 36 39 0f be 22 e6 4a 3e 47 ac 7a be a5 25 b4 3e
       -0.13986668 0.19814351 -0.24479781 0.3518497
000010 4c 4e 94 3d b6 cd e0 bd 6c 1c 0d bd 29 fa c4 3d
       0.072414964 -0.10976736 -0.034450933 0.09618027
000020 9b 5b 31 be b7 2f a2 3d 69 6b a4 3e 26 cb 8d 3e
       -0.17320101 0.07919257 0.32113197 0.27694052
